runs/base_729.pt (torch, 44799 bytes, 61 tensors)

convs.0.block1.0.weight f4 [8, 1, 3]
0	0xbef49ab9	-0.47774294
1	0xbd818b73	-0.06325426
2	0x3ef84e2b	0.48497137
3	0xbe215ea4	-0.15758759
4	0x3ee0ba65	0.43892208
5	0xbeaf1f7e	-0.34203714
6	0xbe8b5add	-0.2721776
7	0x3eeb95b6	0.46012658
8	0xbe61ac7e	-0.22038457
9	0xbe612fb4	-0.21990854
10	0x3edef97b	0.43549713
11	0xbe74bc3d	-0.23899932
12	0x3eb4dfdc	0.3532704
13	0xbf21048e	-0.62897575
14	0x3eaa0b21	0.33211616
15	0xbe958d4b	-0.2920936
16	0x3f0a7c72	0.5409614
17	0xbe9bc02f	-0.30420062
18	0x3e6dc1f4	0.23218518
19	0xbe943f78	-0.28954673
20	0x3dd27a6e	0.10277258
21	0x3e67e4e5	0.2264591
22	0xbee380fb	-0.44434342
23	0x3e81d389	0.253567

convs.0.block1.0.bias f4 [8]
0	0x3e4efb0b	0.20212953
1	0xbe4f8694	-0.20266181
2	0xbe106587	-0.1410123
3	0xbd439a48	-0.047754556
4	0x3ec22ca5	0.37924686
5	0xbebd3bdf	-0.3695974
6	0xbd239a60	-0.039942145
7	0x3ed3c95e	0.41364568

convs.0.block1.1.weight f4 [8]
0	0x40afdfb0	5.4960556
1	0x40c098af	6.018638
2	0x40c397a3	6.1122603
3	0x40c68df7	6.2048297
4	0x40c18486	6.047427
5	0x40c398d8	6.1124077
6	0x40bdc071	5.9297414
7	0x40c30e6b	6.09551

convs.0.block1.1.bias f4 [8]
0	0x40a87fcb	5.2655997
1	0x40a7f161	5.248215
2	0x40a53307	5.162479
3	0x40a910cd	5.283301
4	0x40a625bd	5.1921067
5	0x40a63494	5.193918
6	0x40a751f5	5.2287545
7	0x40a5b503	5.178346

convs.0.block1.1.running_mean f4 [8]
0	0x3e354918	0.17703664
1	0xbe5104fc	-0.20412058
2	0xbe1277a1	-0.14303447
3	0xbd3a9455	-0.045551617
4	0x3ec3ea86	0.38264865
5	0xbebe649c	-0.37186134
6	0xbd0624bc	-0.032749876
7	0x3ed40fee	0.41418403

convs.0.block1.1.running_var f4 [8]
0	0x3d881c9e	0.06646083
1	0x3d2fee09	0.042951617
2	0x3d35d2ac	0.044390365
3	0x3d1e7901	0.038689617
4	0x3daa86df	0.08326506
5	0x3d7d3279	0.061815713
6	0x3ca73ffa	0.020416249
7	0x3d280670	0.041021764

convs.0.block2.0.weight f4 [16, 8, 5]
0	0x3e9fefa4	0.3123752
1	0xbe5b8567	-0.21437608
2	0x3e19df6b	0.15026633
3	0xbe59a728	-0.21255171
4	0x3eda75e5	0.4266807
5	0x3ec64a03	0.3872834
6	0xbd2ca02f	-0.04214495
7	0xbdd94757	-0.1060931
8	0xbe68c46a	-0.22731176
9	0x3e7f1fd4	0.24914485
10	0xbe7b4e70	-0.2454164
11	0x3c240d1f	0.010012894
12	0xbcd4a553	-0.025957739
13	0x3d75e298	0.06003055
14	0xbdf350d1	-0.11880649
15	0xbd5dcc9c	-0.05415021
16	0xbcae3f5d	-0.021270448
17	0xbde56e97	-0.11202734
18	0xbe241c88	-0.16026509
19	0x3dbe148c	0.09281263
20	0x3dbd87ec	0.09254441
21	0x3d819e42	0.063290134
22	0x3e0ea1f9	0.13928975
23	0xbd47f003	-0.048812877
24	0x3d2b1d74	0.041776136
25	0x3d813c5a	0.06310339
26	0xbd990ffd	-0.07473753
27	0x3be778ec	0.0070639756
28	0x3cb2af35	0.02181206
29	0xbd4a89ce	-0.049447827
30	0x3e7cf17e	0.24701497
31	0xbe83385a	-0.2562893
32	0x3d9926f9	0.074781366
33	0x3deb18e2	0.114793554
34	0x3eaa9873	0.33319435
35	0xbbce2680	-0.0062912107
36	0x3e86cbf2	0.26327473
37	0xbdf44db6	-0.11928885
38	0xbcd1a064	-0.025589176
39	0xbdffcac8	-0.12489849
40	0xbea8cb5c	-0.3296765
41	0xbd2b781d	-0.041862596
42	0x3d51b361	0.05119646
43	0xbe89a509	-0.26883724
44	0x3efbe561	0.4919844
45	0x3e069d9d	0.13146062
46	0xbdf46b8b	-0.11934575
47	0x3c4cf906	0.012510544
48	0xbeb69eea	-0.35668117
49	0x3e7683b2	0.24073675
50	0x3c82ae2c	0.015952192
51	0xbe6f09e7	-0.23343621
52	0xbdae3be4	-0.08507517
53	0xbd5d7026	-0.05406203
54	0xbc982714	-0.018573321
55	0xbe413dc8	-0.18871224
56	0x3e16143c	0.14656156
57	0xbd77efcf	-0.060531434
58	0x3ae9956f	0.0017821024
59	0x3c120371	0.008911953
60	0xbd8cd723	-0.068769716
61	0xbd3059e0	-0.04305446
62	0x3ca06fc8	0.019584551
63	0x3de1e011	0.110290654
64	0x3d1f1e38	0.03884718
65	0xbd745996	-0.05965575
66	0x3dc98150	0.098391175
67	0xbdea9d4d	-0.11455784
68	0xbd4ab853	-0.04949219
69	0xbd783c9d	-0.06060468
70	0xbeac5929	-0.33661774
71	0x3db98fed	0.09060655
72	0x3e2c25f7	0.16811357
73	0x3d4be8e2	0.04978264
74	0x3eb90b09	0.36141232
75	0x3cfe3add	0.031033928
76	0x3e73e916	0.23819384
77	0x3d371557	0.044698086
78	0xbd7c26ce	-0.061560445
79	0xbc81ada0	-0.015829861
80	0x3ea0dbe9	0.31417778
81	0xbe4185fa	-0.18898764
82	0x3e3b8c49	0.18315233
83	0xbe82fa95	-0.25581804
84	0x3ed6ac21	0.419282
85	0x3eaf24e5	0.34207836
86	0x3d40009d	0.046875585
87	0xbdc65073	-0.09683313
88	0xbe839bcf	-0.2570481
89	0x3e240e34	0.16021043
90	0xbe063b67	-0.13108598
91	0x3c443540	0.011975586
92	0xbde93ad7	-0.11388176
93	0xbd389014	-0.04505928
94	0xbd275e83	-0.040861618
95	0x3d8b8e57	0.068142585
96	0xbe348628	-0.17629302
97	0xbd989116	-0.07449548
98	0x3b9bbd18	0.0047527663
99	0xbc1dfcf6	-0.00964283
100	0x3e61722d	0.22016211
101	0x3a3b1ac7	0.0007137474
102	0xbbac0b50	-0.005250372
103	0xbd274bf6	-0.040843926
104	0x3caeb7c9	0.02132787
105	0xbe037765	-0.12838514
106	0xbc828d36	-0.015936475
107	0x3d02e4d3	0.031956505
108	0xbd5953e4	-0.05305852
109	0x3dce51db	0.100742064
110	0x3e31e769	0.17373432
111	0xbe1ff045	-0.15619
112	0x3dd28021	0.10278345
113	0x3d88f3ce	0.06687127
114	0x3eb51e13	0.35374507
115	0xbc2ac4d7	-0.010422907
116	0x3e72d904	0.23715597
117	0xbcc1d97c	-0.023663275
118	0x3bb788db	0.0056010312
119	0xbdd71fd2	-0.10504116
120	0xbddb9c91	-0.10723222
121	0x3c93af6b	0.018027982
122	0x3dee2920	0.11628938
123	0xbd1f3666	-0.038870238
124	0x3da4f2ed	0.08054147
125	0xbd8930f1	-0.06698788
126	0x3e152239	0.14563836
127	0xbdad85bd	-0.08472774
128	0xbc8f135f	-0.017465292
129	0xbed1a471	-0.4094577
130	0xbe09ff77	-0.13476358
131	0xbe05dab5	-0.13071711
132	0xbd05e3cd	-0.03268795
133	0xbd962386	-0.07330994
134	0xbec0591d	-0.37567988
135	0xbe1eafef	-0.15496801
136	0x3d86f1ad	0.06589065
137	0x3b4999f6	0.0030761934
138	0x3db9a5af	0.09064805
139	0xbe199e0a	-0.15001693
140	0x3d2a2d96	0.04154738
141	0x3daa1267	0.08304291
142	0xbbf97896	-0.007613252
143	0x3c282451	0.010262565
144	0xbe729238	-0.2368859
145	0xbe36ee55	-0.17864354
146	0x3e2c0023	0.16796927
147	0xbbbb5b3c	-0.005717663
148	0xbe01ce22	-0.1267629
149	0xbde35a55	-0.11101214
150	0xbe68dc78	-0.22740352
151	0x3d3fa3d1	0.046787087
152	0xbc14d118	-0.009083055
153	0xbd9ba5b1	-0.075999625
154	0xbd17b908	-0.037041694
155	0xbd919ee8	-0.07110387
156	0x3aec4353	0.0018025435
157	0x3c888733	0.01666603
158	0xbdd2862e	-0.10279499
159	0xbe9636b7	-0.2933862
160	0x3ea5618f	0.32300994
161	0xbe68b9b1	-0.22727086
162	0x3e261bc0	0.16221523
163	0xbe852790	-0.26006746
164	0x3ed6f82c	0.41986215
165	0x3effc02c	0.49951303
166	0xbdf0b547	-0.11753326
167	0xbd92d68d	-0.071698286
168	0xbe92703c	-0.28601253
169	0x3e3c1b04	0.1836968
170	0xbea20394	-0.31643355
171	0xbcc43603	-0.023951536
172	0x3d60034b	0.05469064
173	0x3d0ec4a0	0.034855485
174	0xbd56d897	-0.05245265
175	0x3cc359b4	0.023846485
176	0xbd11856d	-0.035527635
177	0xbe5f24ed	-0.2179143
178	0x3cd24730	0.02566871
179	0x3d9142e7	0.07092839
180	0x3e084d93	0.13310842
181	0xbceefc3b	-0.029173007
182	0xbcdc6ab8	-0.026906356
183	0x3ca71d2b	0.02039965
184	0xbdaf5d2e	-0.085626945
185	0xbd26e1d3	-0.040742707
186	0x3cb7ae97	0.022422118
187	0x3c8ddf20	0.017318308
188	0xbdb57c06	-0.08861546
189	0xbc2ed205	-0.01067019
190	0x3e30aa46	0.17252454
191	0xbe0a1958	-0.1348623
192	0x3e2161c1	0.15759946
193	0x3d9c6d41	0.07638026
194	0x3ecdf6a1	0.40227225
195	0x3cb987d3	0.022647774
196	0x3e7024d9	0.23451556
197	0xbccaed2d	-0.024771297
198	0xbd94bdb6	-0.07262747
199	0xbd52329b	-0.051317792
200	0xbd510104	-0.05102636
201	0xbebb4e69	-0.3658326
202	0xbe8e8467	-0.2783539
203	0xbe84cd03	-0.25937662
204	0x3eeb1f35	0.45922247
205	0xbd674792	-0.05646474
206	0xbdfcbe2a	-0.123409584
207	0xbe6318c6	-0.22177419
208	0xbe40c4aa	-0.18825021
209	0x3ca9dc1d	0.020734841
210	0x3cf0a5d3	0.029375946
211	0xbdbc8fac	-0.09207091
212	0xbe495b21	-0.19663669
213	0xbde57233	-0.112034224
214	0xbd9ff1b5	-0.07809774
215	0x3e3697c9	0.17831339
216	0x3e043fbb	0.12914936
217	0xbeb6d28a	-0.35707504
218	0x3bc7eb77	0.0061010676
219	0x3d9c2a97	0.07625311
220	0x3c0c8324	0.008576188
221	0xbd516507	-0.051121738
222	0xbdd0febc	-0.10204837
223	0x3dbfb0cb	0.093598925
224	0x3e8931dc	0.26795852
225	0xbd94a12c	-0.072573036
226	0x3e723250	0.23652005
227	0xbe787abd	-0.24265571
228	0xbd8bf6d1	-0.06834186
229	0x3dac55cb	0.08414801
230	0x3c1ea748	0.009683438
231	0x3cc3e375	0.02391217
232	0xbe48abb6	-0.19596753
233	0x3da77b99	0.08177871
234	0x3e526cb6	0.20549282
235	0xbe2ae907	-0.16690455
236	0xbc59836a	-0.01327596
237	0xbe4ff0e0	-0.2030673
238	0xbe495d82	-0.19664577
239	0xbd3c7f80	-0.04602003
240	0xbe429b7d	-0.19004627
241	0x3c505333	0.012715149
242	0xbcf1b18d	-0.029503608
243	0xbeb137e2	-0.34612948
244	0x3efaf3a1	0.49014
245	0xbc24dcb2	-0.0100623835
246	0x3bb1863d	0.005417614
247	0xbdf37907	-0.118883185
248	0xbe7a52be	-0.24445626
249	0x3d3622cf	0.04446679
250	0xbdf6f720	-0.12058854
251	0xbe220f39	-0.1582612
252	0xbc47671c	-0.012170579
253	0xbda95025	-0.082672395
254	0xbdcae843	-0.09907582
255	0xbdd95261	-0.10611416

convs.0.block2.0.bias f4 [16]
0	0x3d9f1be7	0.07768994
1	0x3dc96787	0.098341994
2	0x3db8a003	0.09014895
3	0xbd7751cb	-0.06038074
4	0xbe499bfa	-0.19688407
5	0xbd38654a	-0.04501847
6	0x3e3c40a8	0.1838404
7	0xbd578ffa	-0.05262754
8	0xbe06d230	-0.13166118
9	0xbcfb4532	-0.030672643
10	0xbe1a3574	-0.15059453
11	0x3d1283b2	0.035770126
12	0xbdb0edc0	-0.08639097
13	0x3dd89794	0.10575786
14	0x3db2df17	0.08733957
15	0xbe4d7643	-0.20064645

convs.0.block2.1.weight f4 [16]
0	0x40c13fd3	6.039041
1	0x40c16a5a	6.0442324
2	0x40c216cd	6.0652833
3	0x40c14293	6.0393767
4	0x40c0513f	6.0099177
5	0x40c177ac	6.0458584
6	0x40be57fd	5.9482408
7	0x40bcc279	5.8987393
8	0x40bc3849	5.8818707
9	0x40be6add	5.950545
10	0x40bbab1d	5.864638
11	0x40bdb5b1	5.928429
12	0x40c139da	6.038312
13	0x40bd2084	5.910219
14	0x40c089ff	6.016845
15	0x40bd3908	5.913212

convs.0.block2.1.bias f4 [16]
0	0x40a7d25d	5.244429
1	0x40aab967	5.335132
2	0x40a974db	5.2955146
3	0x40a875c0	5.264374
4	0x40a6d9be	5.21408
5	0x40a76cc9	5.2320294
6	0x40a7c99b	5.24336
7	0x40a83da9	5.257527
8	0x40a8bf70	5.273369
9	0x40a79d16	5.2379255
10	0x40a8dbc1	5.2768254
11	0x40a99d07	5.3004184
12	0x40a7e431	5.2466054
13	0x40a80682	5.2507944
14	0x40a75fb0	5.2304306
15	0x40a7ef5c	5.2479687

convs.0.block2.1.running_mean f4 [16]
0	0x40c391ac	6.111532
1	0xbff754d7	-1.9322766
2	0x40d0f70c	6.530157
3	0xc19bb643	-19.463995
4	0x40b721b3	5.7228637
5	0xc184790b	-16.559103
6	0xc07d5ddf	-3.9588544
7	0xc00796c1	-2.1185763
8	0xc06b92d2	-3.6808362
9	0xc1bfe8a1	-23.988588
10	0xc09f5e25	-4.9802423
11	0xc0bee44c	-5.9653683
12	0x40ce7653	6.451944
13	0xc1b6d9f9	-22.856432
14	0x40f98b00	7.798218
15	0xc16e46f8	-14.892326

convs.0.block2.1.running_var f4 [16]
0	0x41b47f1d	22.562067
1	0x41dcbac8	27.591202
2	0x41d5d1fa	26.727528
3	0x429ce033	78.43789
4	0x41c10a2d	24.129969
5	0x4293d371	73.91297
6	0x42084709	34.06937
7	0x41a27bcc	20.310448
8	0x41ad749f	21.681944
9	0x42afab7d	87.83494
10	0x4209a548	34.411407
11	0x421108c7	36.25857
12	0x4181f92e	16.24667
13	0x4276044b	61.504192
14	0x41ba8992	23.317173
15	0x42415fd7	48.343594

convs.1.block1.0.weight f4 [8, 1, 3]
0	0x3e599803	0.21249394
1	0xbee96ee6	-0.4559242
2	0x3e7d222c	0.24720067
3	0x3e827dae	0.2548651
4	0xbeee7cce	-0.46579593
5	0x3e66add2	0.22527245
6	0x3ea10fb4	0.31457293
7	0x3e82f598	0.25577998
8	0xbf1a05c8	-0.6016507
9	0x3eef288b	0.4671062
10	0xbf0e6ff9	-0.55639607
11	0x3e19af7b	0.15008347
12	0x3e3a1d33	0.18175201
13	0xbed1b922	-0.40961558
14	0x3e741d27	0.23839246
15	0xbeb17be5	-0.34664837
16	0x3f1c2ea6	0.6100868
17	0xbe9b6180	-0.30347824
18	0xbf500969	-0.8126436
19	0x3e76fe2e	0.241204
20	0x3ec86271	0.39137605
21	0x3e54ce2b	0.20781772
22	0xbecd342f	-0.40078875
23	0x3e571680	0.21004677

convs.1.block1.0.bias f4 [8]
0	0xbedb5e2b	-0.42845282
1	0x3a06482e	0.000512245
2	0x3e39da38	0.1814965
3	0x3da0fad4	0.07860342
4	0x3dec7162	0.115450636
5	0x3eb54a0b	0.35408053
6	0xbe82e652	-0.25566345
7	0x3e93249a	0.28738862

convs.1.block1.1.weight f4 [8]
0	0x40bbf426	5.8735533
1	0x40bae056	5.8398848
2	0x40b13420	5.537613
3	0x40ada2e8	5.426136
4	0x40bc8ae0	5.8919525
5	0x40b35a62	5.604783
6	0x40a74cd7	5.22813
7	0x40c00338	6.000393

convs.1.block1.1.bias f4 [8]
0	0x40a894c9	5.2681623
1	0x40a6d9a3	5.214067
2	0x40a7672e	5.231345
3	0x40a6f44a	5.2173204
4	0x40aa34b5	5.318934
5	0x40a83991	5.257027
6	0x40a7ac0d	5.2397523
7	0x40a85769	5.26067

convs.1.block1.1.running_mean f4 [8]
0	0xbee2830d	-0.4424061
1	0xbb91c7cb	-0.004448866
2	0x3e334276	0.17505822
3	0x3e0c1866	0.13681182
4	0x3de450c0	0.11148214
5	0x3ea7974c	0.32732618
6	0xbf02aaf5	-0.5104211
7	0x3e997c3c	0.29977596

convs.1.block1.1.running_var f4 [8]
0	0x3c1be2b4	0.009514499
1	0x3c421d69	0.011847832
2	0x3d18c459	0.037296627
3	0x3d07e917	0.033181276
4	0x3bf3362a	0.0074222283
5	0x3cb1e59e	0.021715935
6	0x3ddb895b	0.10719558
7	0x3c0aa3af	0.008461877

convs.1.block2.0.weight f4 [16, 8, 5]
0	0x3b380e58	0.0028084721
1	0x3d73efac	0.05955474
2	0xbcaf7bb0	-0.021421283
3	0xbdf589e4	-0.11989191
4	0xbdc0197c	-0.09379861
5	0x3db94290	0.09045899
6	0xbe495941	-0.19662954
7	0xbd0a51e8	-0.033769518
8	0xbdf2b613	-0.11851134
9	0x3e5d19f7	0.21591936
10	0x3eb0c502	0.34525305
11	0xbe637311	-0.22211863
12	0x3da94c04	0.08266452
13	0xbe22b552	-0.1588948
14	0xbf180bf8	-0.5939326
15	0x3c14dd3d	0.00908595
16	0xbe65bb53	-0.2243474
17	0x3e35252f	0.17689966
18	0x3e2017cb	0.15634076
19	0x3f0a2892	0.53968155
20	0x3e8f2c36	0.27963418
21	0x3e4a81e0	0.19776106
22	0xbe021864	-0.12704617
23	0xbc7313dd	-0.014836279
24	0xbe957e43	-0.29197893
25	0xbc2670e7	-0.010158754
26	0xbd1a746a	-0.037708677
27	0x3d40ecfd	0.04710101
28	0x3da8706e	0.08224569
29	0xbd58fbc4	-0.052974477
30	0x3cfc2c37	0.030782802
31	0xbec08250	-0.3759942
32	0x3de404ef	0.111337535
33	0xbe08dba1	-0.13365032
34	0x3de2b3e5	0.110694684
35	0xbd1b9d4a	-0.0379918
36	0xbc47ee74	-0.012202848
37	0xbc90c394	-0.017671384
38	0xbd49316a	-0.04911939
39	0x3c73c8fe	0.014879463
40	0x3e438004	0.19091803
41	0x3cd19ad9	0.025586532
42	0xbdb30259	-0.08740682
43	0xbe125f85	-0.1429425
44	0xbe1d4391	-0.15357806
45	0xbc14907a	-0.009067649
46	0xbd932a05	-0.07185749
47	0x3c35ff18	0.011108182
48	0x3e186587	0.1488248
49	0xbd77c11e	-0.060486905
50	0x3eb3c8a6	0.3511402
51	0xbe59b82f	-0.21261667
52	0x3e6089e1	0.21927597
53	0xbeead1ad	-0.45863095
54	0x3a5e2c37	0.00084752165
55	0x3ca6348c	0.020288728
56	0xbee854bc	-0.45377147
57	0x3dcb52ec	0.099279255
58	0x3e6c6cf7	0.23088442
59	0x3f04ca7a	0.51871455
60	0x3ddada32	0.10686149
61	0x3deae089	0.11468608
62	0x3d6a21a1	0.057160977
63	0xbe01e240	-0.12683964
64	0x3d9ee467	0.07758408
65	0xbc3e5ac5	-0.011618321
66	0xbc958f34	-0.018256761
67	0xbd992f41	-0.07479716
68	0xbcce0690	-0.025149614
69	0xbc9e1af6	-0.019299965
70	0x3d2ecbba	0.042674758
71	0xbed180cc	-0.40918577
72	0x3e1f6d96	0.15569147
73	0xbe6208de	-0.22073695
74	0x3ea9eeb6	0.33189934
75	0xbbb34b2d	-0.005471608
76	0x3db87e37	0.090084486
77	0xbc0799cd	-0.008276415
78	0xbd05dced	-0.032681394
79	0xbc8d15be	-0.017222282
80	0x3e07c88f	0.13260101
81	0x3db4c139	0.08825917
82	0x3d379afb	0.044825535
83	0xbde153fb	-0.11002346
84	0x3d0061d8	0.03134331
85	0xbe39e828	-0.18154967
86	0xbe2af6a8	-0.16695654
87	0xbd899014	-0.06716934
88	0x3d75c655	0.060003597
89	0x3dcfacd6	0.10140388
90	0x3e2fd0a9	0.17169441
91	0xbe17ebb1	-0.14836003
92	0x3de37e44	0.11108068
93	0xbeac4571	-0.3364673
94	0xbc9e54e8	-0.019327596
95	0xbf034fef	-0.51293844
96	0xbea7d68f	-0.32780883
97	0x3e1d1564	0.15340191
98	0x3e1f7af4	0.15574247
99	0x3ed07174	0.40711558
100	0x3e9047ee	0.28179878
101	0x3ddd3d3b	0.108026944
102	0x3c756d00	0.014979601
103	0xbe0f5326	-0.13996562
104	0xbca8ec7e	-0.02062058
105	0xbc52bcb9	-0.012862378
106	0xbe2d5841	-0.16928197
107	0xbd223914	-0.039605215
108	0x3dfcee99	0.123501964
109	0x3c8e413e	0.017365094
110	0xbebcef1c	-0.36901176
111	0xbeabb71b	-0.33538136
112	0x3dabf1ca	0.08395727
113	0xbe6e244d	-0.23256035
114	0x3e5fd5d6	0.21858916
115	0x3d7774d9	0.06041417
116	0x3e257362	0.16157296
117	0xbe0ee79d	-0.13955541
118	0x3cb88202	0.02252293
119	0xbe3b0092	-0.18261936
120	0x3d8537d0	0.06504786
121	0x3da3be6d	0.07995305
122	0x3d91de27	0.0712245
123	0xbd01cb31	-0.03168792
124	0xbe25ea59	-0.16202678
125	0x3cda143f	0.026620982
126	0xbe97d2cc	-0.29653013
127	0xbd17dac6	-0.037073873
128	0x3e90635d	0.28200808
129	0x3ba5c4aa	0.0050588446
130	0x3ebd0e43	0.36924943
131	0xbe85b177	-0.26111957
132	0x3e0a6aa1	0.13517238
133	0xbf026674	-0.5093758
134	0xbd44454f	-0.04791766
135	0xbbfd7424	-0.0077347923
136	0xbea29980	-0.31757736
137	0x3dee82c9	0.11646039
138	0x3e8d4b3b	0.2759646
139	0x3f0d3108	0.5515294
140	0x3e787607	0.24263774
141	0x3e7681da	0.24072972
142	0xbdaa2e46	-0.08309607
143	0xbe99935d	-0.29995242
144	0xbd273002	-0.04081727
145	0x3c1a7991	0.009428398
146	0xbca9067e	-0.020632979
147	0x3d32f64b	0.043691915
148	0xbce706d8	-0.028201506
149	0x3c46fc0e	0.012145055
150	0x3b9558a3	0.0045576855
151	0xbeda4fb3	-0.4263893
152	0x3de1f0a9	0.110322304
153	0xbe16a3df	-0.1471095
154	0x3ea4c056	0.3217799
155	0x3d1e79fd	0.038690556
156	0xbc84f8a6	-0.016231846
157	0xbbf831d2	-0.0075742984
158	0xbe1b14c3	-0.15144639
159	0x3c6c482c	0.014421504
160	0x3dcebab7	0.10094207
161	0x3e1590a4	0.14605957
162	0x3d064b25	0.032786507
163	0xbbb36b81	-0.005475462
164	0xbe01faf8	-0.12693393
165	0x3d2fe5d2	0.042943783
166	0xbe7362cb	-0.23768155
167	0x3d494c65	0.04914512
168	0x3d5cbedf	0.053892966
169	0x3dc612c2	0.096715465
170	0x3e9c2a4c	0.3050102
171	0xbe2088af	-0.1567714
172	0x3e1fe95b	0.15616362
173	0xbef2a214	-0.4738928
174	0x3bed7728	0.0072468705
175	0xbc3bc469	-0.011460402
176	0xbf040192	-0.51564896
177	0x3d5e78ee	0.054314546
178	0x3e809cbb	0.25119576
179	0x3eebdc05	0.460663
180	0x3e7ec10a	0.24878326
181	0x3e7421ac	0.2384097
182	0xbb1cebea	-0.0023944327
183	0xbe881b3f	-0.26583287
184	0x3c662e2a	0.014049092
185	0x3d1f9c8e	0.03896766
186	0xbd9a7dca	-0.075435236
187	0xbd4da5f8	-0.05020711
188	0xbd80011b	-0.06250211
189	0x3c4a324d	0.012341094
190	0xbd7a51b3	-0.06111307
191	0xbec68d94	-0.3877989
192	0x3daac6c1	0.083386905
193	0xbe2f1ff6	-0.17102036
194	0x3e90dc60	0.28293133
195	0xbcb26e62	-0.02178115
196	0x3d221ea8	0.039580017
197	0xbcc73447	-0.02431692
198	0x3d7bb3a3	0.06145061
199	0xbdea8425	-0.11450986
200	0x3e8d9f25	0.2766048
201	0xbe0630f1	-0.13104607
202	0xbcf73106	-0.030174743
203	0xbe0cf3a9	-0.13764824
204	0xbdef24b6	-0.11676924
205	0xbdf58f27	-0.11990195
206	0x3d8930a9	0.06698734
207	0xbce8615a	-0.028366733
208	0xbdb1a88c	-0.08674726
209	0x3eaf9647	0.3429434
210	0x3d70c78d	0.058784056
211	0xbd46c377	-0.048526254
212	0xbccc6c74	-0.024954058
213	0xbd105c6e	-0.035244398
214	0xbf05fcc2	-0.523388
215	0xbf0179d1	-0.505765
216	0xbd7b1a3d	-0.06130432
217	0x3e4ee596	0.20204768
218	0x3ddaa06e	0.10675131
219	0x3ef2227a	0.4729193
220	0x3e56eca3	0.20988707
221	0x3e81a10e	0.25318187
222	0xbcb8afc7	-0.022544755
223	0xbd74b50c	-0.059742972
224	0xbdb57d96	-0.08861844
225	0xbe1c3248	-0.15253556
226	0xbc76c8e5	-0.015062545
227	0xbd46b778	-0.048514813
228	0x3d9db0f4	0.07699767
229	0xbcb7918d	-0.022408271
230	0xbeb21c6e	-0.34787315
231	0xbe32c30d	-0.17457218
232	0xbce6dde7	-0.028181983
233	0xbde06e6a	-0.1095856
234	0x3cd54693	0.026034629
235	0xbcc33645	-0.023829589
236	0x3c6804d3	0.014161306
237	0xbda9ece8	-0.082971394
238	0x3d76a37b	0.0602145
239	0xbd8bbcca	-0.06823118
240	0x3e1ef0da	0.15521565
241	0x3db21eb1	0.0869726
242	0xbd625b7b	-0.055263024
243	0xbdb0c15d	-0.08630631
244	0xbe3fa3c4	-0.18714815
245	0xbdbdb136	-0.09262316
246	0xbce3017d	-0.02771067
247	0x3d6a0b91	0.057139937
248	0x3e03b698	0.12862623
249	0x3d76165d	0.06007992
250	0x3dfafb6f	0.122549884
251	0xbe05feb3	-0.13085441
252	0x3df44aa6	0.119283006
253	0xbea0a6f1	-0.31377366
254	0x3b8d7f96	0.004318188
255	0xbf393d96	-0.723596

convs.1.block2.0.bias f4 [16]
0	0x3dbffc97	0.093743496
1	0xbe84a473	-0.25906715
2	0x3da620a7	0.08111697
3	0x3d812500	0.06305885
4	0xbd6f8d80	-0.058484554
5	0x3d5844ef	0.052800115
6	0xbb9ec87f	-0.0048456783
7	0xbd25cd29	-0.04047886
8	0xbd33ef66	-0.04392948
9	0xbe3dfb4f	-0.18552898
10	0x3b044224	0.0020181024
11	0x3dcbbf64	0.09948614
12	0x3dbb1e7d	0.091366746
13	0x3ba349bf	0.0049831565
14	0x3d670379	0.056399796
15	0xbd1a3ee9	-0.037657652

convs.1.block2.1.weight f4 [16]
0	0x40c31d12	6.0972986
1	0x40c528f0	6.1612473
2	0x40c1d103	6.056764
3	0x40c3c8c5	6.118258
4	0x40c2da10	6.089119
5	0x40c11871	6.0342336
6	0x40c31301	6.09607
7	0x40c0efc5	6.0292687
8	0x40c2e7cb	6.090795
9	0x40c1c4bd	6.055266
10	0x40c31589	6.096379
11	0x40c2d331	6.08828
12	0x40c194f4	6.0494328
13	0x40c0bc14	6.0229588
14	0x40c17765	6.0458245
15	0x40c2fe5f	6.093551

convs.1.block2.1.bias f4 [16]
0	0x40ac59fc	5.3859844
1	0x40abf4a1	5.373612
2	0x40a6d268	5.2131844
3	0x40a8268c	5.2547054
4	0x40a628f0	5.1924973
5	0x40aa976f	5.3309855
6	0x40aa3f8b	5.3202567
7	0x40ab2c50	5.3491592
8	0x40ab9839	5.362332
9	0x40ac6573	5.387384
10	0x40aae6b6	5.340663
11	0x40abea3a	5.372342
12	0x40abc83d	5.368193
13	0x40a4f944	5.155428
14	0x40a943f3	5.2895446
15	0x40ac8539	5.3912625

convs.1.block2.1.running_mean f4 [16]
0	0xc08ab362	-4.3343973
1	0xbf6eca29	-0.9327722
2	0xc0ef73f9	-7.482907
3	0xbfb115ae	-1.3834741
4	0xbfbe5170	-1.4868603
5	0xc0c7b639	-6.240994
6	0xc08f8677	-4.485164
7	0xc0dc9fa6	-6.8944883
8	0xc0c24874	-6.0713444
9	0xc0b9721b	-5.795179
10	0xc0a2e578	-5.0905113
11	0xc098e141	-4.777497
12	0xc1021eb6	-8.132498
13	0xc1194b6b	-9.580913
14	0xc09081a2	-4.5158243
15	0xc0a9b250	-5.3030167

convs.1.block2.1.running_var f4 [16]
0	0x41d85d81	27.045656
1	0x41e8f957	29.121748
2	0x418f0a8b	17.880148
3	0x42020b78	32.5112
4	0x4200752a	32.114418
5	0x41972696	18.89384
6	0x419f90be	19.945675
7	0x41985095	19.039347
8	0x41a559f9	20.668932
9	0x4204a662	33.162483
10	0x41d6a260	26.829285
11	0x41d5fed0	26.74942
12	0x41de5984	27.793709
13	0x41883ba9	17.02913
14	0x419149d6	18.161053
15	0x41a07d39	20.061144

convs.2.block1.0.weight f4 [8, 1, 3]
0	0x3f085e70	0.532691
1	0xbed982a0	-0.4248247
2	0xbe4b58eb	-0.19858138
3	0xbeb1bb24	-0.3471309
4	0x3f0edfea	0.55810416
5	0xbe83b234	-0.25721896
6	0xbef713be	-0.4825725
7	0x3ef84c39	0.48495653
8	0x3eaca534	0.3371979
9	0xbe5462a5	-0.20740755
10	0x3ed8fef7	0.42382023
11	0xbea016d8	-0.31267428
12	0x3e964847	0.29352018
13	0xbf02616d	-0.5092991
14	0x3e73b334	0.2379883
15	0xbeadc71e	-0.33940977
16	0xbe4f4198	-0.20239866
17	0x3f151751	0.58238703
18	0xbed3c504	-0.41361248
19	0x3f2ad464	0.6673033
20	0xbe737dc1	-0.2377844
21	0x3e9f4d31	0.3111358
22	0xbf0849d8	-0.53237677
23	0x3e8a2ba9	0.26986435

convs.2.block1.0.bias f4 [8]
0	0xbee0d9a6	-0.43916053
1	0xbf1058e3	-0.5638563
2	0xbf01fca6	-0.50776136
3	0x3ecbe95d	0.3982648
4	0x3ef02a15	0.46907106
5	0xbd8bce79	-0.06826491
6	0x3ebd1b26	0.36934775
7	0xbe868882	-0.26276022

convs.2.block1.1.weight f4 [8]
0	0x40af2041	5.4726872
1	0x40c0944d	6.018103
2	0x40bba88b	5.864324
3	0x40b4bff2	5.648431
4	0x40beab3d	5.958403
5	0x40b1b6f4	5.553583
6	0x40b97e5b	5.7966743
7	0x40bf2c89	5.9741864

convs.2.block1.1.bias f4 [8]
0	0x40a7709e	5.232497
1	0x40a61a36	5.1906996
2	0x40a8092c	5.2511196
3	0x40a8292b	5.2550254
4	0x40a74ffe	5.2285147
5	0x40a62083	5.1914687
6	0x40a6af89	5.2089276
7	0x40a6e14c	5.215002

convs.2.block1.1.running_mean f4 [8]
0	0xbf2393d3	-0.63897437
1	0xbf1e5cca	-0.61860335
2	0x3e2f85dd	0.17140909
3	0x3e7b2c03	0.24528508
4	0x3ef7c918	0.4839561
5	0xbc4c95a2	-0.012486847
6	0x3ee4794b	0.4462379
7	0xbe4e0234	-0.20118028

convs.2.block1.1.running_var f4 [8]
0	0x3d663706	0.05620482
1	0x3d03173f	0.03200459
2	0x3d7e7734	0.0621254
3	0x3cc3ac0a	0.023885746
4	0x3cc9def0	0.024642438
5	0x3da1a6d2	0.078931466
6	0x3d206c89	0.039166007
7	0x3cee5f43	0.029098159

convs.2.block2.0.weight f4 [16, 8, 5]
0	0x3e11a1a2	0.14221814
1	0xbe572a9b	-0.21012346
2	0x3df98bc4	0.12184861
3	0x3d8f9fdc	0.07012913
4	0xbd3afb9a	-0.045650102
5	0xbe0d5d27	-0.13805066
6	0xbddb9bcc	-0.10723075
7	0xbd4ad26b	-0.049517076
8	0xbe038de0	-0.1284709
9	0xbe37d954	-0.17953998
10	0xbc852cf8	-0.016256794
11	0xbdf2720a	-0.118381575
12	0x3d072a15	0.032999117
13	0xbdddc633	-0.10828819
14	0xbb8ba632	-0.0042617554
15	0x3ed9352e	0.42423385
16	0x3c0daaba	0.008646661
17	0xbde68a79	-0.1125688
18	0xbd75f64b	-0.060049336
19	0xbf1a1209	-0.6018377
20	0x3e5bd7fe	0.21469113
21	0x3e3c731b	0.18403284
22	0x3d491cb5	0.049099643
23	0xbcf06bcd	-0.029348278
24	0x3de7c613	0.113170765
25	0x3e46c862	0.19412377
26	0xbe715f2e	-0.23571464
27	0xbe017273	-0.12641315
28	0xbdff5361	-0.12467075
29	0xbdf46586	-0.119334266
30	0xbe42d408	-0.19026196
31	0xbd3a1af9	-0.04543588
32	0x3d548c38	0.051891536
33	0x3e17a90d	0.14810582
34	0x3ea84884	0.32867825
35	0xbc2e1460	-0.010624975
36	0x3db9b4d1	0.09067691
37	0x3d67f5f4	0.056631044
38	0x3d9b99f0	0.075977206
39	0x3eb3f796	0.3514983
40	0x3e6f9082	0.23394969
41	0xbe6c8328	-0.23096907
42	0x3ec41b5b	0.3830212
43	0xbde9bac1	-0.114125736
44	0x3e9b4468	0.30325627
45	0xbd0dd14a	-0.03462342
46	0xbd9fcfe7	-0.07803326
47	0xb989698a	-0.0002620931
48	0xbdab1bfb	-0.08354946
49	0xbdd6522e	-0.10464893
50	0xbd22f389	-0.039783034
51	0xbd3b570f	-0.045737322
52	0x3d923e96	0.071408436
53	0xbc82aee5	-0.015952537
54	0x3e6f0955	0.23343404
55	0x3edb1f7f	0.42797467
56	0xbe1580c7	-0.14599906
57	0x3c9ee5c1	0.019396665
58	0xbef26414	-0.4734198
59	0xbe0c4a78	-0.13700283
60	0x3dd8bba3	0.10582664
61	0x3d8717fd	0.06596372
62	0xbd291b33	-0.041285705
63	0x3e4ffd96	0.20311579
64	0x3e702a3e	0.23453614
65	0x3ea14620	0.31498814
66	0xbea36a11	-0.3191686
67	0x3e10b4ce	0.14131472
68	0xbe89cf75	-0.2691609
69	0x3d811365	0.06302527
70	0xbe94d29c	-0.29066932
71	0xbdc96105	-0.09832958
72	0xbd8388c1	-0.06422568
73	0x3e4476f2	0.19185999
74	0x3d8ec584	0.06971267
75	0x3d74c50a	0.059758224
76	0x3e69a904	0.2281838
77	0xbd35a2c3	-0.044344675
78	0x3e89a905	0.26886764
79	0x3cd8e053	0.026474154
80	0xbf2719ce	-0.6527375
81	0xbcb2c2f9	-0.021821486
82	0x3e64753b	0.22310345
83	0x3dadc44b	0.084847055
84	0x3d51ae94	0.05119188
85	0xbe92688e	-0.28595394
86	0xbdae5aa6	-0.085133836
87	0xbcd0d5a1	-0.025492491
88	0xbcbd10d2	-0.02307931
89	0xbcf9d026	-0.03049476
90	0xbe426c87	-0.18986712
91	0x3db2b25a	0.08725424
92	0x3de4487e	0.11146639
93	0x3d6c2ff6	0.057662927
94	0x3e1a4682	0.15065959
95	0xbebb2091	-0.36548284
96	0xbe98fadb	-0.29878888
97	0xbec81f56	-0.39086407
98	0x3ceec364	0.029145904
99	0x3c6c88ab	0.014436881
100	0x3e04af05	0.1295739
101	0x3c9fd3c1	0.019510152
102	0xbdc78a19	-0.09743137
103	0xbdc98381	-0.098395355
104	0xbb598ab3	-0.0033194243
105	0xbd82c6b5	-0.063855566
106	0xbde9d408	-0.11417395
107	0xbd4703be	-0.048587553
108	0x3e12d635	0.14339526
109	0x3e2187df	0.15774487
110	0xbe4b7086	-0.19867143
111	0x3b5bffea	0.0033569285
112	0x3df46a91	0.119343884
113	0x3cadcefd	0.021216864
114	0xbc8ec3c1	-0.017427327
115	0x3e57308a	0.2101461
116	0xbd0ba946	-0.03409698
117	0x3d9ef977	0.077624254
118	0x3d0be497	0.034153547
119	0x3d566064	0.05233802
120	0xbea5060a	-0.3223117
121	0x3b38f510	0.002822224
122	0x3e0fc802	0.1404114
123	0x3cb0cc0a	0.021581668
124	0xbde2d639	-0.11076016
125	0xbe48457c	-0.19557756
126	0xbdca8612	-0.09888853
127	0xbdbcc559	-0.092173286
128	0xbc173cd9	-0.009230816
129	0xbeb6a87e	-0.35675424
130	0xbe6af2de	-0.22944209
131	0xbc56d009	-0.013111123
132	0xbdc74e6a	-0.09731753
133	0xbde855fc	-0.11344525
134	0x3daff1f0	0.08591068
135	0x3d1c6e0d	0.03819089
136	0xbdda4f5b	-0.10659667
137	0xbdda95bd	-0.106730916
138	0xbddad5ac	-0.10685286
139	0xbee4e4cc	-0.44705808
140	0x3dcd72ff	0.100316994
141	0x3e17f23f	0.14838503
142	0xbd7dddfe	-0.061979286
143	0xbdeffc23	-0.11718013
144	0x3dda43d9	0.10657472
145	0xbe0dea1f	-0.13858841
146	0xbdda490b	-0.10658463
147	0x3c8f2940	0.017475724
148	0xbe085b84	-0.1331616
149	0xbe754409	-0.23951735
150	0xbe3810ac	-0.1797511
151	0x3da85680	0.082196236
152	0x3d8b5e62	0.068051115
153	0x3db85a0e	0.090015516
154	0x3e9d8930	0.30768728
155	0x3e44c41a	0.19215432
156	0x3cb001c4	0.021485217
157	0x3d9c0499	0.076180644
158	0x3e2bb8de	0.1676974
159	0x3e996fef	0.2996821
160	0xbe9cba60	-0.30610943
161	0xbc15ef06	-0.009151226
162	0x3dc6cc93	0.09706988
163	0xbc55502d	-0.013019604
164	0x3e045a49	0.12925066
165	0xbced767a	-0.028987158
166	0xbdc2cd24	-0.09511784
167	0xbe041b14	-0.12900954
168	0xbcf3d0a0	-0.029762566
169	0xbe56f3df	-0.20991467
170	0xbe5a41af	-0.21314119
171	0xbd65eee0	-0.056136012
172	0xbdc0663d	-0.093945004
173	0xbd8a6699	-0.0675785
174	0x3ddf2dbb	0.10897394
175	0x3de6f381	0.112769134
176	0x3db64a80	0.089009285
177	0x3d77f45b	0.06053577
178	0xbed43584	-0.4144708
179	0xbf0f44ff	-0.55964655
180	0x3da078bc	0.07835528
181	0x3e135c23	0.14390616
182	0xbc12b52c	-0.008954328
183	0x3db71143	0.08938839
184	0x3e75ec57	0.24015938
185	0xbdcf3975	-0.10118381
186	0xbdb897f0	-0.09013355
187	0xbdd5c402	-0.10437776
188	0xbee53d01	-0.44773105
189	0xbe348ef9	-0.17632665
190	0xbe8278ef	-0.2548289
191	0xbb789b43	-0.003793434
192	0xbaedab4e	-0.0018132718
193	0x3e12c8ff	0.14334486
194	0x3eac6ee9	0.33678368
195	0x3deca1df	0.11554312
196	0xbd2e9130	-0.04261893
197	0x3df7e897	0.1210491
198	0x3e15bcae	0.14622757
199	0x3e7da00f	0.24768089
200	0xbdda739d	-0.10666583
201	0xbe7e92ab	-0.24860637
202	0x3e9050fc	0.28186786
203	0x3e1ace97	0.1511787
204	0xbe0ef49b	-0.13960497
205	0xbd94cb43	-0.072653316
206	0xbd432094	-0.04763849
207	0xbdc503ad	-0.09619842
208	0x3d773268	0.060350806
209	0xbe869750	-0.26287317
210	0xbe02282c	-0.12710637
211	0xbdd67959	-0.10472364
212	0xbd1b7a28	-0.037958294
213	0xbdeb34de	-0.11484693
214	0x3d7a75ad	0.06114738
215	0x3e864a4f	0.26228568
216	0xbe4ca849	-0.1998607
217	0xbea892ff	-0.3292465
218	0xbe7611e5	-0.24030264
219	0xbefc0771	-0.49224427
220	0x3e297d2f	0.1655166
221	0x3e0e147c	0.13875002
222	0xbe039e88	-0.12853444
223	0xbce5d574	-0.028055884
224	0x3e4ab5dc	0.19795936
225	0x3db966f6	0.09052841
226	0xbe72919f	-0.23688363
227	0xbd4c03ca	-0.0498083
228	0xbce8b966	-0.028408717
229	0xbe439b07	-0.19102107
230	0xbe62d2da	-0.22150746
231	0xbd8dcff8	-0.069244325
232	0x3e0b4dc1	0.1360388
233	0x3e048000	0.12939453
234	0x3e993b3e	0.2992801
235	0x3e8d2960	0.2757063
236	0x3e56d9f9	0.20981587
237	0x3df583ad	0.11988006
238	0xbc9d6c60	-0.019216716
239	0x3e585945	0.21127804
240	0x3e2e2f25	0.17010172
241	0xbe09048b	-0.1338064
242	0x3e6788cd	0.22610779
243	0x3d9ff471	0.078102954
244	0xbdedf915	-0.11619774
245	0xbe150bc1	-0.14555265
246	0xbe22038e	-0.15821669
247	0x3c9e2608	0.019305244
248	0x3d2efda0	0.042722344
249	0xbe959a03	-0.29219064
250	0xbd870b7c	-0.06593987
251	0xbdf9d4db	-0.12198802
252	0xbddfede2	-0.109340444
253	0xbd930ed5	-0.07180563
254	0x3e0bd56d	0.13655634
255	0x3ee6cd24	0.45078385

convs.2.block2.0.bias f4 [16]
0	0x3e0245e7	0.12721978
1	0xbdd9a30f	-0.10626804
2	0x3ce7badf	0.02828735
3	0xbd420c22	-0.047374852
4	0xbda07611	-0.078350194
5	0x3db199b0	0.08671892
6	0x3e2a4e11	0.16631342
7	0xbe7627ad	-0.24038573
8	0xbe2facea	-0.17155805
9	0x3da0e9d4	0.07857099
10	0xbe1d033b	-0.15333264
11	0x3db25971	0.08708466
12	0xbd9c4238	-0.07629818
13	0x3d209881	0.03920794
14	0x3c84ae1c	0.016196303
15	0x3e21a441	0.15785314

convs.2.block2.1.weight f4 [16]
0	0x40c40704	6.1258564
1	0x40c246d5	6.0711465
2	0x40bc820c	5.890875
3	0x40c0b2f4	6.021845
4	0x40c2854a	6.0787706
5	0x40c11b4a	6.034581
6	0x40c3269a	6.098462
7	0x40c3bfcd	6.117163
8	0x40c13c17	6.038585
9	0x40c32541	6.0982976
10	0x40c0d907	6.0264926
11	0x40c28c69	6.07964
12	0x40c39297	6.1116443
13	0x40c133da	6.0375795
14	0x40c25559	6.0729184
15	0x40c135c6	6.037814

convs.2.block2.1.bias f4 [16]
0	0x40a7cdcf	5.243873
1	0x40aa2f08	5.318241
2	0x40abe54c	5.3717403
3	0x40aac195	5.3361306
4	0x40a5bb45	5.17911
5	0x40a784c2	5.234956
6	0x40a9b36d	5.3031526
7	0x40a91f9d	5.285109
8	0x40aaee5c	5.3415966
9	0x40a58bb5	5.173304
10	0x40aaba7f	5.3352656
11	0x40aa5de6	5.323962
12	0x40aaf98e	5.342963
13	0x40a9b0e5	5.3028436
14	0x40a8a8b4	5.2705936
15	0x40a4988f	5.143623

convs.2.block2.1.running_mean f4 [16]
0	0x3e712075	0.23547538
1	0x40d479fc	6.6398907
2	0xc0f0d60c	-7.526129
3	0xc10262b6	-8.149099
4	0xc0db8ebf	-6.861175
5	0xc07ddb78	-3.9665203
6	0x402de7f9	2.7172835
7	0x40c0b150	6.0216446
8	0xc0d882b0	-6.765953
9	0x3f854648	1.0412073
10	0xc1086b5e	-8.526213
11	0xc0a14d56	-5.0406904
12	0xc0cde1cc	-6.433813
13	0xc0abc221	-5.3674474
14	0xc130d65b	-11.052333
15	0xc0c66f8a	-6.2011156

convs.2.block2.1.running_var f4 [16]
0	0x41f527a6	30.64436
1	0x423d3568	47.302155
2	0x4237e1a3	45.97035
3	0x420a483d	34.570545
4	0x41d01899	26.01201
5	0x41fa4adf	31.286558
6	0x421750cb	37.8289
7	0x424b899a	50.884377
8	0x42099367	34.393948
9	0x41e5b2c0	28.71228
10	0x4226505f	41.578487
11	0x4250ad2a	52.169106
12	0x4233611f	44.844845
13	0x424b0890	50.75836
14	0x421e6a5e	39.603874
15	0x41fbf32b	31.493734

convs.3.block1.0.weight f4 [8, 1, 3]
0	0xbe8a4848	-0.2700827
1	0x3ee77afa	0.4521101
2	0xbe9effbd	-0.31054488
3	0x3e8ff325	0.28115192
4	0xbedd10fb	-0.43177018
5	0x3e8f1687	0.27946874
6	0xbe9ffe29	-0.31248596
7	0x3f069ac0	0.5257988
8	0xbeb84c7a	-0.35995847
9	0xbe9526b5	-0.29131094
10	0x3f01bb5e	0.50676525
11	0xbeb5c08a	-0.35498458
12	0x3eae6568	0.34061742
13	0xbf07282f	-0.5279569
14	0x3eb1dfd6	0.34741086
15	0xbe7eaf8d	-0.24871655
16	0x3ec7ee3b	0.39048943
17	0xbe85c47a	-0.26126462
18	0x3eb09362	0.34487444
19	0xbef39123	-0.47571668
20	0x3e90b7f7	0.28265354
21	0x3e596c55	0.21232732
22	0xbea750e6	-0.32678908
23	0x3e55440e	0.20826742

convs.3.block1.0.bias f4 [8]
0	0xbea76e0c	-0.32701147
1	0x3f0d3b9a	0.5516907
2	0x3f31a2c5	0.6938899
3	0x3d342080	0.043976307
4	0x3dce2851	0.100662835
5	0xbe71cad8	-0.23612535
6	0x3d787b94	0.06066473
7	0xbed26d5c	-0.4109906

convs.3.block1.1.weight f4 [8]
0	0x40c17362	6.045335
1	0x40c2f472	6.0923395
2	0x40c20a4f	6.0637584
3	0x40c2cf18	6.08778
4	0x40c31a9e	6.096999
5	0x40c2e85a	6.090863
6	0x40c46b3e	6.138091
7	0x40c15bd2	6.0424585

convs.3.block1.1.bias f4 [8]
0	0x40a499d5	5.1437783
1	0x40a5fbc1	5.1869817
2	0x40a5dc6f	5.1831584
3	0x40a5e65e	5.184371
4	0x40a5c2bc	5.1800213
5	0x40a68bbb	5.204557
6	0x40a7bc8d	5.2417665
7	0x40a4bd9d	5.148146

convs.3.block1.1.running_mean f4 [8]
0	0xbe951a4b	-0.29121622
1	0x3f04a770	0.5181799
2	0x3f3c073e	0.7344855
3	0x3da8dac5	0.08244852
4	0x3d6848e4	0.05671014
5	0xbe4f66d2	-0.20254067
6	0x3c87d44a	0.01658072
7	0xbedef7c1	-0.43548396

convs.3.block1.1.running_var f4 [8]
0	0x3e925d75	0.28586927
1	0x3e86abc0	0.2630291
2	0x3ec52477	0.38504383
3	0x3eb6fc4c	0.35739362
4	0x3eca11c2	0.39466673
5	0x3e5d9028	0.21637022
6	0x3ea687ee	0.3252558
7	0x3e18eeed	0.14934893

convs.3.block2.0.weight f4 [16, 8, 5]
0	0x3e171eff	0.14757918
1	0xbcd5ddf2	-0.026106808
2	0xbd0a6700	-0.033789635
3	0xbd8462fc	-0.06464192
4	0x3ea40322	0.3203364
5	0x3e99aed3	0.30016193
6	0xbdc19fb3	-0.09454288
7	0x3c6b735a	0.014370764
8	0xbdad7676	-0.0846986
9	0x3e8b0fe7	0.2716057
10	0x3e4fcdaa	0.20293298
11	0xbc4aacf4	-0.012370337
12	0xbcba88e8	-0.02277036
13	0x3bfb3ff8	0.007667538
14	0x3e52b947	0.2057849
15	0x3e9145ec	0.2837366
16	0x3d94d008	0.07266241
17	0xbd454102	-0.0481577
18	0xbd3d861e	-0.046270482
19	0x3e51ad4f	0.20476268
20	0x3e2eb220	0.17060137
21	0x3d1e6bfc	0.0386772
22	0x3c63dafe	0.013907192
23	0x3cace5d7	0.02110569
24	0x3e7cbd0c	0.2468149
25	0x3e8a4883	0.27008447
26	0x3cdc4141	0.026886584
27	0x3d014d0a	0.03156761
28	0x3d88bbcf	0.06676447
29	0x3e4020f0	0.18762565
30	0x3e9c693a	0.30549031
31	0xbdb22893	-0.08699145
32	0xbcbc4e72	-0.022986624
33	0xbc83b7d1	-0.016078861
34	0x3e5c4bf0	0.21513343
35	0x3e5e2cac	0.21696728
36	0x3def895f	0.11696123
37	0x3d820135	0.063478865
38	0xbcad91b0	-0.021187633
39	0x3e86d944	0.26337636
40	0x3e905955	0.28193155
41	0x3cdef8e8	0.027218297
42	0x3e0b8c7d	0.13627811
43	0x3e0dafa8	0.13836539
44	0x3dfc5cb6	0.12322371
45	0x3ed53bab	0.41647086
46	0xbdf4e4bc	-0.1195769
47	0xbd8dbe0d	-0.06921015
48	0x3af1891b	0.0018427701
49	0x3e8c90d7	0.27454254
50	0x3d3ec4a5	0.046574254
51	0xbd5444cf	-0.051823433
52	0xbdcff41c	-0.10153982
53	0x3d27aca0	0.040936112
54	0x3e9ecf16	0.3101737
55	0x3e85c09e	0.26123518
56	0xbc1d90fa	-0.009617085
57	0xbdba4e15	-0.09096924
58	0xbd5ee7d2	-0.0544203
59	0x3e7993f0	0.2437284
60	0x3e0f6b22	0.14005712
61	0x3d0ae9fc	0.03391455
62	0x3e5945f9	0.21218099
63	0xbc1a79a2	-0.009428414
64	0x3e20a4b1	0.15687825
65	0x3e670e3e	0.22564027
66	0x3dfb2035	0.122620024
67	0x3b990295	0.0046694973
68	0xbd4ef721	-0.05052865
69	0x3e4e9335	0.20173343
70	0x3e88189a	0.2658127
71	0x3db0e3a0	0.08637166
72	0xbce7b7b0	-0.028285831
73	0xbd8eda90	-0.06975281
74	0x3e9da44a	0.30789405
75	0x3c2b8206	0.010468012
76	0xbd402d1c	-0.04691802
77	0xbcd177ec	-0.025569879
78	0xbdba3be7	-0.09093457
79	0x3ddf7cb9	0.10912461
80	0xbc068234	-0.008209754
81	0xbd846323	-0.06464221
82	0x3ddc2da1	0.107508905
83	0xbd9fec3c	-0.0780873
84	0x3e9fa504	0.31180584
85	0xbec76785	-0.38946167
86	0xbe777cbe	-0.24168679
87	0xbc983032	-0.018577669
88	0xbcfa8fd7	-0.030586166
89	0x3dfd8f11	0.123808034
90	0xbe5b44c4	-0.21412951
91	0x3e74ac68	0.23893893
92	0xbd9d5732	-0.07682647
93	0xbdd0e0bd	-0.101991154
94	0x3e66b2ac	0.22529095
95	0xbe45a91e	-0.19302794
96	0x3ae490f1	0.0017438215
97	0xbda0a9e9	-0.07844908
98	0xbde9cf82	-0.11416532
99	0x3e0311bd	0.12799735
100	0xbe72f251	-0.23725249
101	0xbe1ffab3	-0.15622978
102	0x3ce45f68	0.027877524
103	0xbbac4a5d	-0.005257888
104	0xbd43400b	-0.047668498
105	0xbddac9ec	-0.10683045
106	0x3e49b0f6	0.19696411
107	0x3dfbe389	0.12299258
108	0x3d8b9bef	0.06816851
109	0x3e132ca2	0.14372495
110	0xbe4aeed1	-0.19817664
111	0xbdcf743f	-0.10129594
112	0xbb7b8a71	-0.0038382078
113	0xbdffed29	-0.124964066
114	0x3e94b760	0.29046154
115	0xbedecc07	-0.43515036
116	0xbdd879dd	-0.105701186
117	0x3d2c1261	0.042009715
118	0x3c57929b	0.013157512
119	0x3e5a6bef	0.21330236
120	0x3dbd59e5	0.09245662
121	0x3de0c20e	0.10974513
122	0x3d168920	0.036751866
123	0xbc7b113a	-0.015323931
124	0x3e0831d2	0.13300255
125	0x3e9de61c	0.30839622
126	0xbb987674	-0.0046527926
127	0x3e459949	0.19296755
128	0xbdc8a69a	-0.09797402
129	0x3eba6dbe	0.36411852
130	0x3e8d3472	0.27579075
131	0xbd26338a	-0.040576495
132	0x3d5175fe	0.051137917
133	0x3d6f27d3	0.05838759
134	0x3e519a7c	0.20469087
135	0x3e524edb	0.20537893
136	0xbdaad566	-0.08341484
137	0xbc75a821	-0.014993698
138	0xbd505d9a	-0.050870515
139	0x3e3cb82b	0.1842963
140	0x3da6172a	0.08109887
141	0x3d69fc82	0.057125576
142	0xba8ce944	-0.0010750671
143	0xbc7acfa4	-0.015308294
144	0x3e093544	0.13399225
145	0x3e844afc	0.2583846
146	0x3dd65f37	0.104673795
147	0xbe024506	-0.12721643
148	0x3dad147a	0.08451171
149	0x3eb329b1	0.34992746
150	0x3e6aba45	0.22922619
151	0xbda7f337	-0.082006864
152	0xbdd2d8b3	-0.10295238
153	0xbc844527	-0.016146256
154	0x3ddf4644	0.10902074
155	0x3e50a7d0	0.20376515
156	0xbccaad09	-0.024740713
157	0x3ba446ac	0.0050133076
158	0xbcfd6318	-0.03093104
159	0x3e79779f	0.24362038
160	0xbe8a9888	-0.27069497
161	0x3d0f9466	0.035053633
162	0x3e1338aa	0.14377084
163	0x3de873a3	0.11350181
164	0x3dbf2df0	0.09334934
165	0xbe7e7d96	-0.24852595
166	0xbd232345	-0.039828558
167	0xbd1e0ed1	-0.03858835
168	0xbd236751	-0.039893452
169	0x3d91bc65	0.071160115
170	0xbdb101bf	-0.08642911
171	0x3dd06597	0.10175627
172	0xbd92c2b4	-0.07166043
173	0xbdf652f9	-0.120275445
174	0x3e8bc6b9	0.2730005
175	0xbd156ef6	-0.036482774
176	0x3e66ec57	0.22551094
177	0xbdf67f7c	-0.120360345
178	0x3bfbaaa5	0.0076802545
179	0x3e04425b	0.12915938
180	0xbf05ad8a	-0.52217925
181	0xbe169409	-0.14704908
182	0xbd8e1613	-0.06937804
183	0x3d03c906	0.032174133
184	0x3e2904fb	0.16505806
185	0x3b934793	0.0044946163
186	0xbdefb93c	-0.117052525
187	0x3e05962e	0.1304557
188	0xbe3b871d	-0.1831326
189	0x3e34a044	0.17639261
190	0xbe7a4339	-0.24439706
191	0xbe656e92	-0.2240546
192	0x3e066acb	0.13126676
193	0xbdd703b0	-0.1049875
194	0x3d2322e9	0.039828215
195	0xbe486019	-0.19567908
196	0xbe0e8d1a	-0.13921013
197	0x3d46e854	0.04856141
198	0x3be12da2	0.006871895
199	0x3df66f29	0.12032921
200	0xbe8c4e40	-0.2740345
201	0x3e28bf9b	0.16479342
202	0xbe267fc1	-0.16259672
203	0x3c929ff7	0.017898543
204	0x3e71dd1a	0.236195
205	0xbe521e91	-0.20519473
206	0xbe25a578	-0.16176403
207	0x3d4e4f80	0.050368786
208	0xbd9f13b9	-0.07767434
209	0x3dd9945c	0.106240004
210	0xbdb82482	-0.08991338
211	0x3ce41458	0.027841732
212	0x3dc6d9a3	0.0970948
213	0xbb894fef	-0.004190437
214	0x3e1250b3	0.14288597
215	0xbe179bfb	-0.14805596
216	0x3de8d433	0.11368599
217	0xbc8e9ce0	-0.017408788
218	0xbe1cb862	-0.15304711
219	0x3e3416d1	0.17586829
220	0xbe029c8b	-0.12755029
221	0x3c8e1a41	0.017346503
222	0x3dbad197	0.09122007
223	0xbd0a84f0	-0.033818185
224	0x3ded524b	0.11587962
225	0xbe9e4753	-0.3091379
226	0x3e131503	0.14363484
227	0x3d7a5fab	0.061126392
228	0xbd851cdd	-0.06499646
229	0x3e1ef8b4	0.1552456
230	0xbe86aa73	-0.26301917
231	0xbe1fe2f4	-0.1561392
232	0x3da0a06b	0.07843097
233	0xbdfdc747	-0.12391525
234	0x3ebe95aa	0.3722356
235	0xbe7b2533	-0.24525909
236	0xbe30ef4e	-0.17278787
237	0xbe00180e	-0.12509176
238	0x3da1f36d	0.07907758
239	0x3e76979d	0.24081273
240	0x3e8758b2	0.26434857
241	0x3d6e968e	0.05824905
242	0x3cdf1e43	0.02723611
243	0x3c95aa54	0.018269695
244	0x3e336c8b	0.17521875
245	0x3e4d5f05	0.20055778
246	0xbc2782d2	-0.010224061
247	0x3d87fb90	0.066397786
248	0xbce8203a	-0.02833568
249	0x3eba1717	0.3634574
250	0x3e8d38c5	0.27582374
251	0xbe12bd88	-0.14330113
252	0x3d7d324c	0.061815545
253	0x3d9fc7b7	0.078017645
254	0x3eb17a82	0.3466378
255	0x3dde9384	0.1086798

convs.3.block2.0.bias f4 [16]
0	0x3d2ba6af	0.04190701
1	0x3bc6734a	0.006056224
2	0xbe5edb25	-0.21763285
3	0xbd62bfc2	-0.055358656
4	0xbe09d88d	-0.13461514
5	0xbe26481c	-0.16238445
6	0x3e8b5bf5	0.27218595
7	0xbd2a6a6c	-0.041605398
8	0x3e07b9c8	0.13254464
9	0x3e105c8b	0.14097802
10	0x3e65ce0c	0.22441882
11	0x3ce40af2	0.02783725
12	0xbde9550e	-0.11393176
13	0x3d67fe01	0.05663872
14	0xbde3663c	-0.11103484
15	0x3e032569	0.1280724

convs.3.block2.1.weight f4 [16]
0	0x40bd33cb	5.9125724
1	0x40bdad5c	5.927412
2	0x40bdba18	5.9289665
3	0x40bcefe8	5.9042854
4	0x40c0f3f6	6.0297804
5	0x40bdd6e5	5.9324822
6	0x40bbf8b0	5.8741074
7	0x40bdaa38	5.9270287
8	0x40bdc2d2	5.930032
9	0x40bf2cc5	5.974215
10	0x40bd3572	5.912774
11	0x40bea3b3	5.957483
12	0x40be1b03	5.9407973
13	0x40beec42	5.96634
14	0x40c00dc6	6.0016813
15	0x40bea706	5.9578886

convs.3.block2.1.bias f4 [16]
0	0x40a83461	5.256394
1	0x40a8d6df	5.2762294
2	0x40a828aa	5.254964
3	0x40a851c6	5.259982
4	0x40a923a9	5.285603
5	0x40a74c87	5.2280917
6	0x40a86e63	5.263475
7	0x40a7429e	5.226882
8	0x40a624c4	5.191988
9	0x40a734a3	5.2251754
10	0x40a7c058	5.2422295
11	0x40a76547	5.231113
12	0x40a7a691	5.239083
13	0x40a797ec	5.237295
14	0x40a82466	5.254443
15	0x40a8b606	5.2722197

convs.3.block2.1.running_mean f4 [16]
0	0x42029483	32.64503
1	0x41edff91	29.749788
2	0xc0df5c38	-6.980007
3	0x41ed9bd1	29.701082
4	0xc0ffeeba	-7.9978914
5	0xc0335018	-2.8017635
6	0x41facca2	31.349918
7	0xc0038979	-2.0552657
8	0xc06492a0	-3.5714493
9	0xc1b74c54	-22.91227
10	0xc1bbc4b8	-23.471054
11	0xc0c00e70	-6.0017624
12	0x40a0403c	5.007841
13	0xc1ac4a5d	-21.53631
14	0xc0862285	-4.191714
15	0xc1bdf6ec	-23.745567

convs.3.block2.1.running_var f4 [16]
0	0x43033215	131.19563
1	0x42d13272	104.598526
2	0x430d437c	141.26361
3	0x42d208ef	105.01745
4	0x42d239c9	105.11286
5	0x43057114	133.44171
6	0x42e3245c	113.571014
7	0x430e061d	142.02388
8	0x4294cdc5	74.40189
9	0x429dc4c5	78.884315
10	0x42a5c5f5	82.886635
11	0x4278c6c0	62.19409
12	0x428f6b0a	71.70906
13	0x42885488	68.1651
14	0x42f24825	121.14091
15	0x42ffc433	127.8832

convs.4.block1.0.weight f4 [8, 1, 3]
0	0x3e836e25	0.2566997
1	0xbee75ce5	-0.4518806
2	0x3e47b729	0.19503464
3	0x3e7ffd14	0.24998885
4	0xbeede06a	-0.46460277
5	0x3e6074a6	0.21919498
6	0x3f0f7ff7	0.56054634
7	0xbec96c37	-0.39340374
8	0xbe876c43	-0.26449785
9	0xbec470b6	-0.38367242
10	0x3f16f589	0.58968407
11	0xbe845803	-0.25848398
12	0xbf063ea7	-0.5243935
13	0x3f3f3ee1	0.7470532
14	0xbe8c1cfe	-0.2736587
15	0x3e89367b	0.26799378
16	0xbf006d8f	-0.50167173
17	0x3e8323dd	0.256133
18	0x3ec61fd8	0.3869617
19	0xbf322e7c	-0.6960218
20	0x3ea849b7	0.3286874
21	0xbe54731b	-0.20747034
22	0x3eef2cb6	0.467138
23	0xbeabbd3f	-0.3354282

convs.4.block1.0.bias f4 [8]
0	0xbda1e406	-0.0790482
1	0xbea1ab72	-0.31576115
2	0xbe8b8925	-0.2725307
3	0xbf0a8e5e	-0.54123485
4	0x3e32c050	0.17456174
5	0xbed87687	-0.4227793
6	0x3e858387	0.2607691
7	0x3edfe9c5	0.4373304

convs.4.block1.1.weight f4 [8]
0	0x40b90927	5.782367
1	0x40bd7c27	5.9214053
2	0x40b5440c	5.6645565
3	0x40c02f12	6.005746
4	0x40be1bf7	5.9409137
5	0x40c0b570	6.022148
6	0x40bfd4a6	5.994708
7	0x40bd33cb	5.9125724

convs.4.block1.1.bias f4 [8]
0	0x40a69d12	5.2066736
1	0x40a66106	5.1993437
2	0x40a7e652	5.2468653
3	0x40a53786	5.163028
4	0x40a54b1c	5.1654186
5	0x40a86b3a	5.263089
6	0x40a6dfd2	5.214822
7	0x40a751b7	5.228725

convs.4.block1.1.running_mean f4 [8]
0	0xbdd6914d	-0.10476933
1	0xbeaa9543	-0.33317003
2	0xbee992d8	-0.45619845
3	0xbf18524c	-0.59500575
4	0x3e0beaf5	0.13663848
5	0xbed15f08	-0.40892816
6	0x3e83e463	0.25760183
7	0x3eab2fc8	0.33434892

convs.4.block1.1.running_var f4 [8]
0	0x3c8543f1	0.016267749
1	0x3c8dcae6	0.017308664
2	0x3d66acce	0.056317143
3	0x3d05e785	0.032691497
4	0x3d5a39e3	0.05327786
5	0x3caf7740	0.021419168
6	0x3d24945a	0.04018054
7	0x3cc18051	0.023620756

convs.4.block2.0.weight f4 [16, 8, 5]
0	0xbd9c4aa1	-0.07631422
1	0xbdb8930f	-0.09012424
2	0xbdde9590	-0.108683705
3	0xbeb6bf2e	-0.35692734
4	0x3e8d6cc4	0.27622044
5	0xbd269234	-0.040666774
6	0x3c71cbae	0.014758034
7	0x3e9042fe	0.2817611
8	0xbd117bbb	-0.03551839
9	0x3e287463	0.16450648
10	0x3ceb738a	0.028741617
11	0x3daa0a9d	0.083028056
12	0x3d99b1d7	0.075046234
13	0xbf1afc7c	-0.6054151
14	0x3e55a940	0.20865345
15	0xbd427eae	-0.047484092
16	0x3cb50fc3	0.022102242
17	0xbd8320ea	-0.06402762
18	0xbe1d532f	-0.15363763
19	0xbddfb29c	-0.10922739
20	0x3d004fe5	0.031326193
21	0xbd41c7a5	-0.047309536
22	0x3cc75a07	0.02433492
23	0xbe45eb61	-0.19328071
24	0x3e5dc201	0.21656038
25	0x3d8b47c2	0.06800796
26	0x3c83bb57	0.016080542
27	0xbe19bc88	-0.15013325
28	0x3d88f7d6	0.06687896
29	0x3d6ac4fb	0.05731676
30	0x3d73193a	0.05935023
31	0x3d0dd330	0.034625232
32	0x3d8f7a96	0.07005803
33	0xbe42eec8	-0.190364
34	0xbe2099e5	-0.15683706
35	0x3dbb8173	0.0915555
36	0x3cd4f83e	0.025997277
37	0x3d06fb8e	0.032954745
38	0xbe5c08f1	-0.21487786
39	0xbdbadbf9	-0.09123988
40	0x3e56063a	0.20900813
41	0x3db33a69	0.08751375
42	0x3e6c77b2	0.23092535
43	0xbe08635d	-0.13319154
44	0xbe7a6404	-0.24452215
45	0x3ce74233	0.028229808
46	0xbd1b4086	-0.03790333
47	0xbdc84803	-0.0977936
48	0xbe2a2bf1	-0.16618325
49	0x3e38c65e	0.18044421
50	0xbeaa099b	-0.33210453
51	0xbdccb6de	-0.09995817
52	0xbd2e95ef	-0.042623457
53	0xbd859b67	-0.06523781
54	0xbdbf764d	-0.09348736
55	0xbe7748d8	-0.24148881
56	0xbb9e9132	-0.004839086
57	0xbd9bb20b	-0.076023184
58	0xbd07fb1f	-0.033198472
59	0xbdc9fee9	-0.098630734
60	0xbedf6c5d	-0.43637362
61	0xbd9ee101	-0.0775776
62	0xbe12d7ea	-0.14340177
63	0x3ca36644	0.019946225
64	0xbe48de31	-0.1961601
65	0x3d8f030e	0.069830045
66	0x3e008954	0.12552387
67	0x3c24c2a4	0.010056172
68	0x3e4e530e	0.2014887
69	0x3ebba8fd	0.36652365
70	0x3d0b47c5	0.03400399
71	0x3d369da4	0.04458393
72	0xbaf1807b	-0.0018425131
73	0x3c5a39e9	0.013319471
74	0x3e45f2ef	0.19330953
75	0xbdc95320	-0.09830308
76	0xbc2b4619	-0.010453724
77	0xbdcca615	-0.09992615
78	0x3bdd21bb	0.0067484058
79	0xbef4bb1c	-0.47799003
80	0x3e0a64ea	0.13515058
81	0x3e2a32b4	0.16620904
82	0x3dc8a8fd	0.09797857
83	0xbe613d3d	-0.21996017
84	0x3d465672	0.048422284
85	0x3e3a713f	0.18207262
86	0x3e1e4850	0.15457273
87	0x3ddb2e6b	0.10702213
88	0x3e009eca	0.12560573
89	0xbe2b0f91	-0.16705157
90	0x3d2f3b88	0.042781383
91	0xbe7381fc	-0.23780054
92	0x3de68d29	0.11257393
93	0xbec7d905	-0.3903276
94	0x3e358937	0.17728125
95	0x3cbb9c4b	0.022901675
96	0xbeb858d3	-0.36005268
97	0xbe00174d	-0.12508889
98	0xbe5063f4	-0.20350629
99	0xb9801ebd	-0.00024436964
100	0xbe21c533	-0.15797882
101	0xbe8557bf	-0.26043507
102	0x3d1ab177	0.0377669
103	0xbc0e5fd0	-0.008689836
104	0x3c754147	0.014969177
105	0x3d606e6e	0.054792814
106	0x3ce23be0	0.027616441
107	0x3d79b704	0.060965553
108	0x3ed34a6a	0.4126771
109	0x3e982b2c	0.29720438
110	0x3de1e907	0.110307746
111	0x3d872844	0.06599477
112	0xbd249b0d	-0.04018693
113	0x3e7db927	0.24777661
114	0x3def6d7e	0.11690806
115	0x3ecd791a	0.40131456
116	0xbceb57a0	-0.028728306
117	0x3ca6631a	0.020310927
118	0xbec375fa	-0.38175946
119	0xbe4d2815	-0.20034821
120	0x3e061c23	0.13096671
121	0x3e2eaddd	0.17058511
122	0x3d90c0d1	0.07068027
123	0xbe377284	-0.17914778
124	0xbd718f05	-0.058974285
125	0xbc01ade7	-0.007914997
126	0xbe09ce47	-0.13457595
127	0xbd6b8c35	-0.05750676
128	0x3e2fc50d	0.17165013
129	0xbd28ba7c	-0.04119347
130	0xbeb8956b	-0.36051497
131	0xbdb7d16e	-0.089754924
132	0xbd78f449	-0.060779843
133	0xbd2d8197	-0.042359915
134	0xbe9666fd	-0.2937545
135	0xbeb2bb19	-0.3490837
136	0xbd0d8bdc	-0.03455721
137	0xbe3975db	-0.18111365
138	0xbdc42e1c	-0.09579107
139	0xbea5ee17	-0.3240821
140	0xbebb8e8a	-0.36632186
141	0xbe0c5957	-0.13705955
142	0xbb264d20	-0.002537556
143	0x3d6a5eb7	0.057219233
144	0xbcc00bd1	-0.023443135
145	0x3e0a696b	0.13516776
146	0x3e2601f5	0.16211684
147	0x3e0424ee	0.12904713
148	0x3df452e8	0.119298756
149	0x3ea6268a	0.32451278
150	0x3dc695ab	0.09696516
151	0xbcbb994a	-0.022900242
152	0x3d48272d	0.048865486
153	0x3de9ddc3	0.11419251
154	0x3e2a76da	0.16646901
155	0x3d5c3216	0.053758703
156	0x3ded7bea	0.115959
157	0xbd944737	-0.07240146
158	0xbd51c9e4	-0.05121793
159	0xbe9dd2bc	-0.3082484
160	0x3e853ae3	0.2602149
161	0x3dd7a711	0.10529912
162	0xbad21a83	-0.001602963
163	0x3cd29899	0.02570753
164	0x3e4f27a0	0.2022996
165	0x3d620144	0.05517699
166	0x3db15cae	0.08660255
167	0x3defecb7	0.11715072
168	0xbd80117e	-0.06253336
169	0xbda94a9b	-0.08266183
170	0x3e465cce	0.1937134
171	0xbeae6dcf	-0.34068152
172	0x3e404d6e	0.18779537
173	0xbee9198c	-0.45527303
174	0x3e598bed	0.21244784
175	0xbd629ee2	-0.055327304
176	0xbe534a39	-0.20633782
177	0xbd16c7c8	-0.03681162
178	0xbd9c6a8a	-0.07637508
179	0xbd6a2e9a	-0.05717335
180	0x3d03b753	0.032157253
181	0xbefc6270	-0.49293852
182	0xbb9e89ad	-0.0048381896
183	0xbe0cda93	-0.13755254
184	0x3d6ce721	0.05783761
185	0x3e33eca7	0.17570744
186	0x3ccbbbbc	0.024869792
187	0xbd09de1d	-0.03365909
188	0x3e740eb5	0.23833735
189	0x3de7c478	0.1131677
190	0x3e19208f	0.14953826
191	0x3df25f27	0.11834555
192	0x3e18ec41	0.14933874
193	0x3e88e35f	0.2673597
194	0x3dc7a699	0.09748573
195	0x3eaf3ca0	0.3422594
196	0x3c8b72c6	0.017022502
197	0xbc94006a	-0.018066604
198	0xbeef9bda	-0.46798593
199	0xbdb40cd3	-0.087915085
200	0x3e1c3cd3	0.15257578
201	0x3e766614	0.24062377
202	0x3df841d4	0.12121931
203	0x3e96500b	0.29357943
204	0x3e1cabed	0.1529996
205	0xbe4d2443	-0.20033364
206	0xbd45453c	-0.04816173
207	0xbd3ae251	-0.04562599
208	0xbe1df543	-0.15425591
209	0xbc33d84f	-0.010976865
210	0xbf143e13	-0.5790722
211	0xbd85aef0	-0.06527507
212	0x3cf12d86	0.029440653
213	0x3d6b2caa	0.05741564
214	0xbd13f7b3	-0.036124896
215	0xbe7fbf63	-0.24975352
216	0xbe2a7cfd	-0.16649242
217	0xbe8243c4	-0.25442326
218	0xbdb5b170	-0.08871734
219	0xbd7ad91b	-0.061242204
220	0xbef8865e	-0.48540014
221	0xbd9ee3b0	-0.07758272
222	0x3df7da80	0.121022224
223	0xb7351a90	-1.0794625e-05
224	0x3d9e2319	0.07721538
225	0xbc1e5e5e	-0.009666054
226	0x3e208cf3	0.15678768
227	0x3dfff280	0.12497425
228	0xbd13236d	-0.035922457
229	0xbe1aa0af	-0.15100358
230	0x3d2775ce	0.04088383
231	0x3d2e0e6b	0.04249422
232	0xbc4f7597	-0.012662313
233	0xbdc15f83	-0.094420455
234	0x3d060f9c	0.03272973
235	0xbe0bb748	-0.13644135
236	0xbd8eddd6	-0.069759056
237	0xbe532c06	-0.20622262
238	0xbcbd0557	-0.023073835
239	0x3d9473a4	0.07248619
240	0x3da77d8e	0.081782445
241	0xbca16928	-0.019703463
242	0x3e013a5c	0.12619919
243	0x3da42147	0.0801416
244	0x3e028463	0.12745814
245	0x3cefafd5	0.029258648
246	0xbe3d6326	-0.18494853
247	0x3d4901fa	0.04907415
248	0x3d0a34da	0.03374181
249	0x3b39b256	0.0028335056
250	0x3e974301	0.29543307
251	0xbf1f25ab	-0.6216685
252	0x3e49c791	0.19705035
253	0x3bcafdf8	0.006194826
254	0xbdf52a59	-0.11970968
255	0x3ddd88f9	0.10817141

convs.4.block2.0.bias f4 [16]
0	0x3e026b60	0.12736273
1	0x3bf0c798	0.007348012
2	0x3c9a1fbf	0.018813966
3	0xbcca5fc7	-0.024703873
4	0x3e355f65	0.17712171
5	0xbe8ecfb5	-0.27892843
6	0x3d3abb4c	0.045588776
7	0x3ce1bcf6	0.027555924
8	0x3d2c9f49	0.042144094
9	0x3e2c6e96	0.1683906
10	0xbcf6f370	-0.030145377
11	0xbdd3bd10	-0.10338795
12	0x3e17294b	0.14761846
13	0x3e358407	0.17726146
14	0x3deb9fdf	0.11505102
15	0x3d68845f	0.056766864

convs.4.block2.1.weight f4 [16]
0	0x40bed97a	5.9640474
1	0x40c1dcd2	6.0582056
2	0x40c0978b	6.018499
3	0x40c15564	6.0416737
4	0x40c1a475	6.0513253
5	0x40bb40f5	5.8516793
6	0x40bcbf06	5.8983183
7	0x40c15625	6.0417657
8	0x40c014bc	6.002531
9	0x40c331b1	6.099816
10	0x40b6ebdb	5.716291
11	0x40c19697	6.0496325
12	0x40c3d54d	6.1197877
13	0x40c1ff56	6.062419
14	0x40c2284c	6.067419
15	0x40bc7e72	5.890435
