runs/base_731.pt (torch, 44799 bytes, 61 tensors)

convs.0.block1.0.weight f4 [8, 1, 3]
0	0x3e9443c7	0.2895796
1	0xbf0f79f0	-0.56045437
2	0x3ea59026	0.3233654
3	0xbe8b9001	-0.27258304
4	0x3ef97213	0.48719844
5	0xbe80fc2c	-0.25192392
6	0xbee43156	-0.4456889
7	0x3e98244b	0.2971519
8	0x3d0eec01	0.03489304
9	0xbe8a685b	-0.27032742
10	0x3f02ab5b	0.5104272
11	0xbe93e195	-0.28883043
12	0x3e984d49	0.29746464
13	0x3e1a541e	0.1507115
14	0xbf00443b	-0.5010411
15	0x3e27cae8	0.16385996
16	0xbefa90a9	-0.48938492
17	0x3ec5b497	0.38614342
18	0xbe94bcd6	-0.2905032
19	0x3f07869f	0.5293979
20	0xbe8f4d9b	-0.27988896
21	0xbe8f1e5b	-0.27952847
22	0x3f038c65	0.513861
23	0xbe84eea9	-0.25963333

convs.0.block1.0.bias f4 [8]
0	0xbeab32da	-0.33437234
1	0xbdcf5811	-0.10124219
2	0xbebbd745	-0.36687675
3	0xbe8c58e9	-0.27411583
4	0x3c00b45f	0.007855504
5	0xbe0aeca8	-0.1356684
6	0x3ed56e7c	0.41685855
7	0xbe0d791e	-0.13815734

convs.0.block1.1.weight f4 [8]
0	0x40caaa67	6.333301
1	0x40ca388f	6.319404
2	0x40bbc607	5.8679233
3	0x40cb0c6d	6.345267
4	0x40b0069b	5.5008063
5	0x40c43e23	6.132585
6	0x40c8bc5a	6.272992
7	0x40cc9d48	6.3941994

convs.0.block1.1.bias f4 [8]
0	0x40adc796	5.4306135
1	0x40aca4c3	5.3951125
2	0x40aebdae	5.4606543
3	0x40afa26c	5.488577
4	0x40af83fb	5.484861
5	0x40ad8430	5.422386
6	0x40ab9b99	5.362744
7	0x40ae90cf	5.455177

convs.0.block1.1.running_mean f4 [8]
0	0xbe9d0d17	-0.3067405
1	0xbdf18139	-0.117922254
2	0xbed84f33	-0.42247924
3	0xbe9561f8	-0.29176307
4	0x3aad360b	0.0013214959
5	0xbdf358eb	-0.11882194
6	0x3ec95f9f	0.39330766
7	0xbe1eb181	-0.154974

convs.0.block1.1.running_var f4 [8]
0	0x3c698358	0.014252506
1	0x3c36919f	0.011143117
2	0x3cd90515	0.026491681
3	0x3c3dd9a7	0.011587537
4	0x3d19262e	0.037389927
5	0x3c393b03	0.011305573
6	0x3c5366aa	0.012902895
7	0x3c454010	0.0120391995

convs.0.block2.0.weight f4 [16, 8, 5]
0	0x3d014094	0.031555727
1	0x3db01bcd	0.085990526
2	0xbdc98613	-0.09840026
3	0x3dce08e7	0.10060292
4	0x3e1e3126	0.15448436
5	0xbd0d0142	-0.034425028
6	0x3cbb0819	0.02283101
7	0xbc222d2f	-0.009898468
8	0xbd408906	-0.047005676
9	0xbe3b58ee	-0.18295643
10	0x3e901ac5	0.28145424
11	0xbed257e7	-0.4108269
12	0x3e18bc8a	0.14915672
13	0xbd63c9ee	-0.055612497
14	0xbdc62a60	-0.09676051
15	0x3b3bdbbf	0.0028664914
16	0xbdb5d2c1	-0.08878089
17	0x3d8f3947	0.06993347
18	0x3d89bc08	0.06725317
19	0x3c9e34b8	0.019312248
20	0x3f10ae96	0.56516397
21	0xbe9d3887	-0.3070719
22	0x3e29e1ed	0.1659009
23	0xbe0f258d	-0.13979168
24	0x3cb92993	0.022602832
25	0x3ea15a0f	0.31514022
26	0xbd6c18ba	-0.05764077
27	0x3dccf646	0.100079104
28	0xbe80f3f5	-0.25186124
29	0xbe0fc6af	-0.14040636
30	0xbd04a9f8	-0.032388657
31	0x3de3aa21	0.11116434
32	0x3b9f3e96	0.0048597557
33	0x39cf67bb	0.00039559402
34	0xbc28aecb	-0.01029558
35	0xbd8ea9fb	-0.06966015
36	0x3c036806	0.008020407
37	0xbc7ed3c1	-0.015553416
38	0x3d1f5ecc	0.038908765
39	0xbe585a55	-0.21128209
40	0x3d814c1a	0.06313343
41	0xbb709b63	-0.0036713711
42	0xbd139fe6	-0.036041163
43	0xbd8881f0	-0.066654086
44	0x3d4ec256	0.050478302
45	0xbd77a5e9	-0.06046096
46	0xbdc91ba3	-0.098197244
47	0x3d73e155	0.059541065
48	0x3dd9beb3	0.10632076
49	0xbe478c74	-0.19487172
50	0xbe81e895	-0.25372759
51	0xbd67b3fa	-0.056568123
52	0x3ce33e4d	0.027739668
53	0x3b88a830	0.00417044
54	0xbe37380c	-0.17892474
55	0xbd69b9fd	-0.057062138
56	0x3d0af0cc	0.033921048
57	0xbdccca70	-0.099995494
58	0xbe87a4c5	-0.26492897
59	0xbec1ee83	-0.37877283
60	0xbef27b1d	-0.47359553
61	0x38ea7753	0.000111802154
62	0x3d8453dd	0.06461308
63	0xbe311d2a	-0.17296281
64	0xba08212c	-0.0005192931
65	0x3dfe976b	0.124312244
66	0xbc2ada30	-0.0104279965
67	0xbda552b4	-0.08072415
68	0xbe912cf6	-0.28354615
69	0xbea43284	-0.3206979
70	0x3d0dc5f2	0.034612603
71	0xbd4e926e	-0.050432615
72	0x3da604d8	0.081063926
73	0x3cab9daf	0.020949213
74	0xbdb43841	-0.08799792
75	0x3d534e54	0.05158837
76	0x3e2472a8	0.16059363
77	0x3e2306fb	0.15920632
78	0x3dffa860	0.12483287
79	0xbbc1fe9d	-0.005920245
80	0x3d0646b0	0.032782257
81	0x3c9d88d9	0.019230293
82	0xbe2f2a6c	-0.17106026
83	0x3d3649b0	0.044503868
84	0x3e15c329	0.14625229
85	0xbdf9fd2a	-0.1220649
86	0xbda393a3	-0.07987144
87	0x3bb6efb8	0.005582776
88	0xbcd7b519	-0.026331471
89	0xbdefa425	-0.1170123
90	0x3e97de67	0.29661867
91	0xbed01054	-0.40637457
92	0x3e08061a	0.13283578
93	0xbdb44bb7	-0.08803504
94	0xbe1b8852	-0.15188721
95	0xbcd072c3	-0.025445348
96	0x3d14b447	0.03630474
97	0x3d3b763a	0.045767047
98	0x3dc9abdc	0.09847233
99	0xbe36522a	-0.1780478
100	0x3f16f662	0.589697
101	0xbe7f36a4	-0.24923187
102	0x3e6237ad	0.22091551
103	0xbe097423	-0.13423209
104	0x3c8276a7	0.015925718
105	0x3e97d608	0.2965548
106	0xbb1714e3	-0.002305322
107	0x3e00859d	0.1255097
108	0xbe60fc9f	-0.21971367
109	0xbdd96838	-0.10615581
110	0x3d3fc27e	0.04681634
111	0x3d8b9f61	0.068175085
112	0xbdb4edeb	-0.08834442
113	0x3c792cb8	0.015208416
114	0xbd801283	-0.06253531
115	0xbd194b3d	-0.03742527
116	0x3cdcde71	0.026961537
117	0x3dc05381	0.09390927
118	0xbd105070	-0.03523296
119	0xbd1fb4b8	-0.038990706
120	0x3b5d7c0d	0.0033795864
121	0xbd0eda56	-0.03487619
122	0x3c79920f	0.015232577
123	0xbd506857	-0.050880756
124	0xbe307727	-0.17232953
125	0xbe3bd741	-0.18343832
126	0x3d7386f7	0.059454884
127	0xbda23f34	-0.07922211
128	0x3c9c79d4	0.01910106
129	0xbd1992dd	-0.037493575
130	0xbef8aa45	-0.48567405
131	0x3dcfcf46	0.10146956
132	0x3e080a4b	0.13285176
133	0x3d790b68	0.060801893
134	0xbdc96513	-0.098337315
135	0xbe325fb2	-0.17419317
136	0x3ca8a1d1	0.020584973
137	0x3ca50bf1	0.020147296
138	0x3d502b1b	0.05082236
139	0xbd957edf	-0.07299589
140	0x3b8ccbc6	0.0042967526
141	0x3c74320d	0.014904511
142	0xbe4b4d59	-0.19853725
143	0x3d62b525	0.055348534
144	0xbe82de49	-0.25560215
145	0xbe5f5cb4	-0.21812707
146	0x3d96a6ad	0.0735601
147	0xbcc061f6	-0.023484211
148	0x3e0dfb0f	0.13865303
149	0xbecd6f99	-0.40124205
150	0xbe22f7d5	-0.15914853
151	0xbdcadbf1	-0.09905232
152	0x3d4cbc9e	0.049984567
153	0xbe06e47d	-0.13173099
154	0x3d9b5650	0.07584822
155	0xbe695296	-0.2278541
156	0x3c8b8e4b	0.017035624
157	0xba3fec70	-0.0007321304
158	0x3c53c9ef	0.012926563
159	0xbd74f64c	-0.0598052
160	0x3dd6cae0	0.10487914
161	0xbcb8b5d7	-0.022547645
162	0xbe672f2e	-0.22576591
163	0xbde800aa	-0.11328252
164	0xbd5c4a00	-0.05378151
165	0xbe37e962	-0.17960122
166	0x3dc520b3	0.096253775
167	0xbd009bc7	-0.03139856
168	0xbd41065a	-0.047125198
169	0xbe8904e4	-0.26761544
170	0xbe9bb124	-0.30408585
171	0x3db87542	0.0900674
172	0xbe02d150	-0.12775159
173	0xbda833fe	-0.08213042
174	0xbdf8036f	-0.1211003
175	0xbdc12255	-0.094303764
176	0xbd8fad30	-0.07015455
177	0x3e37072d	0.17873831
178	0x3d064707	0.03278258
179	0xbe86b7ec	-0.26312196
180	0xbe427d05	-0.18993004
181	0x3d846c46	0.06465964
182	0x3d468572	0.048467107
183	0xbe8e98b8	-0.2785089
184	0x3de5e971	0.11226166
185	0xbc91ad9e	-0.017782982
186	0x3c8f1584	0.017466314
187	0xbbb3f882	-0.005492271
188	0xbecd9cda	-0.4015873
189	0xbea8d4e2	-0.32974917
190	0xbd9e2a4d	-0.07722912
191	0xbd4291f0	-0.047502458
192	0xbc08553c	-0.008321103
193	0x3e15065f	0.14553212
194	0xbe457ecd	-0.19286652
195	0xbdd6081c	-0.104507655
196	0xbdce83a1	-0.100837
197	0x3e4131f8	0.18866718
198	0x3a0a23dd	0.0005269626
199	0xbe9294db	-0.28629193
200	0xbcdde8e1	-0.027088584
201	0x3d061fe2	0.03274525
202	0x3d22ac9c	0.039715394
203	0x3e74ae57	0.2389463
204	0x3d9896d7	0.074506454
205	0xbd398bb1	-0.045299236
206	0xbcb87e3b	-0.022521129
207	0xbd8b331e	-0.06796859
208	0x3c111731	0.008855627
209	0x3d681480	0.056660175
210	0x3e64887b	0.22317688
211	0xbe93a8d2	-0.28839737
212	0x3e4658bb	0.19369785
213	0xbd1616c8	-0.03664282
214	0x3eafe58f	0.34354827
215	0x3cb5ccbc	0.022192352
216	0x3de9b068	0.114106
217	0xbe47323f	-0.19452761
218	0xbb160426	-0.0022890656
219	0xbbaa76b4	-0.005202139
220	0x3f0117ad	0.5042675
221	0xbe213387	-0.15742312
222	0x3e826689	0.25468853
223	0xbe83cb96	-0.2574126
224	0x3eca9ea2	0.39574152
225	0x3e86ebd6	0.26351804
226	0x3db8b85f	0.09019541
227	0x3e0b08bf	0.13577555
228	0xbdb89f5a	-0.09014769
229	0x3de64c30	0.11245
230	0xbd8f7042	-0.07003833
231	0xbc942e05	-0.01808835
232	0x3d8d8494	0.06910053
233	0xbdb9f652	-0.09080185
234	0xbd1f1480	-0.03883791
235	0x3d046bcf	0.032329377
236	0x3d4a725b	0.049425464
237	0x3d48a0f1	0.04898161
238	0xbc82d535	-0.015970806
239	0xbe3ea1f7	-0.18616472
240	0xbcba0457	-0.022707148
241	0x3d1a042c	0.037601635
242	0xbe1ebb3d	-0.15501113
243	0x3d96859c	0.07349703
244	0x3e4ab2bb	0.19794743
245	0xbc8400bb	-0.01611363
246	0x3dc865b8	0.09785026
247	0xbdaef47c	-0.085427254
248	0xbd32f281	-0.0436883
249	0xbddade2e	-0.10686909
250	0x3e883f0d	0.26610604
251	0xbed32cf0	-0.41245222
252	0x3db92f3f	0.090422146
253	0xbd1c0694	-0.03809221
254	0x3cf9a0ed	0.030472243
255	0xbcd979f3	-0.026547408

convs.0.block2.0.bias f4 [16]
0	0xbe94a18e	-0.29029506
1	0x3e5a5acb	0.21323697
2	0xbda0c6ce	-0.07850419
3	0x3dc8e273	0.09808817
4	0xbdfe818e	-0.12427054
5	0xbd2cdae2	-0.04220093
6	0x3de0b99a	0.10972901
7	0xbd4ebdda	-0.050474025
8	0xbdb624a3	-0.08893707
9	0x3e1d7778	0.15377605
10	0x3ba28b2f	0.0049604396
11	0xbe2c483c	-0.1682443
12	0xbd316def	-0.04331773
13	0x3dae3e73	0.08508005
14	0x3d132ab6	0.035929404
15	0x3e2d3841	0.1691599

convs.0.block2.1.weight f4 [16]
0	0x40c5f822	6.1865396
1	0x40c7be20	6.2419586
2	0x40c6368c	6.1941586
3	0x40c4e22e	6.15261
4	0x40c71ee1	6.2225194
5	0x40c9ba2a	6.303975
6	0x40c62b17	6.19276
7	0x40c794de	6.2369223
8	0x40c60c93	6.189035
9	0x40c826e6	6.2547483
10	0x40c5281e	6.161147
11	0x40ca8134	6.328272
12	0x40c7ea0b	6.2473197
13	0x40c6ae72	6.2087946
14	0x40c5bc3c	6.179228
15	0x40cad180	6.3380737

convs.0.block2.1.bias f4 [16]
0	0x40af5ebb	5.480314
1	0x40af732d	5.4828095
2	0x40b028b4	5.5049686
3	0x40afa2fe	5.4886465
4	0x40ae80f7	5.453243
5	0x40b04baf	5.5092387
6	0x40aeb8c6	5.4600554
7	0x40b03e7e	5.5076284
8	0x40aec10a	5.4610643
9	0x40b05cbe	5.511321
10	0x40aed0d5	5.462992
11	0x40b0a0ae	5.519614
12	0x40b0923f	5.5178523
13	0x40af00ee	5.4688635
14	0x40af29e9	5.473866
15	0x40b18935	5.547999

convs.0.block2.1.running_mean f4 [16]
0	0x3ba0fb4f	0.004912771
1	0xc16ff54c	-14.997387
2	0xbe3a896b	-0.18216483
3	0xc18a23ee	-17.267544
4	0xc1b6eee0	-22.866638
5	0x41499823	12.599643
6	0x3e8bd49c	0.27310646
7	0x3f4dc063	0.80371684
8	0x3f00de29	0.5033899
9	0x3ff7bf01	1.9355165
10	0xc1827898	-16.308884
11	0x414194b4	12.098804
12	0xbed260b4	-0.41089404
13	0x3f9b5a4e	1.2136934
14	0xc19db70c	-19.714378
15	0x414f1637	12.942924

convs.0.block2.1.running_var f4 [16]
0	0x41c27416	24.306683
1	0x41ba5552	23.29166
2	0x41cb2f2b	25.398031
3	0x42b6aca8	91.33722
4	0x42585dd3	54.091625
5	0x41725c8f	15.147597
6	0x41be1fc3	23.765509
7	0x41cb1c20	25.388733
8	0x41b10f8c	22.132591
9	0x41719411	15.098649
10	0x42a332a9	81.598946
11	0x4161c56d	14.1107
12	0x417b0c12	15.690447
13	0x419385fd	18.440424
14	0x42277d68	41.872467
15	0x416913dc	14.5673485

convs.1.block1.0.weight f4 [8, 1, 3]
0	0x3e6d2f19	0.23162498
1	0x3e8ee999	0.27912596
2	0xbf162e61	-0.5866452
3	0xbefe70cf	-0.4969544
4	0x3f21ec30	0.6325102
5	0xbe5bc4c7	-0.21461783
6	0x3efb8e0e	0.49131817
7	0xbee674af	-0.45010898
8	0xbd1e3ab2	-0.038630195
9	0x3e752bae	0.23942444
10	0xbf0cd794	-0.55016446
11	0x3eb22bf6	0.34799165
12	0x3e6fbc40	0.23411655
13	0xbed56d2c	-0.41684854
14	0x3e619479	0.22029294
15	0x3e91f3c9	0.28506306
16	0xbf1153a3	-0.56768245
17	0x3e9ab0b5	0.30212942
18	0x3e9b3e10	0.30320787
19	0xbeeb2608	-0.45927453
20	0x3e368cdb	0.1782717
21	0x3e753ee4	0.23949772
22	0xbef1bcb5	-0.47214285
23	0x3e8a21aa	0.2697881

convs.1.block1.0.bias f4 [8]
0	0x3dcb9f75	0.099425234
1	0xbe2179be	-0.15769097
2	0x3d11a0ad	0.035553623
3	0xbd6bac22	-0.057537206
4	0x3e11556b	0.1419274
5	0x3e7cf9a6	0.24704608
6	0xbde988a8	-0.11403018
7	0xbeb6c9ee	-0.35700935

convs.1.block1.1.weight f4 [8]
0	0x40b4ba4b	5.647741
1	0x40af059e	5.4694357
2	0x40be5388	5.9476967
3	0x40b372f4	5.6077824
4	0x40c49942	6.143708
5	0x40c3ff6a	6.1249285
6	0x40b4bba3	5.647905
7	0x40c3841f	6.109878

convs.1.block1.1.bias f4 [8]
0	0x40acf1af	5.4045024
1	0x40aa3358	5.3187675
2	0x40aef8e7	5.4678836
3	0x40af1c5e	5.472213
4	0x40af3bc4	5.4760456
5	0x40afa55f	5.488937
6	0x40ad5ff5	5.4179635
7	0x40afba3b	5.491483

convs.1.block1.1.running_mean f4 [8]
0	0x3da4a04b	0.08038386
1	0xbe419f57	-0.1890844
2	0x3cfc6d12	0.030813728
3	0xbd3f7e9b	-0.0467516
4	0x3e1419c7	0.14462958
5	0x3e7496e8	0.23885691
6	0xbde6eaca	-0.11275251
7	0xbeb48fe7	-0.3526604

convs.1.block1.1.running_var f4 [8]
0	0x3c54d253	0.012989598
1	0x3c81c3db	0.015840461
2	0x3c8a97cd	0.016918087
3	0x3bb9f9b9	0.005675521
4	0x3b866070	0.0041008517
5	0x3bdf38ba	0.0068121823
6	0x3bd064d2	0.006359675
7	0x3b9a0bb6	0.004701103

convs.1.block2.0.weight f4 [16, 8, 5]
0	0x3d5057f8	0.050865144
1	0xbd931670	-0.07182014
2	0xbc01945e	-0.007908909
3	0xbea1bf7f	-0.31591412
4	0xbef09ff3	-0.46997032
5	0xbea7ea96	-0.32796162
6	0xbda29446	-0.07938437
7	0xbcd92977	-0.02650903
8	0xbe2d172e	-0.16903374
9	0xbdf4f412	-0.11960615
10	0xbd3bb9f0	-0.04583162
11	0x3cc3851d	0.023867184
12	0x3cc493fd	0.023996348
13	0xbdda76d3	-0.10667195
14	0x3e4e142c	0.20124882
15	0x3e18d4cb	0.14924924
16	0x3d6c262f	0.057653602
17	0x3db02fe7	0.08602887
18	0xbe6e1c1a	-0.23252907
19	0xbe83d2a9	-0.25746658
20	0x3d4989bc	0.04920362
21	0xbbed640c	-0.0072445925
22	0x3d7b944a	0.061420716
23	0xbba27d19	-0.0049587605
24	0xbd6f642f	-0.058445152
25	0x3da596f6	0.08085434
26	0xbdab3d39	-0.08361287
27	0xbd3faa79	-0.046793435
28	0x3c9569da	0.01823895
29	0x3d97f1f1	0.074191935
30	0xbe105b7a	-0.14097396
31	0xbd4145b5	-0.04718562
32	0x3d0fe289	0.03512815
33	0x3edeb937	0.43500683
34	0x3f2501ee	0.6445607
35	0x3d7fdf86	0.062469028
36	0xbd543606	-0.051809333
37	0x3a6f1314	0.00091199693
38	0x3dc24f7b	0.09487816
39	0x3e4408cf	0.19143985
40	0x3e8f1b97	0.27950737
41	0x3e0977a4	0.13424546
42	0x3d8e78e5	0.069566526
43	0xba53bb9e	-0.00080769684
44	0x3d7a50dd	0.061112273
45	0xbf599b36	-0.8500246
46	0xbc89ea5a	-0.01683538
47	0x3d72423a	0.05914519
48	0x3c61ff74	0.013793815
49	0xbdbfd8c0	-0.09367514
50	0xbd4c648d	-0.04990058
51	0xbe071103	-0.13190083
52	0xbc144f84	-0.009052161
53	0xbe0aa29a	-0.1353859
54	0xbde44080	-0.11145115
55	0x3e112219	0.14173163
56	0xbad5a28c	-0.0016299053
57	0xbd6d8aa9	-0.057993565
58	0x3d971894	0.07377735
59	0x3ea0e875	0.3142735
60	0x3e119edf	0.14220761
61	0x3d019bb4	0.03164263
62	0xbd0203ab	-0.03174178
63	0x3dabc8c4	0.083879024
64	0x3dfa6e51	0.122280724
65	0x3eab9440	0.33511543
66	0x3d81e79b	0.06343003
67	0x3d1e48d1	0.038643662
68	0x3ca6ac9e	0.020345982
69	0xbccb4a3b	-0.02481567
70	0xbe93f682	-0.28899008
71	0xbe8660ff	-0.26245877
72	0xbdeff91b	-0.11717435
73	0xbdd78bf7	-0.10524743
74	0xbdd82a74	-0.10554972
75	0x3d71d079	0.059036706
76	0x3d97cd22	0.07412173
77	0x3cd597e0	0.026073396
78	0xbc39b878	-0.011335485
79	0xbd9aa00c	-0.07550058
80	0x3ef4178f	0.47674224
81	0xbc17fe6d	-0.009276968
82	0x3d2c5ab7	0.0420787
83	0x3ddc0a5c	0.107441634
84	0x3d84869f	0.064709894
85	0xbf4fb29f	-0.8113193
86	0xbd9f8e03	-0.077907585
87	0x3d52478b	0.05133776
88	0xbddf5ac3	-0.10905983
89	0xbd1d25e7	-0.038366225
90	0xbe0a4560	-0.13503027
91	0xbdea9e2d	-0.11455951
92	0xbdf8682f	-0.121292464
93	0xbe39fba0	-0.18162394
94	0xbdc285b1	-0.09498156
95	0x3de227bb	0.11042734
96	0xbcc03d57	-0.02346675
97	0x3d2871a7	0.041124012
98	0x3ce78e51	0.028266104
99	0x3e7023cc	0.23451155
100	0x3dea6d53	0.11446633
101	0xbda4a44c	-0.0803915
102	0x3d26e8ba	0.04074929
103	0x3d482df7	0.04887196
104	0xbc9f4140	-0.019440293
105	0x3e54a200	0.20764923
106	0x3d2e4ce3	0.042553794
107	0x3d8f39f0	0.069934726
108	0xbdac829c	-0.08423349
109	0x3dff232e	0.12457882
110	0xbec1e0e1	-0.3786688
111	0xbe9b4d76	-0.30332536
112	0xba23123f	-0.00062206754
113	0xbdc6f9eb	-0.09715637
114	0xbe447c78	-0.19188106
115	0x3dbc3bf6	0.09191124
116	0x3ddececb	0.108792864
117	0x3d9a8a80	0.07545948
118	0xbe1f73d9	-0.15571536
119	0xbc9bdd95	-0.019026557
120	0xbd892d63	-0.0669811
121	0xbdc92629	-0.098217316
122	0xbe061244	-0.13092905
123	0xbdfe85c6	-0.12427859
124	0xbf362af3	-0.71159285
125	0xbd2196d7	-0.039450493
126	0xbd0de128	-0.034638554
127	0xbc27cd60	-0.010241836
128	0xbb40bc10	-0.002940897
129	0xbea0b369	-0.3138688
130	0x3dcd8cd5	0.10036627
131	0xbc12218e	-0.008919133
132	0x3c4cd56a	0.012502054
133	0x3e112a90	0.14176393
134	0x3da3e1ae	0.08002029
135	0x3e34f9e6	0.17673454
136	0x3d07daa6	0.033167504
137	0x3cbb7352	0.022882137
138	0xbde1fafd	-0.110342
139	0xbe88231d	-0.2658929
140	0xbdd4cb9b	-0.10390397
141	0xbbd4adc0	-0.006490439
142	0x3db90782	0.09034635
143	0x3c1363bc	0.0089959465
144	0xbc9c36eb	-0.019069156
145	0xbdd2d6de	-0.10294889
146	0xbe4fe71d	-0.20303006
147	0xbd864f39	-0.06558079
148	0x3d3d7e0a	0.04626278
149	0x3d726949	0.05918244
150	0x3e066f07	0.13128291
151	0x3db0c3ba	0.08631082
152	0x3d04edd0	0.03245336
153	0x3e172725	0.14761026
154	0x3f2c0df0	0.67208767
155	0x3cdcaf28	0.02693899
156	0xbca1067c	-0.019656412
157	0xbd982808	-0.0742951
158	0x3ccadf4b	0.024764678
159	0x3e2a3b72	0.16624239
160	0x3eba31fa	0.36366254
161	0x3c5c7ffd	0.013458249
162	0x3d59e460	0.05319631
163	0x3da443c2	0.08020736
164	0x3d39fb5c	0.04540573
165	0xbf517e0f	-0.81832975
166	0xbc92e5ec	-0.0179319
167	0x3d5c4ebb	0.05378602
168	0xbdec76ee	-0.115461215
169	0xbcfbf648	-0.030757084
170	0xbb94f214	-0.0045454595
171	0xbd0ea25b	-0.034822803
172	0xbda32f3d	-0.07967994
173	0xbe06f0c7	-0.13177787
174	0xbd912459	-0.07087011
175	0x3e0c20b2	0.13684347
176	0x3c2faee7	0.010722852
177	0xbe209861	-0.15683128
178	0x3d43151f	0.047627565
179	0x3e75d077	0.24005304
180	0x3e422be5	0.18962057
181	0xbdce701d	-0.10079978
182	0x3d79aad7	0.06095394
183	0x3e103100	0.14081192
184	0x3d571b71	0.052516405
185	0x3e3ea2e3	0.18616824
186	0x3daa5cee	0.08318506
187	0x3ea1fc31	0.3163772
188	0xbde3ebca	-0.111289576
189	0x3dbb3e3f	0.09142732
190	0xbecc1b69	-0.39864662
191	0xbe8e705a	-0.27820092
192	0xbc509f9c	-0.012733366
193	0xbdbb9087	-0.09158426
194	0xbe59a0ef	-0.21252798
195	0x3d8451b6	0.064608976
196	0x3e21c864	0.15799099
197	0x3cf8b706	0.03036071
198	0xbe3e40d9	-0.18579425
199	0xbc9b9dab	-0.01899608
200	0x3e186ef2	0.14886072
201	0xbd4558c0	-0.04818034
202	0x3dc66f0b	0.096891485
203	0xbece48e2	-0.4028998
204	0xbc85bc1c	-0.01632505
205	0xbf01df4f	-0.50731367
206	0xbe0b4189	-0.13599218
207	0xbd2f352f	-0.04277533
208	0xbe06ce1f	-0.13164566
209	0x3dc16ada	0.094442084
210	0xbe705d78	-0.23473155
211	0x3c996345	0.018724093
212	0x3ce499a4	0.027905293
213	0xbd8268fb	-0.0636768
214	0x3e95102b	0.29113898
215	0x3e17c3e4	0.1482082
216	0xbca07dc5	-0.019591222
217	0x3d788c9e	0.060680978
218	0xbe498804	-0.19680792
219	0x3e00c84f	0.12576412
220	0x3de43175	0.11142246
221	0xbdfd1944	-0.12358335
222	0x3dfa2ff7	0.1221618
223	0x3d4785e4	0.048711672
224	0x3e29a9d6	0.16568694
225	0x3e440fe2	0.19146684
226	0x3e070260	0.131845
227	0x3c4f2531	0.0126431445
228	0xbe4407d0	-0.19143605
229	0x3e2d9aca	0.16953579
230	0xbec50a85	-0.38484588
231	0xbda88c9e	-0.082299456
232	0xbdc6deb3	-0.09710445
233	0x3eb0147e	0.34390634
234	0x3e398607	0.18117534
235	0x3d806e1c	0.06271002
236	0x3e299280	0.16559792
237	0xbc0bb075	-0.008525957
238	0x3d86aa82	0.065754905
239	0xbad86745	-0.0016510269
240	0x3c1a4613	0.009416121
241	0xbd62fa17	-0.055414286
242	0xbcff4cf5	-0.031164626
243	0xbead787b	-0.33880982
244	0xbf015800	-0.505249
245	0xbeae4474	-0.340366
246	0xbda13c02	-0.07872774
247	0xbca9a418	-0.020708129
248	0xbe1a15c1	-0.15047361
249	0xbdc08284	-0.09399894
250	0xbc6fc1e5	-0.01463363
251	0xbc9e802e	-0.01934823
252	0x3d9e68f9	0.07734866
253	0xbd986d70	-0.074427485
254	0x3e7fed2f	0.24992822
255	0x3e3b345d	0.18281694

convs.1.block2.0.bias f4 [16]
0	0x3d352ee9	0.04423419
1	0xbe22be5a	-0.15892926
2	0x3e803c67	0.25046083
3	0xbdea2412	-0.11432661
4	0xbe0a4bb5	-0.13505442
5	0x3e38887d	0.18020816
6	0x3e20805e	0.15673968
7	0xbe5233ea	-0.20527616
8	0x3ba155e0	0.004923567
9	0x3e2974ee	0.16548511
10	0xbd96cbda	-0.073631
11	0xbdecaf34	-0.11556855
12	0xbdbe23ed	-0.09284196
13	0x3df8334b	0.12119158
14	0x3de9e9be	0.11421536
15	0x3cde09fa	0.027104367

convs.1.block2.1.weight f4 [16]
0	0x40c9e66c	6.3093777
1	0x40c37309	6.1077924
2	0x40c2a513	6.0826507
3	0x40c3e9a9	6.122273
4	0x40c326fa	6.098508
5	0x40c96f8f	6.294868
6	0x40c80fe1	6.2519383
7	0x40c82652	6.254678
8	0x40c8a394	6.269968
9	0x40c77bf1	6.2338796
10	0x40c8be4e	6.2732306
11	0x40c8401f	6.2578273
12	0x40c7a76a	6.2391863
13	0x40c88c53	6.2671294
14	0x40c8d033	6.275415
15	0x40c78321	6.234757

convs.1.block2.1.bias f4 [16]
0	0x40abc8fc	5.368284
1	0x40b2d12b	5.588033
2	0x40b44c56	5.6343184
3	0x40b23929	5.5694776
4	0x40b5584a	5.6670275
5	0x40b0009b	5.500074
6	0x40ab86fe	5.3602285
7	0x40aba2ab	5.363607
8	0x40b132a8	5.5374336
9	0x40b30995	5.5949197
10	0x40b3b708	5.6160927
11	0x40ab73f4	5.3579044
12	0x40b26953	5.575357
13	0x40b36498	5.6060295
14	0x40b3c0b3	5.617273
15	0x40b226f0	5.567253

convs.1.block2.1.running_mean f4 [16]
0	0xc0001ba7	-2.0016878
1	0xc00e610b	-2.224673
2	0xc0d6eca5	-6.7163873
3	0xc03942a8	-2.8946934
4	0xc033eac6	-2.8112044
5	0x3fa44259	1.2832748
6	0xbffc2651	-1.9699193
7	0x40516d9f	3.2723157
8	0xbfb0ad51	-1.3802892
9	0xc00b8d71	-2.180508
10	0x41247a1d	10.279813
11	0xc0377d74	-2.867032
12	0xc09b1507	-4.846317
13	0xc099eb67	-4.8099856
14	0x3ea5c000	0.32373047
15	0xc08bf96c	-4.374197

convs.1.block2.1.running_var f4 [16]
0	0x41320239	11.125543
1	0x42355dc2	45.34156
2	0x4228d58a	42.208534
3	0x41657dc9	14.343209
4	0x422b9aa5	42.90102
5	0x41ea9d41	29.326784
6	0x413dc70d	11.861096
7	0x4171d0f3	15.113513
8	0x422274e7	40.614162
9	0x42054f5c	33.3275
10	0x424fa2c4	51.90895
11	0x41465e72	12.398058
12	0x42005f72	32.09321
13	0x419b912e	19.445889
14	0x42129e72	36.65473
15	0x418b5f73	17.421606

convs.2.block1.0.weight f4 [8, 1, 3]
0	0xbed7445c	-0.42044342
1	0x3f309283	0.6897356
2	0xbeae5bd6	-0.3405444
3	0x3e842de4	0.25816262
4	0xbedbc7e0	-0.4292593
5	0x3e882667	0.265918
6	0xbe8f1bed	-0.27950993
7	0xbe6f06a9	-0.23342384
8	0x3f201ea9	0.62546784
9	0x3eb6bd37	0.35691234
10	0xbf1e2426	-0.6177391
11	0x3ea94056	0.33056897
12	0xbed6a35c	-0.41921508
13	0x3f11c807	0.5694584
14	0xbe86b04f	-0.26306388
15	0xbe677719	-0.22604026
16	0x3f156a98	0.58365774
17	0xbed1a08e	-0.40942806
18	0x3e994021	0.2993174
19	0xbf092caf	-0.53583807
20	0x3e41baf2	0.1891897
21	0x3dedede0	0.11617637
22	0xbf130053	-0.5742237
23	0x3ed2b9bc	0.4115733

convs.2.block1.0.bias f4 [8]
0	0x3ed3b91d	0.41352168
1	0xbda66907	-0.08125501
2	0x3e72c273	0.23706989
3	0x3ebcd768	0.36883092
4	0x3e995011	0.29943898
5	0xbe5f1869	-0.21786655
6	0xbebeafab	-0.372434
7	0xbf08965e	-0.5335444

convs.2.block1.1.weight f4 [8]
0	0x40b7f806	5.7490263
1	0x40abf5a6	5.3737364
2	0x40b32ffb	5.599607
3	0x40c54e27	6.16579
4	0x40bcdc21	5.901871
5	0x40b7f15b	5.7482123
6	0x40c371b6	6.1076307
7	0x40bd7c11	5.921395

convs.2.block1.1.bias f4 [8]
0	0x40ac35e9	5.381581
1	0x40abb28d	5.3655457
2	0x40ac53c6	5.3852262
3	0x40ad1f48	5.4100685
4	0x40afb45e	5.4907675
5	0x40a9d821	5.307633
6	0x40ad01ee	5.4064856
7	0x40ad3234	5.4123783

convs.2.block1.1.running_mean f4 [8]
0	0x3eaf847f	0.34280774
1	0x3d661a57	0.056177463
2	0x3ed96a10	0.42463732
3	0x3ee45c58	0.44601703
4	0x3e18a385	0.14906128
5	0xbe89993a	-0.26874715
6	0xbf017de2	-0.50582707
7	0xbf2afabb	-0.66788834

convs.2.block1.1.running_var f4 [8]
0	0x3d1bc26c	0.038027212
1	0x3c952554	0.018206276
2	0x3d8e54d4	0.069497734
3	0x3cfe261e	0.031024035
4	0x3d017d36	0.03161355
5	0x3cf5206f	0.029922692
6	0x3c8391eb	0.01606079
7	0x3cd63f67	0.02615328

convs.2.block2.0.weight f4 [16, 8, 5]
0	0xbd92627c	-0.07147691
1	0xbdd69578	-0.10477728
2	0xbded62b6	-0.11591093
3	0xbe82cb6b	-0.2554582
4	0x3d48aaa9	0.04899088
5	0x3d049770	0.032370985
6	0xbeb8d9d4	-0.3610369
7	0x3e871798	0.26385188
8	0x3ed7e119	0.42163923
9	0x3ebf61e4	0.37379372
10	0x3ca5f97e	0.020260569
11	0xbea16e12	-0.3152929
12	0x3d5e03b8	0.054202765
13	0xbdbccf92	-0.092192784
14	0x3e24a5fa	0.1607894
15	0x3db24bb7	0.08705848
16	0xbc1fd40f	-0.009755149
17	0x3dbd077d	0.09229944
18	0x3eb01ff9	0.34399393
19	0xbb6b7dc9	-0.0035933128
20	0xbd68dbb1	-0.05685014
21	0xbec81278	-0.3907659
22	0x3daf5788	0.08561617
23	0xbe03a1a2	-0.12854627
24	0xbe385b1d	-0.18003507
25	0x3e70d7d5	0.23519833
26	0x3dfa1b2a	0.122122124
27	0xbd9579ab	-0.07298597
28	0xbea6bb6e	-0.32564873
29	0xbd5da586	-0.054112934
30	0x3e20d7a4	0.1570726
31	0x3ee309b8	0.44343352
32	0xbd81df1f	-0.06341385
33	0x3d8f36fd	0.0699291
34	0xbe2e7b07	-0.17039119
35	0x3e4df5a3	0.20113234
36	0x3e0a3def	0.13500188
37	0x3d8475bf	0.06467771
38	0x3d9aa054	0.075501114
39	0xbd88438b	-0.06653508
40	0xbe58f361	-0.21186592
41	0x3cd2d39f	0.025735674
42	0xbe29b1e5	-0.16571768
43	0x3daa25cc	0.083079904
44	0xbe0f6994	-0.14005119
45	0xbeb7814c	-0.35840833
46	0x3d33ecde	0.043927066
47	0x3e53ce69	0.20684208
48	0x3dea636f	0.11444747
49	0x3eb6d721	0.35711005
50	0xbde4ec3c	-0.11177871
51	0xbd9d9fda	-0.07696505
52	0xbe0b52ea	-0.13605848
53	0xbd8345b0	-0.06409776
54	0x3d417386	0.047229312
55	0xbd9d98a3	-0.07695129
56	0x3d71fb62	0.059077628
57	0xbc300ff4	-0.010745991
58	0x3cb63388	0.022241369
59	0x3e6aab7c	0.22916979
60	0xbf06b847	-0.52624935
61	0xbd9a532c	-0.07535395
62	0xbd93cd46	-0.07216887
63	0x3d39a4f7	0.04532334
64	0xbd445bed	-0.04793923
65	0x3e482769	0.19546284
66	0x3d953521	0.07285524
67	0xbc66370e	-0.014051212
68	0xbd590c5a	-0.052990295
69	0xbee81f4d	-0.4533638
70	0x3ed9ddc9	0.4255202
71	0x3d1d98a8	0.038475662
72	0xbd180f71	-0.0371241
73	0xbd202a19	-0.039102647
74	0x3d88b495	0.06675068
75	0x3dac8aaa	0.084248856
76	0x3d8f26df	0.06989836
77	0x3da8f0ad	0.0824903
78	0xbb8dbd92	-0.004325577
79	0xbe037fef	-0.12841772
80	0xbea607c6	-0.32427806
81	0xbc57429a	-0.013138438
82	0xbe030e8e	-0.12798521
83	0xbc197ac0	-0.009367645
84	0xbe2fa850	-0.1715405
85	0xbefd2a11	-0.49446157
86	0x3bd562a2	0.006512002
87	0x3da831e3	0.0821264
88	0x3e6c1407	0.23054515
89	0x3eae97f9	0.3410032
90	0xbe016098	-0.12634504
91	0xbe0c895a	-0.1372427
92	0xbda992ab	-0.08279928
93	0xbd2833e7	-0.041065123
94	0xba8cd5d4	-0.0010744878
95	0x3df76b8e	0.12081061
96	0x3ca347a9	0.019931631
97	0x3d8a8991	0.0676452
98	0xbcefb9e1	-0.029263439
99	0x3e96e707	0.29473135
100	0xbeee3afe	-0.46529382
101	0xbd51236c	-0.05105917
102	0xbdeb79a0	-0.114978075
103	0x3ddcb228	0.10776168
104	0xbdeb7ca7	-0.11498385
105	0x3e7aa751	0.24477889
106	0x3d068f0e	0.03285127
107	0xbd06e2dc	-0.032931194
108	0xbd690f19	-0.056899164
109	0xbecad911	-0.39618734
110	0x3e9fd644	0.3121816
111	0x3ddec8d2	0.10878147
112	0xbb7fc28c	-0.003902587
113	0xbc6efb53	-0.014586288
114	0xbc76cf08	-0.0150640085
115	0x3dafbdfe	0.0858116
116	0x3d95fad1	0.0732323
117	0xbd4e6878	-0.050392598
118	0xbce3a6a3	-0.02778942
119	0xbd61937b	-0.05507229
120	0xbbe69626	-0.007036942
121	0xbe65849d	-0.22413869
122	0xbe08df47	-0.13366424
123	0xbe8a4e97	-0.27013084
124	0xbe2e26a6	-0.1700693
125	0xbc330432	-0.010926293
126	0xbec13e43	-0.37742814
127	0x3da7d8d9	0.08195657
128	0x3e9c57a7	0.30535623
129	0x3ef2237a	0.4729269
130	0xbdd68401	-0.104743965
131	0xbeb7f0b3	-0.35925826
132	0xbd90cd6a	-0.070704296
133	0xbe6082fe	-0.2192497
134	0x3d074556	0.03302511
135	0x3d0fc956	0.03510412
136	0x3ddd7a83	0.10814383
137	0x3e405c90	0.1878531
138	0x3e67238f	0.22572158
139	0x3e554c80	0.20829964
140	0x3d6acd01	0.057324413
141	0xbe132e33	-0.14373092
142	0x3c586948	0.013208695
143	0x3df67b65	0.120352544
144	0xbe01f7d3	-0.12692194
145	0x3ad63fb6	0.0016345892
146	0x3dae1fae	0.08502136
147	0xbdd6335e	-0.10459016
148	0xbea42ce1	-0.3206549
149	0xbea2559d	-0.31705943
150	0x3e2ae2b5	0.16688044
151	0x3eac630f	0.33669326
152	0xbd4debbc	-0.050273642
153	0x3ca26471	0.019823285
154	0xbe2ea33c	-0.17054456
155	0x3e398b40	0.18119526
156	0x3d40c112	0.047059126
157	0x3c753cff	0.014968156
158	0x3d5d3c1c	0.054012403
159	0xbc460cad	-0.012087983
160	0xbde01a36	-0.10942499
161	0x3d30bd4c	0.043149278
162	0xbe077995	-0.13229974
163	0xbe0bede9	-0.13664974
164	0xbe1a727a	-0.15082732
165	0x3d2155c1	0.039388422
166	0xbec186d9	-0.37798193
167	0x3e44ca95	0.19217904
168	0x3e3baaa4	0.18326813
169	0x3f036826	0.5133079
170	0xbd89b7a8	-0.06724483
171	0xbeb932eb	-0.3617166
172	0xbe15d0ef	-0.14630483
173	0xbe57d2b6	-0.21076474
174	0x3d983087	0.07431131
175	0xbd48eb22	-0.049052365
176	0x3e11c384	0.1423474
177	0x3d9b94e4	0.07596758
178	0x3e902746	0.28154963
179	0x3e026a53	0.12735872
180	0x3de81c49	0.1133352
181	0xbe6a801c	-0.22900432
182	0x3d91b0c4	0.071137935
183	0x3d2e54d9	0.042561386
184	0xbe0283ba	-0.12745562
185	0x3cf526b4	0.029925682
186	0xbde4e746	-0.111769244
187	0xbe2318a2	-0.15927365
188	0xbeab1593	-0.33414897
189	0xbe98d96e	-0.29853386
190	0x3e539981	0.20664026
191	0x3eb381bd	0.3505992
192	0xbd1d3836	-0.038383685
193	0x3d93dee5	0.07220248
194	0xbdff0300	-0.12451744
195	0x3e2e0915	0.16995652
196	0x3d06aae5	0.03287782
197	0x3dac5881	0.08415318
198	0x3c428b7d	0.011874077
199	0xbd81c286	-0.063359305
200	0xbc8d8774	-0.017276503
201	0x3ce633b1	0.02810082
202	0xbe4710b9	-0.19439973
203	0xbdd94584	-0.10608962
204	0xbe333439	-0.1750039
205	0x3d8489aa	0.0647157
206	0xbdab3ec2	-0.083615795
207	0xbd3148f2	-0.043282457
208	0x3e270aff	0.16312788
209	0x3ee1539c	0.440091
210	0xbe7f821b	-0.24951975
211	0xbeabb472	-0.33536106
212	0xbe8c012d	-0.27344647
213	0xbe84a8d3	-0.25910053
214	0x3d2a14a1	0.04152358
215	0xbd216771	-0.03940529
216	0xbb81f9ec	-0.0039665606
217	0x3d26a91e	0.040688626
218	0x3e5d2da3	0.2159944
219	0x3e3b899f	0.18314217
220	0x3e31c1b8	0.17359054
221	0x3e066f4f	0.13128398
222	0x3d0001a1	0.031251553
223	0x3d9c964f	0.076458566
224	0xbd7ee0d5	-0.062226135
225	0xbdf1341f	-0.117775194
226	0xbdb293dd	-0.08719609
227	0xbe15f017	-0.14642368
228	0xbebc949b	-0.36832127
229	0xbe9928d6	-0.29913968
230	0xb9dde578	-0.00042323372
231	0x3de8c155	0.11365
232	0x3d1f118f	0.038835105
233	0x3d3dee10	0.046369612
234	0xbd1d6700	-0.038428307
235	0x3d90186c	0.07035908
236	0x3d2210d2	0.039566822
237	0x3e0d00c3	0.13769822
238	0x3d5a0054	0.05322297
239	0xbe1043a5	-0.14088304
240	0xbe087ad2	-0.13328102
241	0xbd06400d	-0.032775927
242	0xbd95ca40	-0.07313967
243	0xbd07b34d	-0.03312998
244	0xbe1ee47f	-0.15516852
245	0xbd0a8a06	-0.033823036
246	0xbea20e3c	-0.31651485
247	0x3dd7d301	0.10538293
248	0x3e521f51	0.20519759
249	0x3f136ede	0.57591045
250	0xbe073b05	-0.13206108
251	0xbed172f5	-0.40908018
252	0xbe034e29	-0.12822784
253	0xbe6d3ff8	-0.23168933
254	0x3e082688	0.13295949
255	0xbca5c4ca	-0.020235438

convs.2.block2.0.bias f4 [16]
0	0x3e030db8	0.12798202
1	0x3d90e1fa	0.070743516
2	0xbb14b38f	-0.0022690033
3	0x3e83e102	0.25757605
4	0xbd0c71cc	-0.034288213
5	0x3e1b09ee	0.15140507
6	0xbdf4b376	-0.11948292
7	0x3e0ab628	0.1354605
8	0xbd266250	-0.0406211
9	0x3d91f86a	0.07127459
10	0xbb73b405	-0.0037186157
11	0xbdf0d5ca	-0.11759527
12	0xbdc49d18	-0.09600276
13	0xbd144f2a	-0.03620831
14	0x3d8d0e22	0.06887461
15	0xbe3e8c21	-0.18608142

convs.2.block2.1.weight f4 [16]
0	0x40ca89ad	6.329306
1	0x40cbc913	6.368295
2	0x40c87e42	6.2654123
3	0x40c981e0	6.297104
4	0x40ca0c45	6.3139977
5	0x40c9d8d9	6.3077207
6	0x40ca6ffa	6.326169
7	0x40c4147f	6.127502
8	0x40cb0a9e	6.345046
9	0x40cb4819	6.352551
10	0x40c9f179	6.3107266
11	0x40c929e5	6.286364
12	0x40c9da91	6.3079305
13	0x40c6e853	6.21586
14	0x40c8db0b	6.2767386
15	0x40cb478f	6.352485

convs.2.block2.1.bias f4 [16]
0	0x40af99ab	5.4875083
1	0x40b39276	5.6116285
2	0x40ad2276	5.4104567
3	0x40a9b178	5.3029137
4	0x40abbfac	5.3671474
5	0x40aba0f7	5.363399
6	0x40ab2033	5.3476806
7	0x40b59fdb	5.6757636
8	0x40b1b409	5.553227
9	0x40ad71c0	5.4201355
10	0x40ae941a	5.455579
11	0x40aee70e	5.465705
12	0x40aadb56	5.3392744
13	0x40a9e8fa	5.3096895
14	0x40b0afc2	5.521455
15	0x40aedd06	5.4644804

convs.2.block2.1.running_mean f4 [16]
0	0x40bb3548	5.850254
1	0xbff0b4d2	-1.8805182
2	0xc06fb7da	-3.7455964
3	0xbf0ec1fb	-0.5576474
4	0xbe968c18	-0.29403758
5	0xc081860a	-4.047612
6	0xc03980fd	-2.8984978
7	0xc01ab629	-2.4173682
8	0x40022f96	2.0341544
9	0xc09da177	-4.92596
10	0xbf341bb3	-0.70354766
11	0x40ba262f	5.817161
12	0xc0efea98	-7.497387
13	0xc0ce6718	-6.4500847
14	0xc07e9085	-3.9775708
15	0xc098690f	-4.7628245

convs.2.block2.1.running_var f4 [16]
0	0x4251a893	52.414623
1	0x42301c4e	44.02764
2	0x4232bea9	44.68619
3	0x4228ef73	42.233837
4	0x42132f20	36.79602
5	0x41c9100d	25.132837
6	0x4223d4fc	40.957993
7	0x423d1514	47.270584
8	0x42602530	56.036316
9	0x41c95406	25.166027
10	0x41c94012	25.156284
11	0x42437fff	48.874996
12	0x4216e45d	37.72301
13	0x41d777bf	26.93347
14	0x42235ba3	40.83949
15	0x4218f678	38.240692

convs.3.block1.0.weight f4 [8, 1, 3]
0	0x3ef8af1a	0.48571092
1	0xbefee043	-0.49780473
2	0x3ea6c712	0.32573754
3	0x3e820abe	0.2539882
4	0xbededb13	-0.43526515
5	0x3eab85d7	0.3350055
6	0xbee92e10	-0.45542955
7	0x3f15e67c	0.58554816
8	0xbed78775	-0.42095533
9	0x3ebd92c0	0.37026024
10	0xbf0c67bf	-0.54845804
11	0x3ed23cfb	0.4106215
12	0x3eafca5d	0.34334078
13	0xbec01539	-0.37516192
14	0x3e8ffd7b	0.28123078
15	0xbdbbb59f	-0.09165501
16	0x3e9931e9	0.2992089
17	0xbea58745	-0.32329765
18	0x3eb6360d	0.35588112
19	0xbeda8076	-0.42676133
20	0x3ea61510	0.32437944
21	0xbed84856	-0.42242688
22	0x3a1d9afc	0.0006012169
23	0x3f3a6fa2	0.7282659

convs.3.block1.0.bias f4 [8]
0	0xbdd2f467	-0.10300522
1	0x3ec81230	0.39076376
2	0x3c46324f	0.012096955
3	0xbdde87aa	-0.108657196
4	0x3f0c0a40	0.5470314
5	0xbf25140a	-0.644837
6	0xbe8c55b5	-0.2740914
7	0x3d62d5fe	0.05537986

convs.3.block1.1.weight f4 [8]
0	0x40c782cc	6.2347164
1	0x40ca8037	6.328151
2	0x40c7948d	6.2368836
3	0x40c9d8d9	6.3077207
4	0x40c861d8	6.261944
5	0x40c5f125	6.1856866
6	0x40c7f00e	6.2480536
7	0x40c0a499	6.0200925

convs.3.block1.1.bias f4 [8]
0	0x40ac5326	5.38515
1	0x40a9ca92	5.305978
2	0x40aa4a0d	5.3215394
3	0x40ab376a	5.3505144
4	0x40ab853b	5.3600135
5	0x40af0f32	5.470605
6	0x40aad23b	5.338163
7	0x40b01dd5	5.5036416

convs.3.block1.1.running_mean f4 [8]
0	0xbe957295	-0.29188982
1	0x3e9d37aa	0.3070653
2	0x3e3bcfc9	0.18340982
3	0xbe7890b8	-0.24273956
4	0x3ecb45bc	0.3970164
5	0xbf14481d	-0.57922536
6	0xbedad9fc	-0.42744434
7	0xbe20a710	-0.1568873

convs.3.block1.1.running_var f4 [8]
0	0x3f0173a7	0.50567096
1	0x3ea2f1f4	0.3182522
2	0x3f1e58b3	0.61854094
3	0x3f04bfe5	0.5185531
4	0x3e926c07	0.28598043
5	0x3e42af01	0.19012071
6	0x3eb31e4d	0.34984055
7	0x3f8103e5	1.0079314

convs.3.block2.0.weight f4 [16, 8, 5]
0	0x3e852c9f	0.26010606
1	0xbe21b76c	-0.15792626
2	0x3e108d13	0.14116316
3	0xbe06378f	-0.13107131
4	0x3c9415ae	0.018076744
5	0xbe14fd92	-0.14549854
6	0x3cb53a85	0.02212263
7	0x3df5f75d	0.120100714
8	0x3d53f8e1	0.05175102
9	0x3d3b8e3f	0.045789953
10	0x3daf8a14	0.08571258
11	0xbcd176ba	-0.025569309
12	0x3b946dc5	0.004529687
13	0x3dfc0ee9	0.123075314
14	0xbecd606f	-0.40112635
15	0xbda7a479	-0.081856675
16	0x3dbc9358	0.09207791
17	0x3cd757ce	0.026286986
18	0xbd8d00e7	-0.06884938
19	0xbdce7f63	-0.10082891
20	0x3dc5b300	0.09653282
21	0xbdfa27b1	-0.12214602
22	0xbe0f4dfb	-0.13994591
23	0x3db78d90	0.08962548
24	0x3d2201a4	0.039552346
25	0x3ed1d4b8	0.40982604
26	0xbd02e1a9	-0.031953488
27	0xbe886cc9	-0.26645496
28	0x3da53d02	0.08068277
29	0x3e0734c0	0.13203716
30	0x3daec73b	0.08534094
31	0x3dbb98e9	0.09160025
32	0xbe0cbab0	-0.1374309
33	0x3e132352	0.14368942
34	0xbd76cc80	-0.06025362
35	0x3f0b7a1f	0.54483217
36	0xbe2d7be2	-0.16941789
37	0xbd853e70	-0.0650605
38	0x3e93a5ef	0.28837535
39	0xbd2212f9	-0.039568875
40	0x3e1717c6	0.14755163
41	0x3b8d0a3a	0.0043041976
42	0x3d2fc9fd	0.04291724
43	0xbdbbc956	-0.09169261
44	0x3e80eec0	0.25182152
45	0xbe19aa04	-0.15006262
46	0x3db44f09	0.08804137
47	0xbd0b4b66	-0.034007452
48	0x3d3f36a1	0.046682958
49	0xbe882eea	-0.26598293
50	0xbd3ec144	-0.04657103
51	0x3d6201ed	0.055177618
52	0xbc8d84e2	-0.017275278
53	0x3e638ce4	0.22221714
54	0xbcd36b56	-0.025808018
55	0xbe1cc00d	-0.15307637
56	0xbd027d80	-0.031857967
57	0xbd69abac	-0.057048485
58	0x3cf0853b	0.029360404
59	0xbd66b492	-0.05632455
60	0x3ea03bd3	0.31295642
61	0xbcf0ef88	-0.029411092
62	0x3dc3f297	0.09567755
63	0x3cc86108	0.02446033
64	0x3ded70f1	0.115938075
65	0x3ebfffd4	0.3749987
66	0x3d37205a	0.044708587
67	0xbd89a4e7	-0.06720906
68	0xbd841356	-0.064490005
69	0x3ecb8ada	0.39754373
70	0x3d9ab28e	0.07553588
71	0xbe05978e	-0.13046095
72	0xbdfdf43e	-0.12400101
73	0xbe08c1da	-0.13355199
74	0x3dbd6feb	0.09249862
75	0x3ed50b1d	0.4161004
76	0xbd239c16	-0.039943777
77	0x3db5317c	0.08847329
78	0x3d5c09db	0.053720336
79	0x3ee27bd6	0.44235104
80	0x3e203046	0.15643415
81	0xbe9e230c	-0.30886114
82	0xbd226be0	-0.03965366
83	0xbc8bcb65	-0.01706476
84	0xbda27207	-0.07931905
85	0xbd78af25	-0.060713906
86	0x3dc68a63	0.09694364
87	0x3dbe7f38	0.09301609
88	0x3e2f325f	0.17109059
89	0xbcd9c1ba	-0.026581634
90	0x3e434511	0.19069315
91	0xbcd9638b	-0.026536724
92	0x3bc66491	0.006054469
93	0xbd866e6e	-0.065640315
94	0xbe5059b5	-0.2034672
95	0xbb6f298b	-0.0036493267
96	0x3d639626	0.055563115
97	0x3c8be36e	0.01707622
98	0x3df76dae	0.120814666
99	0xbe1d47af	-0.15359376
100	0x3da6e33d	0.08148811
101	0x3bddb2dd	0.006765707
102	0xbd0d9589	-0.034566436
103	0x3e197a9f	0.14988182
104	0x3c49178e	0.012273682
105	0x3eb78d82	0.3585015
106	0xbc8276b9	-0.015925752
107	0xbe94437e	-0.28957742
108	0xbe3ca40b	-0.18421952
109	0x3dde5763	0.108565114
110	0x3e12ee73	0.14348774
111	0xbdb02583	-0.08600905
112	0xbe0c0a7f	-0.13675879
113	0x3d9a7443	0.075417064
114	0xbe8445bc	-0.25834453
115	0x3f0ee538	0.5581851
116	0xbe069719	-0.13143577
117	0x3c860d5b	0.01636379
118	0x3e056319	0.13026084
119	0xbe45e5db	-0.19325964
120	0x3c770e05	0.015079026
121	0x3dcebe37	0.10094874
122	0xbd0acc41	-0.033886198
123	0x3de1d540	0.11027002
124	0x3eb01e14	0.34397948
125	0xbe1dcefa	-0.15410987
126	0x3ddd0bd1	0.107932694
127	0x3d192c3b	0.037395697
128	0x3e16c545	0.1472369
129	0xbe9ad4cb	-0.30240473
130	0xbd5720e0	-0.052521586
131	0xbe1caa39	-0.1529931
132	0xbcdf4c58	-0.027258083
133	0x3dd98339	0.10620732
134	0x3df808b1	0.12111033
135	0xbe125c68	-0.14293063
136	0xbcd5d71d	-0.02610355
137	0x3d6c8ae1	0.057749633
138	0x3c518069	0.012786963
139	0xbc22d308	-0.009938009
140	0x3d9f1083	0.07766821
141	0x3e16d66d	0.14730234
142	0x3b852f02	0.0040644417
143	0xbce48739	-0.02789651
144	0x3e49cd3d	0.19707198
145	0xbdb57d57	-0.08861797
146	0x3e276fc9	0.16351236
147	0xbe0c38ff	-0.13693617
148	0xbe8d2073	-0.2756382
149	0x3ecb52dc	0.39711654
150	0xbdbb4b0e	-0.09145175
151	0xbd97b459	-0.074074455
152	0x3dcbe957	0.099566154
153	0xbdb9254e	-0.090403184
154	0x3c4f4118	0.012649797
155	0x3dd658e9	0.10466177
156	0xbc5f4500	-0.013627291
157	0x3b3e936a	0.0029079565
158	0x3ca39465	0.019968221
159	0x3f263ce5	0.6493667
160	0xbdf3d58b	-0.119059645
161	0x3e25afea	0.16180387
162	0x3dfa8a54	0.12233415
163	0xbd14e1c4	-0.03634812
164	0x3dbfc200	0.093631744
165	0xbe3d4617	-0.18483768
166	0x3df24f93	0.11831584
167	0x3e3b290c	0.18277377
168	0x3df51f2a	0.11968835
169	0xbe28ef4a	-0.16497532
170	0xbe07d057	-0.13263069
171	0xbd8780ad	-0.0661634
172	0xbc8cbb5b	-0.017179182
173	0x3da8b79a	0.08238144
174	0x3e0675e6	0.13130912
175	0xbe3b5601	-0.18294527
176	0x3d9665a3	0.073436044
177	0xbdc07285	-0.09396843
178	0xbd568d72	-0.052380987
179	0x3d9a7daf	0.075435035
180	0xba16e9e6	-0.00057568995
181	0xbb2fc3e7	-0.0026819648
182	0x3d3c0b8d	0.045909453
183	0x3db73f17	0.0894758
184	0x3e92f825	0.28704944
185	0x3cf8a069	0.030349927
186	0x3e0ddbd6	0.13853392
187	0xbdf0572d	-0.117353775
188	0xbe825a8a	-0.254597
189	0x3ee7aef6	0.45250672
190	0xbe15921b	-0.14606516
191	0xbdb1bb41	-0.08678294
192	0xbc440966	-0.011965131
193	0x3d6761c8	0.056489736
194	0x3a87bac8	0.0010355348
195	0x3d2af390	0.041736186
196	0xbdb35e0a	-0.08758171
197	0x3c028151	0.007965402
198	0x3d85bd05	0.06530193
199	0x3f252c41	0.6452065
200	0x3ea0e1be	0.31422228
201	0xbe37258c	-0.17885417
202	0xbcfedf0b	-0.031112215
203	0xbbb52b96	-0.0055288775
204	0x3c642d23	0.013926777
205	0xbe19161a	-0.14949837
206	0x3e3122dc	0.17298454
207	0x3db3b62e	0.087749824
208	0x3e0c88df	0.13724087
209	0x3ce1aebb	0.027549138
210	0x3d2060fd	0.039154995
211	0xbdccaf6b	-0.09994396
212	0xbd424d0f	-0.04743677
213	0xbdd8dd75	-0.105891146
214	0xbe4fa8e5	-0.20279272
215	0xbcd5416e	-0.026032176
216	0x3daf607b	0.08563324
217	0xbb3412b2	-0.0027476964
218	0x3e844196	0.25831288
219	0xbe946d35	-0.28989568
220	0x3e03f5a0	0.12886667
221	0xbe47f8ef	-0.19528554
222	0xbd5fa035	-0.054596145
223	0xbc909599	-0.017649459
224	0xbcecd6fd	-0.028911108
225	0x3ed609f0	0.41804457
226	0x3d29c95e	0.041451804
227	0xbe4d0020	-0.20019579
228	0xbe0fcc6e	-0.14042827
229	0x3dc54cad	0.09633765
230	0x3b95050b	0.0045477203
231	0xbdc99daf	-0.09844529
232	0xbd2f66fa	-0.042822815
233	0x3d2b1c3f	0.041774984
234	0xbe2176a7	-0.15767919
235	0x3f0514d4	0.51984906
236	0xbe08958c	-0.13338298
237	0x3c6c945e	0.01443967
238	0x3d9170fc	0.07101628
239	0xbe18cf27	-0.14922772
240	0x3e36bb47	0.17844878
241	0xbcf045ff	-0.029330252
242	0x3df8d765	0.12150458
243	0xbdb7502c	-0.089508384
244	0x3ddf634f	0.109076135
245	0xbe844ef5	-0.2584149
246	0x3e3cd9b5	0.18442424
247	0x3e0a8854	0.13528568
248	0x3e009c5c	0.12559646
249	0xbdd3a185	-0.10333542
250	0x3d626b65	0.0552782
251	0xbc47e0a9	-0.012199559
252	0xbd2a9064	-0.041641608
253	0x3b4882c2	0.0030595516
254	0xbea281da	-0.31739694
255	0x3d769172	0.0601973

convs.3.block2.0.bias f4 [16]
0	0x3c862cf5	0.016378859
1	0x3d2ecb74	0.042674497
2	0x3d8d5704	0.069013625
3	0x3e529ddf	0.20568036
4	0xbe27a947	-0.16373168
5	0xbd348316	-0.044070326
6	0x3d5b0a26	0.053476475
7	0x3c912164	0.017716117
8	0xbbc31dc5	-0.0059544765
9	0x3d1d1c46	0.03835704
10	0x3d88e467	0.06684189
11	0xbd64cf5c	-0.055861816
12	0xbe270018	-0.1630863
13	0x3cdd66da	0.027026583
14	0x3dafda4e	0.0858656
15	0x3ddc31d2	0.1075169

convs.3.block2.1.weight f4 [16]
0	0x40c1f60a	6.061284
1	0x40c88705	6.266482
2	0x40c2bf13	6.0858245
3	0x40c43362	6.1312723
4	0x40c4aa3c	6.1457806
5	0x40c318da	6.0967836
6	0x40c18378	6.0472984
7	0x40c89ac4	6.2688923
8	0x40c4fc3d	6.155791
9	0x40c44ba6	6.1342344
10	0x40c6db65	6.2142816
11	0x40c343b7	6.102016
12	0x40c77aa4	6.233721
13	0x40c57417	6.170421
14	0x40c67ff9	6.2031217
15	0x40c34406	6.1020536

convs.3.block2.1.bias f4 [16]
0	0x40b089c7	5.5168185
1	0x40b00099	5.500073
2	0x40aef4c2	5.4673777
3	0x40afae71	5.490044
4	0x40aeb21a	5.459241
5	0x40af24cc	5.473242
6	0x40b0cafc	5.5247784
7	0x40b045fa	5.508542
8	0x40af4905	5.4776635
9	0x40af5ed2	5.4803247
10	0x40afbd36	5.491847
11	0x40b15922	5.5421305
12	0x40b06875	5.512751
13	0x40af2b1e	5.4740133
14	0x40afcf9c	5.494093
15	0x40afa09c	5.4883556

convs.3.block2.1.running_mean f4 [16]
0	0x40d7e774	6.7470036
1	0x4178d4a8	15.551918
2	0x3f9dfe67	1.2343262
3	0x412b5c37	10.710013
4	0x41198c06	9.596685
5	0x3e50971a	0.2037014
6	0x40bf038e	5.969184
7	0x414df0f1	12.871324
8	0xc19f6227	-19.922926
9	0x40d22110	6.566536
10	0x4183214e	16.391262
11	0x40b962ec	5.7933254
12	0x4187d8d1	16.980867
13	0xc1587fbf	-13.531188
14	0xc1917dfb	-18.186514
15	0x4130610f	11.023696

convs.3.block2.1.running_var f4 [16]
0	0x41c5f1fc	24.743156
1	0x419d338f	19.650175
2	0x425a70e1	54.610233
3	0x41fedbaa	31.857258
4	0x4248138e	50.019096
5	0x4221b21f	40.423946
6	0x41c58775	24.691141
7	0x4167acd5	14.479695
8	0x42bf296c	95.5809
9	0x420f25b9	35.78684
10	0x41ac0335	21.501566
11	0x41cd0f3d	25.63244
12	0x41bb8a68	23.442581
13	0x42be0e7f	95.02831
14	0x428724c2	67.57179
15	0x4223da0e	40.962944

convs.4.block1.0.weight f4 [8, 1, 3]
0	0x3e6d4ab6	0.23173031
1	0xbef670ba	-0.4813288
2	0x3e579a6e	0.21055004
3	0x3e88ecb4	0.2674309
4	0xbf054ff0	-0.520751
5	0x3e8c69fd	0.27424613
6	0x3e3793db	0.17927496
7	0x3eb2eb19	0.3494499
8	0xbf23f54c	-0.6404617
9	0x3ea7d4ff	0.3277969
10	0xbf037ef0	-0.51365566
11	0x3e9fb33e	0.31191438
12	0x3e7d34bf	0.24727152
13	0xbf032e4b	-0.5124251
14	0x3e5ca713	0.21548109
15	0x3f0552ad	0.5207928
16	0xbe56135f	-0.20905827
17	0xbea4e376	-0.3220479
18	0xbebaed8c	-0.3650936
19	0xbd9faff4	-0.07797232
20	0x3ec28761	0.3799391
21	0x3e98135c	0.2970227
22	0xbf010ffa	-0.50415003
23	0x3e67a72f	0.22622369

convs.4.block1.0.bias f4 [8]
0	0xbe27261b	-0.1632313
1	0xbe926be7	-0.28597948
2	0x3e071a46	0.13193616
3	0x3e7eaec3	0.24871354
4	0x3af5e9b5	0.0018761667
5	0xbeaee9b5	-0.3416268
6	0xbf08e04b	-0.53467244
7	0x3ef014e1	0.4689093

convs.4.block1.1.weight f4 [8]
0	0x40c521ce	6.1603765
1	0x40c5b567	6.178394
2	0x40aec7ed	5.461905
3	0x40c04854	6.008829
4	0x40c11c79	6.0347257
5	0x40b61c32	5.690942
6	0x40ad5764	5.416918
7	0x40c2f8d3	6.092874

convs.4.block1.1.bias f4 [8]
0	0x40ae55a2	5.447953
1	0x40ad4dc8	5.415745
2	0x40ac167d	5.377745
3	0x40ae59e8	5.448475
4	0x40ae207b	5.441465
5	0x40ae4d77	5.446956
6	0x40aa4f9d	5.3222184
7	0x40aef3e1	5.4672704

convs.4.block1.1.running_mean f4 [8]
0	0xbe8b06e7	-0.27153704
1	0xbe96aa4a	-0.29426795
2	0xbcca9ceb	-0.024733027
3	0x3ed29bee	0.4113459
4	0xbde1280e	-0.10993968
5	0xbeba781f	-0.3641977
6	0xbf228cd2	-0.63496125
7	0x3ef004f1	0.4687877

convs.4.block1.1.running_var f4 [8]
0	0x3c342672	0.010995494
1	0x3c87d367	0.016580297
2	0x3d641ef0	0.055693567
3	0x3cbd428f	0.023103027
4	0x3c490c62	0.012271019
5	0x3d3bd348	0.04585579
6	0x3d0fcd27	0.035107758
7	0x3c810f03	0.015754228

convs.4.block2.0.weight f4 [16, 8, 5]
0	0x3e7bd4e6	0.24592933
1	0x3d878878	0.06617826
2	0x3dbb71c9	0.09152562
3	0x3de74d5e	0.112940535
4	0x3e3b9112	0.18317059
5	0xbe5b59a9	-0.21420921
6	0x3d168ae9	0.03675357
7	0x3d6ede49	0.058317456
8	0x3e6241bc	0.22095388
9	0x3e065510	0.13118386
10	0x3e5ac3ea	0.21363798
11	0x3daf02eb	0.085454784
12	0x3e042cd5	0.12907727
13	0xbe755fc0	-0.23962307
14	0xbecb87ab	-0.39751944
15	0x3d868723	0.06568744
16	0x3db40f5d	0.08791993
17	0x3d38f80d	0.045158435
18	0x3e7deb8f	0.2479689
19	0x3ea474d4	0.32120383
20	0x3ddbb988	0.10728747
21	0x3d29ec62	0.041485198
22	0xbce22c6a	-0.027609069
23	0xbd7d6cd7	-0.061871376
24	0xbc9e31b8	-0.019310817
25	0xbe9429d3	-0.2893816
26	0xbd90d3a0	-0.07071614
27	0xbc3a8efd	-0.01138663
28	0xbe4752e1	-0.1946521
29	0xbd17fc1b	-0.03710566
30	0xbf163975	-0.5868142
31	0xbe20c073	-0.15698414
32	0xbd448859	-0.047981594
33	0xbe8e3cb9	-0.27780703
34	0x3b8d7fe6	0.004318225
35	0x3da061b4	0.078311354
36	0x3ca7017b	0.020386448
37	0x3cf03d45	0.02932609
38	0xbccf4c60	-0.025304973
39	0xbe129548	-0.14314759
40	0xbd41f1f5	-0.04734989
41	0xbbb65dff	-0.0055654044
42	0x3d2cfcad	0.042233158
43	0xbde6362d	-0.11240802
44	0x3dfffd0a	0.12499435
45	0xbe0985e5	-0.13429983
46	0x3d45e321	0.04831231
47	0x3d989e49	0.074520655
48	0x3e37f3f6	0.17964157
49	0x3e8039ba	0.25044042
50	0x3dbb46b3	0.09144344
51	0xbc221bde	-0.009894339
52	0xbdd81001	-0.105499275
53	0xbd274140	-0.04083371
54	0xbe9670db	-0.29382977
55	0xbd04dbb6	-0.032436095
56	0x3df7d0ca	0.1210037
57	0x3e1ce5cf	0.1532204
58	0x3dc01cb5	0.093804754
59	0x3e9c9deb	0.30589232
60	0x3eb607d3	0.35552844
61	0xbd5d1af0	-0.053980768
62	0xbe0e403c	-0.13891691
63	0xbd84ccb0	-0.064843535
64	0x3d483621	0.048879746
65	0xbe5fd71f	-0.21859406
66	0xbd524f22	-0.051345
67	0x3db7d64b	0.0897642
68	0xbcd4730d	-0.025933767
69	0xbe8efc8d	-0.27927056
70	0xbf340bf7	-0.70330757
71	0xbe5030e2	-0.20331147
72	0xbd34ff9f	-0.04418909
73	0xbd8d530e	-0.06900607
74	0xbdd6b4a3	-0.104836725
75	0x3e0e904b	0.13922231
76	0xbd2b7889	-0.041863
77	0x3d435917	0.047692385
78	0xbda7cd77	-0.08193486
79	0xbe51b531	-0.20479275
80	0xbc860ea0	-0.016364396
81	0xbc8afd48	-0.016966477
82	0x3d2fe8f8	0.042946786
83	0x3c20b20f	0.0098080775
84	0x3de1a12a	0.11017068
85	0xbdb86b7b	-0.09004875
86	0x3cb1029d	0.021607691
87	0x3d858a84	0.065205604
88	0x3df5c6d6	0.120008156
89	0x3d40730e	0.046984725
90	0x3e2e36f9	0.17013158
91	0x3dc122c0	0.09430456
92	0xbda3baf1	-0.079946406
93	0xbd52d7bd	-0.051475275
94	0xbeac86dc	-0.3369664
95	0xbccd7f07	-0.025084985
96	0x3e1eadec	0.15496033
97	0x3dead69b	0.11466714
98	0x3d019a25	0.031641144
99	0x3ecf6045	0.40503135
100	0x3e360f6e	0.17779323
101	0xbda97701	-0.08274651
102	0xbcd574e8	-0.026056722
103	0xbd6a3335	-0.05717774
104	0x3d45ff75	0.048339326
105	0xbe83b895	-0.25726762
106	0xbdb272a6	-0.08713274
107	0x3daff5bf	0.08591794
108	0x3c3934ad	0.011304063
109	0xbe2bb7ac	-0.16769284
110	0xbf299313	-0.6624004
111	0xbe557e8f	-0.2084906
112	0xbd452523	-0.04813112
113	0xbda3cbeb	-0.07997879
114	0xbd9eccfb	-0.07753941
115	0x3e4f6f08	0.20257199
116	0x3db9c9a2	0.090716615
117	0xbd699d01	-0.057034496
118	0xbd8dbf86	-0.06921296
119	0xbe27a220	-0.1637044
120	0x3d64ba88	0.055841953
121	0x3dc46bff	0.09590911
122	0x3e20c54b	0.15700261
123	0x3d8a8a88	0.06764704
124	0x3d9362af	0.07196557
125	0x3c801afa	0.015637863
126	0x3dd67897	0.104722194
127	0x3d169c1f	0.036769982
128	0x3e3c99a2	0.18417981
129	0x3e1831a6	0.1486269
130	0x3ed47ea6	0.41502875
131	0x3e01696e	0.12637874
132	0x3d6f8865	0.058479685
133	0xbea65d8e	-0.32493252
134	0xbee85522	-0.4537745
135	0xbdb2fe67	-0.0873993
136	0x3c3fc3a3	0.011704358
137	0x3d1a640c	0.03769307
138	0x3ea2cb8b	0.31795916
139	0x3eddee71	0.4334598
140	0x3e820e0e	0.25401348
141	0x3e1a65ca	0.15077892
142	0xbdc013e0	-0.09378791
143	0xbd961e48	-0.073299944
144	0xbe101df3	-0.14073925
145	0xbd7fa47c	-0.062412724
146	0xbe4864ac	-0.19569653
147	0x3e0a92d1	0.13532569
148	0xbd316b37	-0.04331514
149	0x3c84ecf9	0.016226279
150	0x3c7aedd9	0.015315496
151	0xbed469cf	-0.41486976
152	0x3cb2ee12	0.021842036
153	0xbe8e4113	-0.27784023
154	0xbc9ef37c	-0.019403212
155	0xbd896eae	-0.067105636
156	0xbbe35d96	-0.0069386465
157	0xbcea015a	-0.028565098
158	0xbc8d05fc	-0.017214768
159	0x3be9fe5e	0.0071409186
160	0x3ddeeac3	0.10884621
161	0x3b52d871	0.0032172466
162	0xbd954647	-0.07288795
163	0x3e8b1c67	0.27170107
164	0xbd2e2bf5	-0.04252239
165	0x3e136d5f	0.1439719
166	0xbd989c51	-0.0745169
167	0x3da3d8af	0.080003135
168	0x3e24b19c	0.16083378
169	0x3e227b31	0.15867306
170	0x3f1331bb	0.5749776
171	0xbd4bdeba	-0.049772955
172	0x3daaaa64	0.08333281
173	0xbeec27d1	-0.46124128
174	0xbe7a9094	-0.24469215
175	0xbd3bbca8	-0.045834213
176	0x3d9a8ed1	0.07546771
177	0x3e3b0fb4	0.18267709
178	0x3ece69f3	0.40315208
179	0x3e198fa1	0.14996196
180	0x3e37a72a	0.17934862
181	0x3e1ab4ae	0.15107986
182	0xbd1b61b7	-0.037934985
183	0xbd1cdc4b	-0.038296025
184	0xbce16bac	-0.027517162
185	0x3d1bf603	0.038076412
186	0xbe988885	-0.29791656
187	0x3e5fee36	0.21868214
188	0xbd88b399	-0.066748805
189	0x3e505d6b	0.20348136
190	0x3daff044	0.08590749
191	0xbf12373b	-0.57115525
192	0x3e537fae	0.20654175
193	0xbea4e2f9	-0.32204416
194	0x3e0d5325	0.13801248
195	0x3e1f9b71	0.1558664
196	0x3e016810	0.12637353
197	0xbd54d81e	-0.051963918
198	0x3d14b111	0.036301676
199	0x3dc96839	0.09834332
200	0x3e459c5d	0.19297929
201	0x3d9b0ab0	0.07570398
202	0x3e7801db	0.24219458
203	0x3dda7822	0.10667445
204	0x3e237ef6	0.159664
205	0xbe3cb420	-0.18428087
206	0xbcca4d29	-0.024694996
207	0xbc933c27	-0.017973019
208	0x3e89cc0d	0.2691349
209	0x3e190749	0.14944185
210	0x3e24481a	0.1604313
211	0x3d203759	0.039115284
212	0x3dc88f78	0.097929895
213	0xbe79c3d4	-0.24391109
214	0xbec207c0	-0.37896538
215	0xbc32a350	-0.010903195
216	0x3dba6657	0.09101551
217	0x3b9dfd5d	0.004821463
218	0x3e6680c7	0.22510062
219	0x3e945c21	0.2897654
220	0x3e48802e	0.19580147
221	0x3d815459	0.06314916
222	0xbdb18572	-0.08668031
223	0x3c20ed05	0.009822135
224	0xbdb1cf06	-0.08682065
225	0xbe2f2e0a	-0.17107406
226	0xbe0f7941	-0.14011098
227	0x3cee00f4	0.029053189
228	0xbe59356f	-0.2121179
229	0xbd8ae527	-0.067819886
230	0xbf0dedcd	-0.5544098
231	0xbe3283f1	-0.17433144
232	0xbc6ea69c	-0.01456609
233	0xbe8c4f6c	-0.27404344
234	0xbd25e24c	-0.040499017
235	0x3d0a550d	0.033772517
236	0x3ca84907	0.020542635
237	0xbc5e9748	-0.013585873
238	0xbe214289	-0.15748037
239	0xbd59b011	-0.053146426
240	0xbbc1825c	-0.0059054326
241	0xbd896829	-0.0670932
242	0x3dda2c6d	0.10653005
243	0xbdcdabb5	-0.10042516
244	0x3dd48b56	0.10378139
245	0xbdf63bbb	-0.120231114
246	0x3d0999ae	0.033593826
247	0xbd31320e	-0.043260626
248	0x3e14d173	0.14533024
249	0x3e865ea0	0.26244068
250	0x3d0f4a64	0.034983054
251	0xbcb238a3	-0.021755522
252	0xbd8a0fd5	-0.06741301
253	0x3c7568c7	0.014978594
254	0xbeb95fd8	-0.36205935
255	0xbdef63c7	-0.11688953

convs.4.block2.0.bias f4 [16]
0	0x3d6fd61f	0.05855381
1	0xbd172400	-0.036899567
2	0xbdd5b87f	-0.104355805
3	0xbbd021a9	-0.006351669
4	0x3d0f9596	0.035054766
5	0xbc4f45b9	-0.0126509005
6	0x3d8d95fb	0.06913372
7	0xbe1052c1	-0.14094068
8	0x3d8e06de	0.069349036
9	0x3e2fcb6d	0.17167445
10	0x3d1484b4	0.036259368
11	0xbd8cb99f	-0.06871342
12	0xbd3e0a86	-0.046396755
13	0x3bba2cf0	0.0056816265
14	0xbdc4ae78	-0.0960359
15	0x3e031814	0.12802154

convs.4.block2.1.weight f4 [16]
0	0x40cce5d5	6.4030557
1	0x40c9d3bc	6.3070965
2	0x40cb00ff	6.3438716
3	0x40ca89e7	6.329334
4	0x40ce447c	6.44586
5	0x40ccd7e3	6.4013534
6	0x40c98f74	6.2987614
7	0x40cb1347	6.346103
8	0x40c9cdf3	6.3063903
9	0x40ca4b49	6.32169
10	0x40cb0aee	6.345084
11	0x40c9ee2f	6.310325
12	0x40cc13f8	6.3774376
13	0x40cca900	6.39563
14	0x40cb759c	6.3581066
15	0x40c99a5b	6.300092
