runs/base_730.pt (torch, 44799 bytes, 61 tensors)

convs.0.block1.0.weight f4 [8, 1, 3]
000000 b7 8c a1 3e 56 4c 11 bf 37 81 a5 3e 4b 0c 96 3e
       0.3155267 -0.56757104 0.32325146 0.29306254
000010 a2 4d 1b 3e 38 5d 03 bf 4d 9c 92 3e bb 45 18 bf
       0.15166333 -0.51314116 0.28634873 -0.594814
000020 5c 00 be 3e 62 a3 91 be 9c a1 fb 3e a8 7b 88 be
       0.3710965 -0.28444964 0.49146736 -0.26656842
000030 b7 6f 2d 3e 64 99 bb be b5 05 6a 3e b1 a5 6a 3e
       0.16937147 -0.36640465 0.2285374 0.22914769
000040 76 da c3 be db 57 52 3e ac ac 9b 3e c9 9c 05 bf
       -0.3825261 0.20541327 0.30405176 -0.5219236
000050 48 89 8a 3e d0 67 be be 06 b0 06 3f ea e7 6f be
       0.27057862 -0.37188578 0.5261234 -0.23428312

convs.0.block1.0.bias f4 [8]
000000 45 60 cb be 60 d2 32 be 93 57 1b 3f 5c ff 89 be
       -0.39721885 -0.17463064 0.606805 -0.26952636
000010 eb ed e5 3e 68 d0 d0 bc 72 32 8c ba 33 3c 34 be
       0.4490808 -0.02549 -0.0010696186 -0.17601089

convs.0.block1.1.weight f4 [8]
000000 54 ae c5 40 05 f0 b8 40 91 df c2 40 93 54 c5 40
       6.1775303 5.7792993 6.089791 6.166574
000010 84 5a c4 40 1a 59 c5 40 f3 dc c6 40 df 2a c4 40
       6.1360493 6.1671267 6.2144713 6.1302333

convs.0.block1.1.bias f4 [8]
000000 bd 71 a8 40 11 66 aa 40 28 48 a8 40 d7 18 a9 40
       5.263884 5.3249593 5.258808 5.284282
000010 f9 f7 a7 40 28 2c a8 40 c1 b4 aa 40 5b 0b aa 40
       5.24902 5.25539 5.3345647 5.313886

convs.0.block1.1.running_mean f4 [8]
000000 f4 a7 d0 be b0 c4 19 be 33 38 19 3f c5 d0 85 be
       -0.40753138 -0.15016437 0.5985138 -0.2613584
000010 73 79 e4 3e 8f 10 05 bd 16 52 b9 bb 5b 50 29 be
       0.44623908 -0.032486495 -0.0056555374 -0.1653456

convs.0.block1.1.running_var f4 [8]
000000 8a 74 7c 3d 2c 8e 46 3d 1d 64 8a 3d 04 63 3c 3d
       0.061634578 0.04847543 0.06757376 0.045992866
000010 27 d7 cf 3c 6a 9d e6 3c b4 71 51 3d b5 6d 5f 3d
       0.025371147 0.028151233 0.051133826 0.054547984

convs.0.block2.0.weight f4 [16, 8, 5]
000000 75 89 d9 bd 47 f6 86 bd 90 37 06 be 1d e1 ea bc
       -0.10621921 -0.065899424 -0.13107133 -0.028671796
000010 57 09 00 3e 1c 12 27 3e 7e 21 5a be 51 22 60 3e
       0.12503563 0.16315502 -0.21301839 0.2188809
000020 da d8 1a bf 86 ef b4 3e 60 5a 2b 3a 9c e5 f9 3c
       -0.6048714 0.35338992 0.0006536599 0.030504994
000030 fe b6 48 be 8e da af bd 9a 02 ed 3d 31 a7 7d 3d
       -0.19601056 -0.08586608 0.11572762 0.061927024
000040 ce 90 e3 3d 0d 64 67 3d 70 6e 13 be ab f0 b2 3c
       0.11111604 0.0564919 -0.14397597 0.021843275
000050 fb 20 6a 3e ef 09 65 3e 2b b5 ce bd 8a f8 c1 be
       0.22864144 0.2236707 -0.10093149 -0.37884933
000060 04 eb 74 3e 0a 13 77 bd ed f1 9c bc 36 52 21 3e
       0.23917776 -0.06032089 -0.019158328 0.15754017
000070 f2 87 ad bd b8 6e 93 3d 89 ca 5d 3d 9f f7 d5 3d
       -0.08473195 0.07198852 0.05414823 0.104476206
000080 a7 81 36 bd 72 f3 85 bd 64 7c 46 3e f2 88 93 3d
       -0.04455724 -0.06540574 0.19383389 0.072038546
000090 d2 64 e4 3c e0 14 a1 bd a1 af a3 3d ab 63 5d 3d
       0.027880106 -0.0786531 0.07992483 0.05405013
0000a0 a3 78 4a bd 3f 7c 5d 3d 2c e4 eb 3d f3 ca 24 be
       -0.049431454 0.05407357 0.1151813 -0.16093044
0000b0 a3 88 b2 3c 25 20 55 be 33 4e c9 3d 66 58 b8 bd
       0.02179367 -0.20813043 0.098293684 -0.09001236
0000c0 f6 de 49 3c 2c 0e 5e bd 61 78 03 bc e0 8d cf 3d
       0.012321224 -0.054212734 -0.008024306 0.101344824
0000d0 9d 9a 67 bd 59 0a 5b 3d 74 86 d1 bd a6 23 90 be
       -0.056543935 0.053476665 -0.10230723 -0.28152198
0000e0 b7 ce 81 3c e9 4e e3 bc bf 39 81 bd fd 87 f2 be
       0.01584564 -0.027747588 -0.06309842 -0.47369376
0000f0 1a af 9b bc 49 5e b2 3c c7 f7 af 3c 33 b6 ba ba
       -0.019004393 0.021773474 0.021480454 -0.0014244973
000100 75 a1 9e be 13 75 c5 bc a5 28 af bd 26 26 d2 bc
       -0.30982557 -0.024103677 -0.08552674 -0.025652956
000110 ec b0 d4 bd 81 12 e7 bd 4b fc 42 be 44 0e af 3d
       -0.10385308 -0.11282826 -0.19041555 0.08547643
000120 4e ff 80 3d 28 da 75 39 59 fd a9 3d 8f d6 c6 be
       0.062986955 0.0002344629 0.08300275 -0.3883557
000130 0f 89 72 3d e1 0b 9c 3d 41 29 19 be c3 12 96 be
       0.05921274 0.07619453 -0.14957143 -0.2931119
000140 37 dd 7c bd 5c 23 79 3d 43 dd 1d be 5a 34 2a bd
       -0.061734404 0.060824737 -0.15416436 -0.041553833
000150 94 25 97 bb 4e e2 08 3f 77 cb e5 be 5b 5f cf 3d
       -0.004612634 0.53470314 -0.44881794 0.101256095
000160 23 57 8f 3d f7 1e 5d bd b8 d3 5b 3e ad 51 c6 bc
       0.06999042 -0.05398461 0.21467483 -0.024208868
000170 2a 19 a3 bd eb 8d d5 bb 03 97 ea bd b9 b4 3e 3e
       -0.07963784 -0.006517162 -0.114545844 0.18623628
000180 a7 7c ed bd a1 eb 01 be 48 7c c0 bc e9 2c c6 3d
       -0.11596041 -0.12687542 -0.023496762 0.09676535
000190 af a6 0e 3c 08 36 d2 3d 31 58 3a 3c 08 6c c4 bd
       0.008706733 0.10264212 0.0113735655 -0.09590918
0001a0 f1 86 3f be 9b 56 87 bd 58 5f 4b be 1d eb 27 3e
       -0.1870382 -0.066083156 -0.1986059 0.16398282
0001b0 27 12 04 3e 4f 20 26 3e d0 67 32 3d 1d 1a b6 be
       0.1289755 0.16223262 0.043556035 -0.35566798
0001c0 0b 29 a1 3e e3 63 06 3d f1 04 9c 3d 4a 09 89 3d
       0.31476626 0.032810103 0.0761813 0.06691225
0001d0 9f e6 65 be af b3 01 3d 32 17 f1 bd c3 28 7b bd
       -0.22451256 0.0316655 -0.11772002 -0.06131817
0001e0 58 ef ff bd 58 04 4e 3c b7 76 bc 3d 81 84 e8 bd
       -0.12496823 0.012574278 0.092023306 -0.11353398
0001f0 9c 4a 8d 3d 94 bc 07 3f 79 01 e0 be e0 65 23 bd
       0.06898996 0.5302212 -0.43751124 -0.039892077
000200 dd 0d e7 3d 3c a5 2f be 4e 94 0f 3e e8 5f eb 3d
       0.11281941 -0.17152876 0.14021417 0.11492902
000210 0f f4 04 3d d4 81 77 3d 8e 31 c9 bd 34 d6 5d 3e
       0.032459315 0.060426548 -0.09823905 0.21663743
000220 25 f0 b0 bc 05 a2 2d bc c5 25 13 be cf e5 d4 bc
       -0.021598885 -0.0105977105 -0.14369877 -0.025988488
000230 7c de 84 3c d2 83 02 3d 6e e4 c4 bd d4 87 db bd
       0.01621937 0.031863995 -0.09613882 -0.107192665
000240 6b 0e 12 be a3 37 1a 3d 85 03 4a be 25 29 48 3d
       -0.14263313 0.037650716 -0.19727905 0.048867363
000250 ba b4 d7 3d e4 de 8e 3d 1b a9 48 3d 92 d5 c5 be
       0.10532518 0.06976107 0.048989397 -0.38639504
000260 9e 84 06 3e 65 60 03 3e 7f fc e9 3c eb 4b e2 3d
       0.13136527 0.1282974 0.028562782 0.110496365
000270 74 5c bd be 77 28 a5 bc d3 62 2e bd bc 85 c0 bc
       -0.369846 -0.020160897 -0.042574715 -0.02350127
000280 07 b8 4c 3e 2a 74 2e bd a6 13 40 3d c1 53 dc 3c
       0.19992076 -0.04259125 0.04689374 0.026895406
000290 54 0c 9a bd 70 54 7c bd 20 04 90 3d 06 b3 63 3e
       -0.07521883 -0.061603963 0.07032037 0.22236261
0002a0 11 29 24 bf f9 6f a9 3e ad 7e d6 bc 6e 65 ab bd
       -0.6412516 0.3309324 -0.02618345 -0.083689556
0002b0 80 60 37 bd 73 1e 8b be 1e 78 8b 3e 2e b6 9a 3d
       -0.044769764 -0.27171668 0.2724008 0.07554279
0002c0 89 ea 05 3c 1f 0d 3c 3e 5f 23 ef bd 2b 1f 37 be
       0.008173593 0.1836438 -0.116766684 -0.17882983
0002d0 8e c6 e4 3d 36 aa b4 bc af f6 70 bd 3c 93 08 be
       0.11170684 -0.02205382 -0.058829006 -0.13337415
0002e0 2a 43 c5 3d 7d 5c a6 bd 50 ec 82 3d 4a cd b5 bd
       0.09631951 -0.081231095 0.06392729 -0.088770464
0002f0 1e 81 7d bd f3 97 4f 3e ca 96 64 be cc 83 f5 b9
       -0.061890714 0.20272808 -0.22323146 -0.00046828238
000300 fe e4 35 bd b5 6c c1 3d b9 5f 91 3e 3e a3 c1 bd
       -0.044407837 0.09444562 0.28393343 -0.09454964
000310 6b f7 2e 3d 3f ea 8b 3d 9c f4 31 bd 99 dd 48 3e
       0.042716425 0.06831788 -0.04344617 0.19615783
000320 7e e7 33 bd de c5 a1 3d e7 cf 28 bd d3 1e 66 bd
       -0.04392194 0.07899068 -0.041213896 -0.05618174
000330 63 e4 a0 bd 96 e0 d0 bd f2 52 a4 3c ff f7 4d bd
       -0.07856061 -0.10199086 0.020059083 -0.050285336
000340 d2 26 b5 3c f8 51 14 bd e1 83 8f bd 3a c9 56 3d
       0.022113238 -0.036210984 -0.07007576 0.052438
000350 e8 8e 02 bd dc c2 fd bc 43 e2 65 be 07 6e 94 be
       -0.031874567 -0.030976705 -0.22449593 -0.28990194
000360 65 07 55 3d 1b 46 97 bb 0f 11 1e bd 53 e2 f4 be
       0.052009005 -0.0046165115 -0.038590487 -0.47828922
000370 ce 33 e6 3d 86 c1 e3 3c b0 68 09 3d 1c a7 f4 3d
       0.1124035 0.02780224 0.033547103 0.11945936
000380 e6 0d 11 be bf af 84 bc 1c 86 85 3d 9e 59 95 3d
       -0.14165458 -0.016197084 0.0651972 0.07292484
000390 67 99 2d be bb a5 89 3d e9 f6 4d be 03 c7 50 bd
       -0.1695305 0.06721064 -0.2011372 -0.050971042
0003a0 cc 64 e8 bc 81 c5 f0 3c a4 a2 a7 3c 13 cf ea be
       -0.028368376 0.029391052 0.020463295 -0.4586111
0003b0 dc ed b9 3c 6e f1 c0 3c b4 3a 56 bd 52 08 98 be
       0.022696428 0.023552623 -0.052302077 -0.29693848
0003c0 f7 87 39 3c 67 18 06 3d da 66 99 bd 98 92 c1 bb
       0.01132392 0.032738116 -0.074903205 -0.005907368
0003d0 b0 04 16 3e 30 9e cf 3e 0e 57 98 bc 57 bb 30 3e
       0.14650226 0.40550375 -0.018596198 0.17258964
0003e0 cc 90 b9 be 5a 3d be 3e d4 6a 2a 3e f7 13 25 3e
       -0.36243284 0.37156183 0.16642314 0.16120897
0003f0 4d e3 84 bd c1 20 c9 bd a2 6f 64 3e d7 7f ab bc
       -0.06488667 -0.098207004 0.2230821 -0.020934982

convs.0.block2.0.bias f4 [16]
000000 b7 f6 69 3d b7 13 95 3d 21 ec 17 bd 78 27 08 3c
       0.05712005 0.07279151 -0.037090424 0.008310191
000010 56 9f e2 3d 59 d0 fe 3d 66 c3 ec bd 57 a0 e5 3d
       0.11065547 0.12442083 -0.11560707 0.11212223
000020 59 2f d7 3d 2c 86 0e 3c a4 b4 83 3d dd c8 c2 3d
       0.10507078 0.008698981 0.06430939 0.09510968
000030 09 b6 66 bd 6e d1 39 3a 16 bf 16 be ac 29 c1 3d
       -0.056325946 0.00070883974 -0.14721331 0.094317764

convs.0.block2.1.weight f4 [16]
000000 1e ab bf 40 1f e2 bf 40 aa 10 c1 40 a1 24 bf 40
       5.9896383 5.9963527 6.033284 5.9732213
000010 8e c0 bf 40 8b 9f c0 40 7c 96 c0 40 2c 62 c2 40
       5.992255 6.0194755 6.0183697 6.074484
000020 69 3e c3 40 ff 8c c2 40 ea d6 bf 40 28 91 c0 40
       6.1013684 6.0797114 5.9949846 6.0177193
000030 12 5d c1 40 2b 3c be 40 c6 ab c1 40 37 fe c3 40
       6.042611 5.9448447 6.0522184 6.124782

convs.0.block2.1.bias f4 [16]
000000 e7 f2 a8 40 3e 6e aa 40 4b f6 a8 40 57 55 ab 40
       5.279651 5.3259573 5.280065 5.3541675
000010 1d 86 aa 40 99 d4 a9 40 13 2a a8 40 90 0d ab 40
       5.3288713 5.307202 5.255136 5.3454056
000020 93 06 ab 40 dc 6f a8 40 fe 88 aa 40 39 02 ab 40
       5.3445525 5.2636547 5.3292227 5.3440213
000030 25 f7 a9 40 4b a0 a9 40 86 d4 aa 40 d5 50 ab 40
       5.311419 5.300817 5.338443 5.353617

convs.0.block2.1.running_mean f4 [16]
000000 e1 1d f3 3f 4b 5b 9b c1 a3 db 15 c0 a8 c8 94 c0
       1.8993493 -19.419577 -2.3415306 -4.649494
000010 f5 bc de 3e 96 93 8e c1 b8 a5 23 41 02 be 1e bf
       0.43503538 -17.822063 10.227959 -0.6200868
000020 0b c6 bb bf 1f b5 1f 41 c5 c1 3e c1 2e 70 86 c1
       -1.4669813 9.981719 -11.922307 -16.804775
000030 f3 af cc c0 75 c6 2a c0 8b e6 92 c1 ae 54 76 41
       -6.396478 -2.6683629 -18.36257 15.395674

convs.0.block2.1.running_var f4 [16]
000000 33 55 7e 42 0f ec 74 42 46 c4 02 42 19 09 1e 42
       63.583202 61.230526 32.691673 39.508884
000010 02 0e 1a 42 b3 13 5b 42 4b 85 18 42 58 aa 0f 42
       38.51368 54.769238 38.13017 35.91635
000020 d7 dc f5 41 cd a7 16 42 a6 a5 69 42 c2 e8 52 42
       30.732832 37.663868 58.411766 52.727303
000030 51 82 28 42 52 a2 1d 42 88 ff 61 42 f0 19 49 42
       42.127262 39.408516 56.499542 50.27533

convs.1.block1.0.weight f4 [8, 1, 3]
000000 f9 55 6b bd 59 f2 e1 3e 49 96 d9 be 4a c4 4c be
       -0.057455037 0.4413021 -0.4249747 -0.19996753
000010 a5 e6 10 3f 9e b5 d2 be 34 e4 aa 3e 41 39 17 bf
       0.56601936 -0.41154188 0.3337723 -0.5907174
000020 6c c1 ac 3e e7 17 de 3e 92 58 12 bf 6a 55 34 3e
       0.3374132 0.4337761 -0.571664 0.17610708
000030 08 1f 69 be 47 e7 de 3e fb dc 6c be dc f8 c3 be
       -0.22765744 0.43535826 -0.23131172 -0.38275802
000040 c7 51 2b 3f 62 f5 a8 be 0b ca 9e be 67 81 ae be
       0.6692166 -0.32999712 -0.31013522 -0.340831
000050 ae fb e9 3e 4f 5f 47 be 46 e6 b6 3e 88 97 3c be
       0.4569983 -0.19469951 0.3572256 -0.1841718

convs.1.block1.0.bias f4 [8]
000000 14 e4 cc 3e b0 ba b3 be 9b 13 d0 3e 22 67 21 3f
       0.4001776 -0.3510337 0.40639958 0.63047993
000010 67 cb 6a 3e 4f 3e 88 3d 84 f2 38 3d fc 74 1d bf
       0.22929154 0.066525094 0.045153156 -0.6150663

convs.1.block1.1.weight f4 [8]
000000 cb 43 b4 40 0c de ba 40 06 b3 b3 40 32 51 ab 40
       5.6332755 5.8396053 5.6156034 5.3536615
000010 ca fc bf 40 ee 9e c0 40 5d 9a ac 40 33 c4 bf 40
       5.999608 6.0194006 5.393843 5.9927

convs.1.block1.1.bias f4 [8]
000000 08 fc a6 40 a8 56 a8 40 ed cd ab 40 6b fc aa 40
       5.2182655 5.260578 5.3688874 5.3433127
000010 ca 3a a9 40 0e df a7 40 ea 64 a8 40 86 a6 a9 40
       5.2884264 5.2459784 5.2623186 5.3015776

convs.1.block1.1.running_mean f4 [8]
000000 aa e8 d1 3e 2f 92 ad be 9e 15 e9 3e 9a f5 23 3f
       0.4099782 -0.33900592 0.45524305 0.64046633
000010 8e 86 6b 3e a1 5d 9a 3d 79 d6 ee bd e3 b6 1e bf
       0.23000547 0.075373895 -0.11662001 -0.61997813

convs.1.block1.1.running_var f4 [8]
000000 c9 59 41 3b e9 4f b3 3b 46 dd 32 3c b2 7b 86 3c
       0.002950298 0.0054721725 0.0109170135 0.016416404
000010 d6 0c ab 3b a3 85 60 3c 3e e0 5f 3c e6 b5 75 3b
       0.005220036 0.0137037365 0.013664303 0.0037492453

convs.1.block2.0.weight f4 [16, 8, 5]
000000 3a fb d8 bc 46 8d c0 3c 1c 56 2a bd 04 33 24 3e
       -0.026486982 0.023504864 -0.041586027 0.16035086
000010 6a 20 0e be 26 55 81 be e1 a1 ff bc 09 7e df 3d
       -0.13879552 -0.25260276 -0.03120512 0.10912711
000020 eb 84 94 3d 00 78 a4 be 0b 0e 89 3d d6 08 8b 3d
       0.072519146 -0.32122803 0.066921316 0.06788795
000030 4f db ea 3b ba 26 b8 bc 21 01 e0 3d 1c 42 99 3d
       0.007167257 -0.022479404 0.10937715 0.074833125
000040 2d 2c a7 3d 39 3a b9 bd 82 b6 5e be 00 ab 28 be
       0.08162723 -0.09044308 -0.21749309 -0.16471481
000050 b6 44 8e be 1a af 8f bd 8a 57 92 bd 31 1d 88 bd
       -0.27786797 -0.0701582 -0.07145603 -0.06646193
000060 89 f8 8e be 50 58 8f be b4 c2 50 3d 4b 8c 66 bc
       -0.27923992 -0.27997065 0.050966933 -0.014071534
000070 7a a8 e4 bc 85 ba ac be 99 92 41 be e5 06 82 3c
       -0.027912367 -0.33736053 -0.18903579 0.015872428
000080 18 6c 93 3d 0c 13 78 bc 66 a6 35 3d e1 be 7d be
       0.071983516 -0.01514126 0.044348143 -0.24779846
000090 b0 ef 30 3e 71 05 cb 3d 44 90 35 bc e5 06 6e be
       0.17278934 0.09913147 -0.011081759 -0.23244818
0000a0 a6 32 3e 3e 61 28 f4 3c 43 a8 a1 bd fc de 16 bf
       0.18574008 0.02980441 -0.078934215 -0.58934
0000b0 6f b5 04 bf 93 94 8c bd 63 b4 47 bd 53 98 db 3d
       -0.51839346 -0.06864276 -0.048756015 0.10722413
0000c0 e9 29 5f be 83 da a4 bd 98 62 df 3d 5a a5 09 be
       -0.21793331 -0.0804949 0.10907477 -0.13441983
0000d0 f4 da 0a be aa 74 41 be b6 aa 3f be 8d 3a 39 3e
       -0.13560086 -0.1889216 -0.18717465 0.18088742
0000e0 ec df a9 be d0 97 b2 bd bd 46 8b 3e 34 bf f8 3e
       -0.3317865 -0.08720362 0.27202407 0.48583376
0000f0 7f b4 7d 3c e7 da 98 bd 4c 9b 89 3c 43 56 3c bd
       0.015484928 -0.07463627 0.016797684 -0.045980703
000100 06 be bd 3b 1a 19 38 bd c0 e3 95 bc f6 98 23 3d
       0.005790475 -0.044945814 -0.018297076 0.039940797
000110 28 96 df 3c c5 a5 d3 bd cd 1d af 3d 22 20 61 be
       0.02729328 -0.103343524 0.08550606 -0.21984914
000120 fa dd dd bd 43 01 98 be ba 64 d5 bd 73 35 04 bd
       -0.10833354 -0.29688463 -0.10419603 -0.032277536
000130 67 b3 13 be b6 06 ee 3c a0 b4 22 3e 6f 93 78 3d
       -0.14423905 0.029055934 0.15889215 0.06068748
000140 9c d0 96 3d 2e 1d 43 ba 27 08 0f bd 7e 2f 00 bf
       0.07364008 -0.0007443008 -0.034919884 -0.5007247
000150 0f 8e a2 be 9d 20 a3 bd 3b 28 c3 bd 49 e7 b9 3d
       -0.31749007 -0.07965205 -0.09529158 0.09077317
000160 ee a8 9c be db 66 be be 22 b3 1a be 92 00 50 bd
       -0.30597633 -0.37187847 -0.15107396 -0.050781794
000170 30 36 37 be 24 4d 2a be aa d0 3f be 54 eb 49 be
       -0.17891765 -0.1663099 -0.18731943 -0.19718677
000180 76 26 1f be 53 be 11 3d e5 c7 ef 3d 2c 70 03 3f
       -0.15542015 0.035581898 0.11708049 0.51343036
000190 e3 f1 17 be de 05 04 3e dc be a9 bb 58 a2 8d bd
       -0.14838366 0.12892863 -0.005180223 -0.0691573
0001a0 a3 e3 37 3c 6f b7 10 be d7 0b 18 be 2d 39 c1 bd
       0.011223706 -0.14132474 -0.14848267 -0.094347335
0001b0 51 b4 87 3d ad 01 a3 3d 32 c1 de bd e8 2c 03 be
       0.066261895 0.07959304 -0.10876693 -0.12810099
0001c0 f8 90 5b bd 80 e7 c1 be 0d 03 9d bd 79 95 64 bc
       -0.05360505 -0.37871933 -0.076665975 -0.013951653
0001d0 b4 c9 10 bc 31 ac 91 3a f5 92 e7 3d 5f 82 1a bd
       -0.008837152 0.0011113939 0.11307327 -0.037721988
0001e0 a5 14 f0 3e 32 f7 02 3e d1 23 90 3d c2 ee 11 bf
       0.4689075 0.1278961 0.070380814 -0.5700494
0001f0 18 24 b4 bc 81 0e 0b be 70 85 28 bd e6 b1 ce 3d
       -0.021989867 -0.13579752 -0.04114288 0.10092525
000200 f0 f1 3d be aa 5a 60 3c da 16 51 3e 79 30 c3 3d
       -0.18549323 0.013693491 0.20418873 0.0953073
000210 7a 03 2b bd cb 75 86 bd d6 a6 23 bd ef 8c 1d 3e
       -0.041751362 -0.06565436 -0.03995403 0.15385793
000220 51 69 22 bf 96 b7 74 3d f9 31 32 3e 0e 62 e3 3e
       -0.6344195 0.059745394 0.17401876 0.44410747
000230 a2 3c 8e bc ce 65 37 bd 47 8a 66 3d c0 d3 cc 3d
       -0.017362896 -0.044774823 0.056284215 0.100013256
000240 bc f7 e5 bd 61 4d 06 be 37 2a 75 be d4 a2 55 bd
       -0.11228892 -0.13115455 -0.23941885 -0.052157238
000250 2f cd fe 3d ec 5a 4d 3d a2 3a 63 3e 60 82 52 be
       0.124414794 0.050135538 0.22190335 -0.20557547
000260 1f 8a e1 3c 0c be b0 be 8e 68 47 3e 59 35 27 bc
       0.027531682 -0.34519994 0.19473478 -0.01020559
000270 d8 39 14 be da 24 2e 3b 4c 8f b9 bc c3 02 43 3d
       -0.1447519 0.0026572258 -0.022651337 0.047610056
000280 c5 c7 86 3b 23 43 db bc 41 e2 b7 bd 42 ec 35 be
       0.00411317 -0.026765412 -0.089787014 -0.17765906
000290 ed 96 ec be 82 0d 61 bd 8c fb c1 3c f2 96 21 3d
       -0.46208897 -0.054944523 0.023679517 0.039450593
0002a0 ee 09 14 be 8d 37 a8 be 64 24 d5 bc d2 6b e2 bb
       -0.14456913 -0.32854882 -0.026018329 -0.006909826
0002b0 7f 12 12 be d3 58 c1 bd b2 b0 94 be 15 08 a2 be
       -0.14264868 -0.0944077 -0.29041058 -0.3164679
0002c0 6b 90 84 bd a1 c9 07 3e ed 5b 3e 3e 91 bd b4 3e
       -0.06472858 0.13260509 0.18589754 0.35300878
0002d0 1d 4a 86 be d4 df 99 bd ee a5 db bc de ba 86 3b
       -0.2622842 -0.07513395 -0.02681252 0.004111632
0002e0 a6 7d 8d 3d d8 6e 29 be d9 8e 78 be 5d ca 11 be
       0.06908731 -0.1654619 -0.24273242 -0.14237352
0002f0 19 71 97 3d 5a 21 bc bc 0f 21 6d be 96 5a 86 bd
       0.073946185 -0.022965122 -0.23157142 -0.06560247
000300 e4 22 83 bd 66 d2 dd bd e0 ee b9 be cd 87 af bd
       -0.06403139 -0.10831146 -0.3631506 -0.08570824
000310 e6 23 00 3e 94 fb 57 3d 79 59 d2 bc 15 0d ec bc
       0.12513694 0.052730158 -0.02567743 -0.028814832
000320 6f f1 c4 3e 58 36 70 3e b4 c3 12 3e 83 1e 0a bf
       0.3846545 0.2345823 0.14332467 -0.5395281
000330 79 9c 57 bc 61 e6 0f bd 62 c6 02 bd 2d 9e 0f bd
       -0.013159865 -0.035131816 -0.031927474 -0.035062958
000340 3d 9b 0e be fc e7 04 39 31 e4 41 3e 56 bd 35 3d
       -0.13926406 0.00012674922 0.18934704 0.044370018
000350 06 57 94 bd 83 b1 28 be be cf 0f 3e 1b d8 66 bd
       -0.07243161 -0.16473965 0.14044091 -0.056358438
000360 01 db 32 bf bc 7f 29 3e 57 a8 26 3e 3b 99 d4 3e
       -0.69865423 0.16552633 0.16275154 0.41523156
000370 db 89 22 be fa 6e 39 be 11 78 58 bd ba f5 67 3d
       -0.158729 -0.1810874 -0.05284888 0.056630827
000380 c0 3b 06 bd 80 89 b2 bd f6 27 89 be b8 3a 5e 3d
       -0.032771826 -0.08717632 -0.267883 0.054255217
000390 b3 aa 0a 3d 5d ac 81 bd 50 04 c5 3d 22 d9 82 bd
       0.033854198 -0.06331704 0.09619963 -0.06389071
0003a0 b8 8f db 3c 81 d6 d4 be e7 5d 82 3d 40 7f a6 bd
       0.026801929 -0.41569903 0.06365567 -0.0812974
0003b0 e8 2d 3e be 1e e4 c2 bc f5 50 a7 3d 88 b6 dc 3d
       -0.185722 -0.023790415 0.08169738 0.107770026
0003c0 47 94 a8 3e 63 a3 0b 3d 82 b1 83 bd cc f5 ef bd
       0.32925627 0.034091365 -0.06430341 -0.11716804
0003d0 f5 95 1b bf fe 8c 2c bc 7e b2 06 3d d6 9a 09 bd
       -0.6077569 -0.010531662 0.032885067 -0.03359493
0003e0 f4 64 a8 bd 0d 70 92 be 83 28 42 3e 02 da e1 bd
       -0.0822238 -0.28601113 0.18960766 -0.1102791
0003f0 c3 94 2c bd 7b f6 85 bd 38 ea 85 be dc 92 72 3e
       -0.042134058 -0.06541153 -0.26155257 0.23688835

convs.1.block2.0.bias f4 [16]
000000 2b c8 09 be e4 f1 fd bd 42 a8 bd 3b ec 0f 6c 3c
       -0.13455264 -0.123996526 0.00578788 0.014408093
000010 09 cb ae bc b7 5c 12 3d 5c bc 1b 3d 18 fd 43 be
       -0.02133705 0.03573295 0.03802143 -0.19139516
000020 86 2d fb 3d c5 e4 29 3e 12 48 4d 3d e1 a2 88 bd
       0.12264542 0.16591175 0.05011756 -0.06671692
000030 ee b8 d2 bd 7f 6d 93 bd 61 4e 3c bd 2b be d6 3d
       -0.10289179 -0.07198619 -0.045973185 0.104854904

convs.1.block2.1.weight f4 [16]
000000 4a ea c0 40 0c f6 c5 40 c9 c0 c4 40 c1 2e c6 40
       6.0285997 6.186285 6.1485333 6.1932073
000010 47 e1 c3 40 23 cb c4 40 c5 42 c5 40 96 f0 c5 40
       6.1212497 6.149797 6.1644006 6.1856184
000020 f9 6b c1 40 2a a0 c7 40 76 ef c5 40 f1 d8 c3 40
       6.0444303 6.2383013 6.185481 6.120232
000030 e8 b7 c4 40 6d 56 c4 40 fd a3 c6 40 ac aa c5 40
       6.1474495 6.13555 6.207518 6.177084

convs.1.block2.1.bias f4 [16]
000000 37 a5 ac 40 73 d3 a8 40 20 53 a8 40 9f 7d a9 40
       5.395168 5.2758117 5.260147 5.2965846
000010 bc f1 ac 40 06 a1 ac 40 ad 1e aa 40 fa 65 a8 40
       5.4045086 5.394656 5.3162446 5.2624483
000020 b9 8d ac 40 66 29 ac 40 78 a3 a9 40 36 0d a8 40
       5.3923 5.3800535 5.3012047 5.2516127
000030 d7 a7 ae 40 75 73 a9 40 2f 2e a9 40 9a aa a9 40
       5.4579883 5.295344 5.2868876 5.3020754

convs.1.block2.1.running_mean f4 [16]
000000 0e 3b 4f c1 50 a7 7c c1 53 8a a8 c1 5b 2b 8a c0
       -12.951918 -15.790848 -21.067541 -4.3177924
000010 38 27 a5 c1 1e 1f 0c c1 bc 23 22 c1 2e f0 4d c1
       -20.64415 -8.757597 -10.133724 -12.871138
000020 05 77 9c c1 60 53 9a c0 9a 4b 9d c0 8e 8f ac c1
       -19.558115 -4.8226776 -4.9154787 -21.570095
000030 88 4a 04 c1 03 56 84 c1 ab 6e aa c1 72 44 3e c1
       -8.268196 -16.541998 -21.304037 -11.89171

convs.1.block2.1.running_var f4 [16]
000000 d6 da 0b 43 d9 fb 27 42 8b b1 04 42 79 ad 83 42
       139.85483 41.995945 33.17338 65.83881
000010 9b c1 4e 42 89 20 5a 42 17 02 68 42 28 72 28 42
       51.689068 54.531773 58.00204 42.11148
000020 81 15 35 42 e0 d0 9d 42 80 4d 83 42 f5 4b 09 42
       45.271 78.90796 65.65137 34.324177
000030 0f e3 4b 42 e4 8c 46 42 60 8e 0f 42 fe 5c 2c 42
       50.971737 49.63759 35.889038 43.090813

convs.2.block1.0.weight f4 [8, 1, 3]
000000 e6 9e 5c 3e 3d 93 d5 be cc 41 3e 3e 72 f7 0d 3f
       0.2154499 -0.41713896 0.18579787 0.55455697
000010 fb 1c 02 bf 20 19 d7 bd e9 68 6d 3e a3 35 e3 be
       -0.5082547 -0.10502839 0.23184551 -0.4437686
000020 e1 ca 79 3e 75 69 92 3e c2 6a fd be 0c 56 81 3e
       0.24393798 0.28596082 -0.49495512 0.2526096
000030 ee 23 d6 be 9f 84 1d 3f 9c 2f 7d be 11 f4 8b 3e
       -0.41824287 0.6153049 -0.24725193 0.27334645
000040 0b 08 0e bf 9d 2e 92 3e 3b 2e 89 be 71 e8 cb 3e
       -0.5548102 0.28551188 -0.26793084 0.39825776
000050 77 d1 29 be 96 90 b3 3e 76 eb b8 3e de f5 39 bf
       -0.16583811 0.35071248 0.36117142 -0.7264079

convs.2.block1.0.bias f4 [8]
000000 85 9c f3 be d6 67 e3 3e 4a d9 40 be 34 0e e1 be
       -0.47580352 0.44415158 -0.18832889 -0.4395615
000010 32 3d 96 be 6a ff 8e be 83 76 ac 3e 37 8d 95 3e
       -0.29343563 -0.2792924 0.33684167 0.292093

convs.2.block1.1.weight f4 [8]
000000 77 37 bb 40 98 d6 b5 40 ed ee bc 40 46 fa c0 40
       5.8505206 5.6824455 5.9041657 6.030551
000010 68 4e be 40 d4 80 bb 40 42 78 b9 40 e9 42 b8 40
       5.947071 5.859476 5.79593 5.7581677

convs.2.block1.1.bias f4 [8]
000000 19 8c a8 40 f0 45 a8 40 14 82 aa 40 54 6e a8 40
       5.267102 5.2585373 5.3283787 5.263468
000010 31 5b a5 40 35 b0 aa 40 0a 99 a9 40 70 ce a8 40
       5.167382 5.3340096 5.2999315 5.2752

convs.2.block1.1.running_mean f4 [8]
000000 60 ca 07 bf 95 40 9f 3e 27 1d 25 be 75 de c8 be
       -0.53043175 0.3110396 -0.16124402 -0.3923222
000010 ca a7 af be 16 64 9d be fc 2e 99 3e 4e d1 95 3e
       -0.343077 -0.30740422 0.2991866 0.2926125

convs.2.block1.1.running_var f4 [8]
000000 20 a1 37 3c 32 8b 4e 3d 3c e1 79 3c 4e 0d a4 3c
       0.011207849 0.050425716 0.015251454 0.020025875
000010 8b 0c 0a 3d 20 1d ad 3c fc 88 67 3c 39 fc b4 3d
       0.03370337 0.021132052 0.014131781 0.0883717

convs.2.block2.0.weight f4 [16, 8, 5]
000000 23 84 ff 3d a0 63 b4 3c 53 00 14 be 75 53 02 be
       0.12476375 0.022020161 -0.14453249 -0.12727149
000010 71 5a 49 be 61 98 3c be 44 7e ab bd c9 b9 4a 3d
       -0.19663407 -0.18417503 -0.08373693 0.049493585
000020 61 0c c7 bb a0 44 67 bd 51 f5 0f 3e 54 86 37 3e
       -0.0060744737 -0.05646193 0.14058425 0.17922336
000030 b3 83 be 3d 33 50 bb 3d e2 c9 13 3f 93 40 88 3d
       0.093024634 0.09146156 0.57729924 0.066529416
000040 af 1e 13 3e f8 b4 96 3d cb c6 54 3d bd 5f 55 3e
       0.14367174 0.07358736 0.051947396 0.20837303
000050 1b 12 55 be 95 46 83 bc e5 58 bb bd a4 8d 1e 3e
       -0.20807688 -0.016024867 -0.09147815 0.15483719
000060 6e 6e bc bd 72 52 86 3c 8f fb ca bc be 26 b0 3d
       -0.0920075 0.016396735 -0.024778156 0.086011395
000070 2c 6c 1e bd 9c ca 2f be b5 0c ce be 9e 44 d0 bc
       -0.03867738 -0.17167133 -0.4024407 -0.025423344
000080 59 c8 57 3c 56 6a 30 bd a9 81 1b bd b5 68 4f 3d
       0.013170325 -0.04307016 -0.03796545 0.050636966
000090 75 5c 15 bd 1b 02 49 bc b3 6f dc bd 96 c3 f6 be
       -0.036465127 -0.012268568 -0.107634924 -0.48196095
0000a0 5b 2f 73 3d a6 14 93 bd 12 d9 42 bc 17 db 16 bd
       0.059371334 -0.07181673 -0.011892574 -0.036830034
0000b0 bd 16 ec bd b8 d5 ae be b6 16 84 bd 19 30 a9 bc
       -0.115277745 -0.3414743 -0.06449644 -0.020652818
0000c0 c9 68 d4 3d 7e 04 14 3e a5 4f a3 3d 73 89 d8 3c
       0.10371549 0.14454839 0.07974175 0.026432728
0000d0 5f 8e 92 3d d9 de ec 3e b0 cd 47 bd 75 dc 50 3e
       0.071560614 0.4626377 -0.048780143 0.20396598
0000e0 62 d3 72 bc 4c c8 34 3d 8d 88 5c 3e 47 cd 3a 3d
       -0.014820905 0.04413633 0.21536465 0.045605924
0000f0 dc 47 c8 be 82 8d b7 bd 99 b6 d8 3c b1 3c 2f be
       -0.39117324 -0.08962537 0.026454257 -0.17112996
000100 7f ea 18 be 00 b9 0d 3e e2 62 ee 3d ad 5c 42 bd
       -0.14933203 0.13840103 0.11639954 -0.047451664
000110 07 a3 3e be f7 e6 90 3e 02 9e 8c be b6 83 31 3d
       -0.18616877 0.28301212 -0.274643 0.0433385
000120 32 1f ee 3c ab 0d ea 3c 55 c5 cd 3d 46 7b 7d 3e
       0.02906761 0.02857097 0.10047404 0.24754056
000130 11 bd 48 3c 45 51 42 bd 52 72 f1 be e3 70 5b bd
       0.012252108 -0.047440786 -0.47157532 -0.053574454
000140 35 5b b5 3e b7 4e 1e bd 99 bb 65 bd 09 47 56 bd
       0.35421148 -0.038649287 -0.05608711 -0.05231384
000150 8b 22 f4 bd c3 12 fb bd d7 f9 89 be 21 22 4e 3d
       -0.11920651 -0.12259438 -0.26948425 0.050325517
000160 eb 1a 94 3d 65 7a 33 3d 2e 4e 3c bd e4 50 6d bd
       0.07231697 0.043817896 -0.045972995 -0.05793847
000170 fc 82 a4 3d 44 5f 18 3f ab 2b f4 3d 3b 59 c8 3d
       0.08032796 0.59520364 0.119223915 0.09782644
000180 ef ee 8b 3e 5d 94 bf 3d f1 42 1b 3e 0d 23 de 3d
       0.2733073 0.0935447 0.15162255 0.10846529
000190 e3 ae a6 3d 27 0a b8 bd 57 50 73 bd b0 b4 6c be
       0.08138826 -0.089863114 -0.05940279 -0.23115802
0001a0 39 20 13 be 5c 73 ca 3d a4 2b 1e 3e ac 00 2f 3d
       -0.1436776 0.09885284 0.15446335 0.04272525
0001b0 41 a0 43 be ed 5c 43 3e 09 d2 e7 bd 77 b6 c5 be
       -0.19104101 0.19078417 -0.11319358 -0.38615772
0001c0 88 23 a8 3d 9d bb 66 3d 4f 2b 8d 3d b0 36 d4 3e
       0.08209902 0.056331266 0.06893026 0.41447973
0001d0 26 c8 7c bd 18 50 01 3d 60 08 f1 be b3 60 fb bc
       -0.061714314 0.031570524 -0.47076702 -0.030685758
0001e0 50 5b 84 3e d3 9f b1 3c 84 91 cc 3d 62 94 f7 bd
       0.25850916 0.021682655 0.099886924 -0.12088849
0001f0 72 7e 5e be 86 86 1a be 8e a4 65 be dc 8d 4d 3d
       -0.21727923 -0.15090379 -0.22426054 0.050184116
000200 04 a4 d1 bc a8 6e 13 3c 24 03 be 3d dd a1 46 3e
       -0.025590904 0.0089985505 0.09277943 0.19397683
000210 1c 2b 92 bc 41 6b 12 3f df 07 08 3f 92 3f e2 bd
       -0.017842822 0.57194906 0.5313701 -0.11047281
000220 11 4c 2d 3c 8f 4f c2 3d 7f ec 43 3e 0b 50 38 3e
       0.010577218 0.09487831 0.19133185 0.17999284
000230 29 93 2f 3d bd 25 cc ba 4a 72 55 bd 80 d9 11 be
       0.042864952 -0.0015575212 -0.052110948 -0.14243126
000240 dd ba 15 be 06 c6 67 3e a5 62 ca 3b 8a 22 39 3d
       -0.14622064 0.22634134 0.00617631 0.045198955
000250 d8 91 53 be 8b e0 dc bd d5 e7 f0 bb a4 c4 95 be
       -0.20661104 -0.10785016 -0.0073518553 -0.29251587
000260 3d e6 62 3d cf b8 13 bd 6d 5d ab bd 93 80 c7 3e
       0.055395354 -0.03606492 -0.08367429 0.38965282
000270 d6 15 bd bc 63 12 9b bd 26 3b b9 be 10 59 b6 be
       -0.023081701 -0.07571866 -0.3617794 -0.35614824
000280 3e 36 20 3e 6c 62 9f 3d 1f d3 1e 3e 50 35 a0 bd
       0.15645692 0.07782444 0.15510224 -0.078226686
000290 13 2a 0a be e6 93 52 3d 33 d5 61 bc 57 56 5e 3d
       -0.13492613 0.05141058 -0.013783741 0.05428156
0002a0 73 c7 df 3d 59 15 31 3e 7c 69 0a 3e 7b 12 2f 3e
       0.10926714 0.172933 0.13516802 0.17096893
0002b0 06 30 0c 3e d4 05 12 3f 0b f6 15 3f 4b 60 06 be
       0.13690194 0.57040143 0.58578557 -0.1312267
0002c0 a9 f4 84 bd c6 39 30 be 43 03 f9 3d 5d cc 89 3d
       -0.06491978 -0.17209539 0.12158825 0.06728432
0002d0 7e e5 bd bd eb 86 71 bd 8c a6 f3 3c 2e 71 04 3d
       -0.09272288 -0.05896656 0.029742502 0.0323345
0002e0 b8 55 41 be c4 a9 d2 bd 15 8d 78 3d e4 6c a7 bd
       -0.18880355 -0.102862865 0.06068142 -0.08175066
0002f0 85 1c a3 be 93 4e 01 be 4f 6d e1 3d 40 d2 c0 3d
       -0.31857696 -0.1262763 0.11007177 0.09415102
000300 13 1b d0 bc 58 63 c5 bd 17 2c 4a 3d a0 c5 06 3c
       -0.025403535 -0.09638089 0.049358454 0.008225828
000310 fd 4a d0 3c f9 7b 6e 3d 25 85 de be 6f 72 e9 be
       0.025426382 0.0582237 -0.43460956 -0.45595118
000320 9b 49 39 3e 54 84 e4 bd e0 d7 0f be 34 da 04 be
       0.18094485 -0.11158052 -0.14047194 -0.12973863
000330 26 36 51 be bc 70 0c be dc 8e 24 be cf 9c 82 3d
       -0.20430812 -0.1371488 -0.16070122 0.06377565
000340 9a 0b 86 3c b8 d0 62 bd 7a 0c ec 3d c8 94 5a 3e
       0.016362954 -0.05537483 0.11525817 0.21345818
000350 d1 7f 97 3c 52 53 19 3d 85 f8 1f 3f 26 1e 03 3b
       0.018493565 0.037432976 0.62488586 0.0020006984
000360 1c 97 55 3e 65 53 da 3d 11 f8 93 3d c9 df 0e 3e
       0.20858425 0.106604375 0.07225049 0.13952555
000370 fe 2a ae be 02 f0 72 bd d7 f5 85 ba 66 07 dd 3d
       -0.34017175 -0.05931092 -0.0010220361 0.10792427
000380 b1 6b 0e be 80 1f 54 bd bf b9 5a 3d 53 c4 ac 3d
       -0.13908269 -0.051787853 0.053399798 0.084358834
000390 a9 ab 20 bd 45 58 17 be 91 64 83 be da 72 8a bc
       -0.039226208 -0.14779766 -0.25662664 -0.016900469
0003a0 9a 4e 8c bd 0c 46 8c 3c 54 b2 79 bd a0 6f de 3c
       -0.068509296 0.017123245 -0.060961083 0.027152836
0003b0 51 fd 92 3c 87 6e 26 bd 7e b7 da bd 6b 86 d9 be
       0.017943056 -0.04063275 -0.106795296 -0.42485365
0003c0 b4 d5 2b 3e 37 f7 b0 3d 59 a1 ae 3d 7a 02 53 bd
       0.1678074 0.086409025 0.085268684 -0.051516034
0003d0 dc e4 b6 bd e0 dc cd 3c 8f 7e 09 bc 70 8a 4d 3d
       -0.0893037 0.025129735 -0.00839199 0.050180852
0003e0 01 94 dc 3d 0a 0b 3e 3e f1 66 3b 3e 64 5a 4d 3e
       0.10770417 0.18558899 0.18300988 0.20054013
0003f0 cc 68 07 3e 4b d5 0a 3f 7e b5 03 3f 09 89 c6 bd
       0.1322357 0.5423171 0.5144881 -0.09694106

convs.2.block2.0.bias f4 [16]
000000 37 55 70 bc c3 87 1b 3e 00 ec c9 bb f3 34 8f bd
       -0.014668754 0.15188508 -0.0061621666 -0.06992521
000010 aa 0c eb 3c c1 22 73 3d dc 25 02 be c4 93 29 3e
       0.028692562 0.059359316 -0.12709755 0.16560274
000020 22 19 f3 3c 61 53 e0 3d b5 bb d6 3c 16 58 c3 3d
       0.02967507 0.10953403 0.026212553 0.095382854
000030 7c 08 a5 be e9 86 33 be 0f bd 68 3e 07 56 a4 bd
       -0.32233036 -0.17531933 0.2272837 -0.08024221

convs.2.block2.1.weight f4 [16]
000000 dd 0d c2 40 ea 01 c2 40 27 87 c4 40 a7 80 c4 40
       6.0641923 6.0627337 6.141498 6.1407046
000010 59 12 c5 40 3f 72 c4 40 ea 91 c5 40 a6 83 bf 40
       6.1584897 6.138946 6.174062 5.9848204
000020 54 08 c2 40 3f a1 c5 40 a9 48 c4 40 fe e4 c4 40
       6.0635166 6.1759334 6.1338696 6.152953
000030 4a 89 c1 40 82 7e c3 40 4f 4f bb 40 bd e3 c2 40
       6.048009 6.109193 5.853431 6.0903

convs.2.block2.1.bias f4 [16]
000000 bd 2e a9 40 8c 67 ae 40 cb a1 ab 40 fc 59 a8 40
       5.2869554 5.45014 5.3635 5.2609844
000010 15 24 ad 40 02 b4 ac 40 32 1c ae 40 41 79 af 40
       5.4106545 5.3969736 5.440942 5.4835515
000020 13 67 a7 40 af cb ab 40 c2 8c a8 40 91 46 aa 40
       5.2313323 5.3686137 5.2671824 5.321114
000030 7b 4d a7 40 18 35 ad 40 eb ca ad 40 1b 11 ad 40
       5.228208 5.412731 5.4310203 5.408338

convs.2.block2.1.running_mean f4 [16]
000000 b6 d3 04 c0 b0 c9 85 be 42 90 aa 40 a6 77 32 40
       -2.0754218 -0.26130438 5.3301096 2.7885528
000010 0c ea 5d 40 1d 5e 3c c0 9d 4a 39 40 de b4 ce be
       3.46741 -2.9432442 2.895179 -0.40372366
000020 33 ca 68 40 27 82 c4 be 8b 2d b4 40 80 b2 e3 c0
       3.6373413 -0.38380548 5.6305594 -7.1155396
000030 ad 30 53 40 90 a1 39 c0 b0 95 16 40 aa e2 89 c0
       3.299846 -2.900486 2.3528862 -4.308919

convs.2.block2.1.running_var f4 [16]
000000 61 1e 13 42 32 ff 2c 42 86 a2 39 42 b8 66 0c 42
       36.779667 43.249214 46.408714 35.10031
000010 2c 94 e3 41 59 4e 0b 42 30 f9 d8 41 e5 ec 54 42
       28.44735 34.82651 27.121674 53.231342
000020 f3 4f 5f 42 3a 1c 46 42 73 ea 4f 42 8e ea 11 42
       55.828075 49.527565 51.978954 36.479057
000030 f9 08 55 42 f2 24 17 42 66 6d 12 42 62 9e 18 42
       53.258762 37.78608 36.606834 38.15467

convs.3.block1.0.weight f4 [8, 1, 3]
000000 6e fa 67 3e 5b e3 b4 be de 75 6c 3e 14 ce 44 3e
       0.22654125 -0.35329708 0.23091838 0.19219238
000010 bf 6f 9d be db f6 4b 3e 6a 75 42 3e 4d 7b 94 be
       -0.30749318 0.19918387 0.18990102 -0.2900032
000020 91 5e 39 3e 29 03 8f 3e 4c ec dd be 21 91 8e 3e
       0.1810248 0.27932099 -0.43344343 0.278451
000030 f1 4d 3c be e7 ad 9d 3e 4d 5c 59 be 13 a0 8b be
       -0.18389107 0.3079674 -0.21226616 -0.27270564
000040 82 a9 ed 3e 3c a0 a1 be a2 23 a3 be c7 5c 0e 3f
       0.46418387 -0.31567562 -0.31863123 0.55610317
000050 6c a4 c4 be a7 f2 81 3e dc 96 c9 be 4a 40 82 3e
       -0.38406694 0.25380442 -0.3937291 0.25439674

convs.3.block1.0.bias f4 [8]
000000 a6 cc 2d be 7b e8 b4 be d5 99 e2 be 2d 6f bd bc
       -0.16972598 -0.3533362 -0.4425799 -0.023124302
000010 74 01 13 bf 3b 01 d6 bc 21 d5 db 3e bd 92 af be
       -0.5742409 -0.026123634 0.42936042 -0.3429164

convs.3.block1.1.weight f4 [8]
000000 8d a9 c4 40 84 26 c4 40 c4 a4 c4 40 1f bc c4 40
       6.145697 6.1297016 6.145113 6.147964
000010 f5 66 c3 40 3b 5b c3 40 28 66 c8 40 fb 45 c4 40
       6.106318 6.1048865 6.2624702 6.1335425

convs.3.block1.1.bias f4 [8]
000000 81 e5 a6 40 77 02 a7 40 df 78 a8 40 12 4f a7 40
       5.2155156 5.219051 5.264755 5.228402
000010 37 d5 a6 40 ad 7b a7 40 9b 25 ab 40 9a f6 a6 40
       5.213527 5.233847 5.3483405 5.2176027

convs.3.block1.1.running_mean f4 [8]
000000 9c 97 2e be 4f 24 b5 be 10 a3 e2 be 50 65 d1 bc
       -0.17050022 -0.35379264 -0.44265032 -0.025561005
000010 a2 e2 12 bf c2 51 e1 bc e1 92 dc 3e 88 20 b0 be
       -0.57377064 -0.027504805 0.4308081 -0.3439982

convs.3.block1.1.running_var f4 [8]
000000 c8 76 43 3e d2 d5 11 3e 3f 6a 02 3e f8 49 92 3e
       0.1908828 0.14241722 0.12735842 0.2857206
000010 a6 b3 13 3e 9c a7 a5 3e a7 77 ed 3e 92 04 72 3e
       0.14423999 0.32354438 0.4638035 0.23634556

convs.3.block2.0.weight f4 [16, 8, 5]
000000 6b 6e 81 3d 71 80 63 bb c0 44 f3 3b f8 3d 88 bd
       0.06319889 -0.0034714008 0.007423967 -0.066524446
000010 7a c8 d4 3d e7 0e e3 bb 66 56 af 3d 4c 71 3f 3e
       0.103898 -0.0069292667 0.08561401 0.18695563
000020 06 7d cc bd 3a 5b 43 3e 59 0f b1 3e b0 ae e9 3d
       -0.09984784 0.19077769 0.34582022 0.11410272
000030 be 32 a3 bc a8 c7 36 bd fa 20 4c 3e 4a 62 4b 3e
       -0.019921657 -0.044624 0.19934455 0.19861713
000040 dc 25 a4 bd d8 1a 05 3e 29 2c 57 3d d8 59 9f 3d
       -0.080150336 0.12998521 0.05253235 0.07780808
000050 e8 34 85 3e e3 7a 4c 3d 9c 62 13 bd fb be e0 3c
       0.26016927 0.04992188 -0.035982713 0.027434817
000060 5d 10 4b 3e 1f 18 86 3e 90 9a 5d bd 51 6a 4b 3c
       0.19830461 0.26190278 -0.05410248 0.0124154845
000070 16 c1 06 bd ee f4 b1 3e 49 4b 6c 3e e1 ab 8c 3d
       -0.032898985 0.3475718 0.23075594 0.06868721
000080 c3 9a 61 bd 90 2b ea 3d ff 57 c5 3e 03 1f 5c 3e
       -0.055079233 0.1143409 0.38543698 0.21496205
000090 be 27 a7 bd 8e f1 55 be b7 b4 8a bc 56 a6 30 3e
       -0.08161877 -0.20892927 -0.016931875 0.17250952
0000a0 5e 46 44 be 50 c7 b6 3c 5f c4 97 3a ad fa 19 3d
       -0.19167468 0.022311836 0.0011578909 0.03759258
0000b0 2e 49 84 bd 9e 55 4b be f5 c8 09 3e 05 35 35 3e
       -0.064592704 -0.19856879 0.13455565 0.17696007
0000c0 f5 a9 a8 bd c1 05 ec bd 37 b0 4d be 2a 17 9e 3c
       -0.08235542 -0.11524535 -0.20086752 0.019298155
0000d0 94 7b 56 bd 7d 46 ae bc c0 76 83 be ab a7 66 be
       -0.052363947 -0.021273846 -0.25676537 -0.22524898
0000e0 b4 1c 71 3d 32 c5 93 3a 99 80 2f 3d a9 21 36 be
       0.058865264 0.0011273979 0.04284725 -0.17786278
0000f0 8a 38 29 be 35 3f 98 bc bd a2 83 3d 87 30 0c be
       -0.16525474 -0.018584827 0.06427524 -0.13690387
000100 03 e5 5b be 05 6e 58 be b8 34 e8 3c b0 ed 78 ba
       -0.2147408 -0.21135719 0.02834545 -0.00094958674
000110 2c 1e f4 bd 30 a3 28 be fd 04 19 be e6 fb 85 bc
       -0.11919817 -0.16468501 -0.14943309 -0.016355466
000120 8f 92 35 3d 96 80 16 bd 4c ff 30 be 36 37 8f be
       0.044329222 -0.036743723 -0.17284888 -0.2797181
000130 a7 f7 05 3e aa 70 a4 3d e7 0d bb 3d 30 45 63 be
       0.13082753 0.080293015 0.09133511 -0.22194362
000140 d9 ff 18 3e f5 ff cd 3c a7 3e db bd 86 2e 40 be
       0.14941348 0.025146464 -0.10705309 -0.18767747
000150 00 53 6e 3e 4d 4f 90 3e 90 f9 8b bd a5 6e af 3d
       0.2327385 0.28185502 -0.0683471 0.08566026
000160 2f 57 ce 3d 4d 82 9e 3d 2a d4 7b 3e 50 b5 88 3d
       0.10075223 0.07739697 0.24592653 0.066752076
000170 b5 83 27 3d 68 78 72 3d c4 13 6c 3e 5e c3 d7 3d
       0.04089709 0.05919686 0.23054415 0.1053531
000180 45 36 50 3a 92 3a f5 bd 49 91 25 be da ac 9b 3d
       0.0007942657 -0.11974062 -0.16168703 0.07601328
000190 86 e6 82 3e 38 4c 72 3d 41 c5 a3 bd 46 2b 69 3c
       0.255665 0.05915472 -0.079966076 0.014231509
0001a0 de df d2 3e 78 26 b6 3e 37 e5 8e 3c bd a1 e6 3d
       0.41186422 0.35576224 0.017443283 0.11261318
0001b0 87 84 59 3d dc a1 b4 3e 8a d2 33 3e fe 5e a5 bb
       0.053104904 0.3527974 0.17560783 -0.0050467243
0001c0 04 47 df bd 0b 21 4e 3d 2c 6b 72 3e c4 a5 79 3d
       -0.10902217 0.05032448 0.23673695 0.060949102
0001d0 b9 fe 94 3c 27 ef 4f 3e b2 d4 d5 3b 43 f5 28 3e
       0.018187867 0.20306073 0.0065255994 0.1649981
0001e0 b5 fb 4f be 03 c9 2e 3d 46 ec 32 3e 84 2b cd 3d
       -0.20310862 0.04267217 0.17472944 0.100180656
0001f0 7f b3 32 be 46 16 71 be 33 b2 f0 bb bd 0d 95 3c
       -0.17451285 -0.23543653 -0.0073454618 0.018195027
000200 76 0c 6f 3d 23 17 c8 bd 3f 11 7e be c4 d6 c2 3d
       0.058361493 -0.09770038 -0.24811266 0.095136195
000210 12 ea d1 3c 6f 1d 11 3c 95 d2 84 be 48 eb f7 bc
       0.025624309 0.008857115 -0.2594191 -0.030263558
000220 49 45 9c 3d 32 30 f8 bc 0d ed 06 be 69 df 19 be
       0.076304026 -0.030296419 -0.13176365 -0.1502663
000230 16 0e b1 bd d8 5f 9c 3d 8f 00 be 3c 30 bc 0d bc
       -0.08645265 0.07635468 0.023193626 -0.008650824
000240 fb 05 47 be 4f 8b 87 be 43 ba f8 bc 49 28 44 bc
       -0.19435875 -0.26473472 -0.030362254 -0.011972495
000250 38 09 2d be 1e b7 8a be 3e 10 24 be da a8 a1 bd
       -0.16898048 -0.27092832 -0.16021821 -0.07893534
000260 db 26 bf 3c 2c ae d5 bd 4e 81 73 be 43 e6 92 be
       0.023333957 -0.10433611 -0.23779795 -0.286913
000270 29 3f 1d 3e 60 77 4c 3c fa c3 4f 3d 31 4c 5e be
       0.15356125 0.012479633 0.050724007 -0.21708752
000280 57 d6 7b be be 23 44 bd 00 4f 03 bd 33 8e 19 bd
       -0.24593483 -0.04788565 -0.032057762 -0.037489127
000290 66 9f 7d 3c 31 90 42 be e5 71 6b 3b 72 ce 1f bd
       0.015479898 -0.19000317 0.003592604 -0.03901524
0002a0 f7 b8 c4 bd 4e 01 ac 3e ad 80 71 bd b6 69 ec bd
       -0.09605592 0.33594745 -0.058960605 -0.115436
0002b0 5b 1f 05 3d cf ca e0 bd 28 c9 2d 3e 0f 66 87 be
       0.032500606 -0.10976183 0.16971266 -0.26445052
0002c0 ed 38 18 be e5 7a 5c 3d f1 f7 0b 3c 4c e9 38 3e
       -0.14865465 0.05382814 0.008543001 0.18057746
0002d0 bb 94 9f be ac 2a 27 3e ec 40 92 bd 4e 48 9e 3b
       -0.3116816 0.16324872 -0.07141289 0.0048303967
0002e0 04 22 2d 3e 17 30 69 be 95 cf 0f 3e 70 77 66 3d
       0.16907507 -0.22772251 0.1404403 0.05626625
0002f0 73 4a 97 bd 45 15 9a 3e 6f c4 63 be 08 fe 12 3e
       -0.07387247 0.30094352 -0.22242902 0.14354718
000300 35 7d 01 be a8 6a 72 bc fa 13 79 3e 02 52 95 bd
       -0.12645419 -0.014795937 0.24324027 -0.072910324
000310 67 d5 01 be 97 91 1d 3e 75 bc 0d 3d 47 cf 17 3e
       -0.12679063 0.1538757 0.034603555 0.14825164
000320 06 df 4d 3e ed c7 25 be 6c 07 1e 3c 75 b1 22 3e
       0.20104608 -0.16189547 0.009645324 0.15888007
000330 17 49 5a be e7 47 bb 3c c9 ab 27 be 02 06 8d 3e
       -0.21316944 0.022861434 -0.16374125 0.27543646
000340 0a 03 85 bd 22 85 19 be d1 0e 8b 3e 73 eb 9a bd
       -0.0649472 -0.14992192 0.27159742 -0.075644396
000350 75 82 e7 3b fa a0 5f 3d 83 5a b2 be 97 8c 42 3d
       0.0070651122 0.05459688 -0.3483468 0.04749736
000360 26 2d 19 3c da 1a 92 3d c2 a9 81 bd da 04 0e be
       0.009349143 0.07134028 -0.06331207 -0.13869038
000370 92 0e 8a 3e 72 d1 4b 3d b2 78 ab bd 73 81 39 3d
       0.2696424 0.04976029 -0.0837263 0.045289468
000380 43 08 94 be ac 1d 45 3e c2 3d 22 be 21 89 86 bd
       -0.28912553 0.192496 -0.15843871 -0.06569124
000390 17 29 82 3c 56 80 06 be 2c 78 b4 3e 58 8f 57 bd
       0.015888734 -0.13134894 0.35247934 -0.052626938
0003a0 99 81 b0 bd 29 4c 59 3d 91 f8 2f be 6e 3e 06 3e
       -0.08618469 0.053051148 -0.17184664 0.13109753
0003b0 5c a8 f1 bd 6b e2 19 bd 88 57 ee 3d c8 77 a5 be
       -0.1179969 -0.037569445 0.11637789 -0.32317948
0003c0 13 b1 a8 be b1 71 ce 3d 71 65 43 bb 8c 67 c1 bc
       -0.32947597 0.10080279 -0.0029815102 -0.023608945
0003d0 af 63 ca bd ff 10 f7 bd 9c ca 67 3d b0 01 f3 3d
       -0.098822944 -0.120637886 0.056589708 0.11865556
0003e0 92 b9 97 bb 66 7a 8f be 4d 05 52 be 9b db 21 3d
       -0.004630276 -0.2802307 -0.20509835 0.039516073
0003f0 7d d0 15 bc ac e6 31 3c 86 51 3a be 77 77 2f be
       -0.009143946 0.010858219 -0.18195161 -0.17135416

convs.3.block2.0.bias f4 [16]
000000 4c 4c 4c 3d 8f e2 7e 3d 8a 11 a5 bd db 39 1e bc
       0.04987745 0.06222778 -0.08059986 -0.0096573485
000010 7f 74 73 bd f2 3c 3a be 2d 34 a7 3d a9 10 5d 3d
       -0.05943727 -0.18187311 0.081642486 0.053970966
000020 6e b4 13 3e 36 25 4a 3d 5b d6 2f 3e 8f 68 2d 3d
       0.14424297 0.049351893 0.17171614 0.042336043
000030 bb b4 e6 bb c0 80 ac bd f5 a4 9f 3c 15 41 09 3e
       -0.0070405877 -0.084229946 0.019487837 0.13403733

convs.3.block2.1.weight f4 [16]
000000 54 c0 be 40 ea fa bf 40 ed 93 bf 40 e5 de be 40
       5.9609776 5.999379 5.9868073 5.964709
000010 af 68 bf 40 11 fb c0 40 2b c6 c0 40 f0 66 c1 40
       5.9815288 6.0306478 6.0241904 6.0438156
000020 00 6a c1 40 af 5a c0 40 ff 8e c0 40 09 4b c0 40
       6.0441895 6.01107 6.0174556 6.0091596
000030 75 f6 bf 40 8e 7a c0 40 da 00 bf 40 e5 b0 be 40
       5.998835 6.0149603 5.968854 5.9590936

convs.3.block2.1.bias f4 [16]
000000 36 f5 a9 40 dc 72 aa 40 9c 12 ab 40 66 66 a9 40
       5.311183 5.326521 5.3460217 5.29375
000010 1f 5b a9 40 05 82 aa 40 b0 1c aa 40 1c 63 a9 40
       5.292373 5.3283715 5.316002 5.2933483
000020 b4 96 aa 40 f3 d9 a9 40 31 1e a9 40 62 da a9 40
       5.3308964 5.307855 5.2849355 5.307908
000030 5d cb a9 40 a9 6e aa 40 be 2c a9 40 93 fd a9 40
       5.3060746 5.3260083 5.2867117 5.312204

convs.3.block2.1.running_mean f4 [16]
000000 89 2a e9 41 78 d4 b4 c1 87 76 f5 41 19 43 c3 c1
       29.14577 -22.603745 30.682875 -24.407763
000010 a3 f2 1a c0 31 c9 a9 c0 92 a9 b0 c1 2f 0a bd c1
       -2.4210594 -5.3058095 -22.082798 -23.629972
000020 e6 dc cc bf 56 04 c2 c1 f6 d6 9c c0 cb ad 43 40
       -1.6004913 -24.252117 -4.9012403 3.0574825
000030 5b ff 8c bf e7 25 c6 bf d8 6d b9 c1 05 57 f1 41
       -1.1015428 -1.5480317 -23.178635 30.16749

convs.3.block2.1.running_var f4 [16]
000000 82 e9 9f 42 29 af a7 42 09 52 b0 42 1f c2 aa 42
       79.95607 83.84211 88.160225 85.37914
000010 12 34 d2 42 8a e8 0c 43 53 47 9b 42 fe e1 aa 42
       105.1017 140.90836 77.639305 85.44139
000020 73 26 01 43 e3 45 ab 42 fe 26 05 43 9d d3 8a 42
       129.15019 85.6365 133.15231 69.41331
000030 3e 58 ea 42 c2 35 db 42 38 ab 9a 42 a8 a9 a8 42
       117.17235 109.604996 77.33441 84.33136

convs.4.block1.0.weight f4 [8, 1, 3]
000000 84 45 85 3e d1 f7 03 bf 15 b7 7d 3e 3a 74 d2 be
       0.260296 -0.5155001 0.24776872 -0.411043
000010 23 10 0c 3f 9c 81 75 be 25 da 7d 3e ee b8 03 bf
       0.5471212 -0.23975223 0.24790247 -0.51454055
000020 26 2b 89 3e 14 17 c0 be 44 85 1b 3f 7e ba ac be
       0.26790732 -0.37517607 0.6075022 -0.33736032
000030 25 f5 49 3e c3 e6 cb be b3 76 64 3e 0e a8 83 3e
       0.19722421 -0.39824495 0.22310905 0.25714153
000040 5a d3 0d bf f9 f5 6f 3e 79 59 a3 3e f9 e7 1b bf
       -0.5540062 0.23433675 0.319042 -0.6090084
000050 37 dd 8f 3e ac 3f e4 3e 7f c6 7a be dc 05 ab be
       0.2809846 0.44579828 -0.24489783 -0.33402908

convs.4.block1.0.bias f4 [8]
000000 18 d3 a1 3c 94 8c ff bd 35 9f 6f be ab 80 be bd
       0.019753978 -0.12477985 -0.23400576 -0.09301885
000010 3e 82 e7 3d 47 a7 fd 3d 0e d6 da 3c 2b 19 e0 3e
       0.113041386 0.12385421 0.026713397 0.43769202

convs.4.block1.1.weight f4 [8]
000000 9b b6 be 40 b6 1c bb 40 b9 ee ba 40 79 05 bf 40
       5.9597907 5.8472548 5.841641 5.969418
000010 41 6f c1 40 33 fe bf 40 84 2d c4 40 16 b1 b7 40
       6.044831 5.99978 6.130556 5.740367

convs.4.block1.1.bias f4 [8]
000000 41 92 a9 40 c1 91 ab 40 af 94 a8 40 71 7f ab 40
       5.2991033 5.361542 5.26815 5.359307
000010 52 b6 aa 40 c1 47 a8 40 1c 70 a9 40 4b b9 aa 40
       5.334756 5.258759 5.294935 5.335119

convs.4.block1.1.running_mean f4 [8]
000000 b8 9c 93 bc c7 54 82 be e6 61 85 be 29 39 63 be
       -0.018019065 -0.25455305 -0.26051253 -0.22189774
000010 6d 9b 01 3e 76 91 bc bb 91 af c0 bc a5 1b 5f 3e
       0.12656946 -0.005754645 -0.023521217 0.2178789

convs.4.block1.1.running_var f4 [8]
000000 2b de 77 3c 57 2d dd 3c 40 51 7b 3c 96 8e f0 3c
       0.015128653 0.026999159 0.015339196 0.029364865
000010 4f 0f 26 3c dc 99 6b 3c 3a 93 ad 3c 68 53 21 3d
       0.010135486 0.014379945 0.021188367 0.039386183
