runs/base_3.pt (torch, 296787 bytes, 63 tensors)

convs.0.block1.0.weight f4 [8, 1, 3]
-0.7811201 -0.16953412 -0.09031058 -0.20867822 0.37112504 -0.22135344 -0.11270809 0.20617992
-0.11533011 0.30245292 0.34681544 -0.5776796 -0.24898608 0.3564428 -0.15075189 0.4034781
-0.43609872 0.39497158 0.26727983 -0.48217225 0.2789345 -0.27998677 0.48005906 -0.25286826
00000000: 7df7 47bf 5a9a 2dbe c1f4 b8bd beaf 55be
00000010: 1a04 be3e 7aaa 62be 80d3 e6bd d420 533e
00000020: 3132 ecbd 1cdb 9a3e cb91 b13e cfe2 13bf
00000030: 35f6 7ebe ac7f b63e b45e 1abe ae94 ce3e
00000040: 5548 dfbe b739 ca3e e7d8 883e 48df f6be
00000050: 81d0 8e3e 6d5a 8fbe 4dca f53e f377 81be

convs.0.block1.0.bias f4 [8]
0.03332736 0.40995896 0.43477976 0.109312296 0.5692033 -0.41489136 -0.30101562 0.2768875
00000000: 4582 083d 24e6 d13e 749b de3e 20df df3d
00000010: 4fb7 113f a46c d4be b81e 9abe 33c4 8d3e

convs.0.block1.1.weight f4 [8]
1.9986389 2.0222015 2.0139513 1.9927903 2.021301 2.0232327 2.0218775 2.0134811
00000000: 66d3 ff3f c06b 0140 94e4 0040 c113 ff3f
00000010: ff5c 0140 a57c 0140 7166 0140 e0dc 0040

convs.0.block1.1.bias f4 [8]
1.0291072 1.0539091 1.0505413 1.0465724 1.0537561 1.036273 1.0553988 1.0503706
00000000: c9b9 833f 7ee6 863f 2378 863f 16f6 853f
00000010: 7be1 863f 98a4 843f 4f17 873f 8b72 863f

convs.0.block1.1.running_mean f4 [8]
-0.565388 0.38710368 0.42814252 0.14317147 0.55820656 -0.21606904 -0.27858767 0.26235652
00000000: 45bd 10bf 7432 c63e 7f35 db3e 8b9b 123e
00000010: a0e6 0e3f 3441 5dbe 0ba3 8ebe 9853 863e

convs.0.block1.1.running_var f4 [8]
0.2780428 0.006036386 0.0016928298 0.052189082 0.004009948 0.03761044 0.009687059 0.008560994
00000000: a05b 8e3e e0cc c53b f1e1 dd3a 38c4 553d
00000010: e265 833b 680d 1a3d 78b6 1e3c 6943 0c3c

convs.0.block2.0.weight f4 [16, 8, 5]
0.030926807 -0.10250745 -0.08948984 -0.0836905 0.012373986 -0.12062098 -0.04968512 -0.029146666
-0.021709036 0.08084211 -0.22036077 0.007084229 0.118691675 0.035314757 -0.009866123 -0.15437092
-0.023608057 -0.019296212 -0.1514167 -0.05369543 0.047588844 -0.072941065 -0.09952979 -0.023935733
0.08876631 -0.114379145 0.02811859 -0.07665498 -0.19602041 0.0647346 -0.12065935 -0.072480366
0.06509354 0.029812474 -0.01758303 -0.10893894 0.13051412 0.028666137 -0.016796425 -0.18015426
-0.08174518 -0.15121545 0.0021660598 -0.0075056297 0.18344828 -0.051306006 0.11292721 -0.034970768
-0.078039244 0.00032194032 0.1678949 0.07982231 -0.071371265 -0.045898348 0.027698223 -0.07344285
-0.03837399 0.05755677 -0.057710554 0.0670424 -0.095834404 -0.022613961 0.15250209 -0.007884905
0.020943644 -0.15263437 -0.2054564 0.12466895 -0.0030046904 0.15682055 0.032815665 -0.06420454
-0.07441693 -0.058335863 -0.007568481 -0.07451733 -0.18076071 -0.0020556184 0.1303699 -0.022675946
0.057119817 -0.17357175 0.03791175 -0.1546715 -0.064410396 0.14622186 0.006465456 0.0982393
-0.112082556 -0.062259257 -0.048444357 -0.128426 -0.09765646 -0.024504596 -0.061257683 0.09775985
0.011231387 -0.054107767 -0.008730284 -0.12491965 0.057123203 0.008132239 -0.011735416 0.08430811
-0.1963772 0.087199874 -0.019197503 -0.059612855 -0.008237112 -0.23753239 0.11516504 -0.1176438
0.061617676 0.0019176265 0.06303192 -0.053364273 0.049859438 0.14559177 0.14387292 -0.045178544
0.18577805 0.019583613 -0.009954129 -0.05217438 0.092256844 -0.029896263 -0.07275308 -0.0726252
-0.06297421 -0.076726444 -0.027044814 0.05912761 0.006211062 -0.21066956 -0.07146674 0.12704518
-0.16321541 0.06426372 -0.05574844 0.16677625 -0.0032326037 -0.10981867 -0.04302838 0.13408287
0.16913685 0.13662332 -0.064174555 0.06491857 -0.09316737 0.021505184 0.019480724 0.00075613335
0.045047 -0.038312268 0.118671946 0.11335714 -0.06010975 0.08505763 0.100286655 -0.03389888
0.019355355 -0.03906645 -0.050491568 0.051422358 0.23031493 0.09144375 0.030460035 0.0050697117
0.006183987 0.10486101 -0.01719261 0.11466458 0.1766286 0.07726461 -0.0110147 0.029630737
0.0028435066 -0.11131327 -0.117441416 -0.032441333 0.062459398 0.059286773 -0.057466313 -0.021950213
0.0046636956 -0.19167359 -0.24306375 -0.30495974 0.018968062 -0.015241188 -0.019906498 -0.08724457
0.004957439 -0.04842596 0.03137431 -0.06874112 -0.14769879 -0.016536579 0.07369404 0.016021801
-0.096024826 0.011868898 -0.046521306 0.0022297925 0.0047597773 -0.12386704 0.039635874 -0.046527293
0.0467826 -0.23810329 -0.17068209 0.10738491 0.034719996 -0.09304906 -0.0005838072 -0.25245592
-0.053634632 -0.048660524 -0.009422277 -0.052165616 -0.0022592563 -0.075141974 -0.060891293 0.10566565
-0.13946575 -0.20446768 0.13301335 -0.0634447 0.0077991495 -0.17216825 -0.10086755 -0.10465144
-0.017650783 -0.0075942464 -0.106063895 -0.082051426 0.013074331 0.094404176 0.001295993 0.05724565
-0.0064016115 0.022397095 -0.08036069 -0.10268502 0.12732933 0.13176066 0.07895554 0.03395547
0.016627401 0.10073785 0.008402737 -0.0856759 0.064469144 0.013337575 0.045747288 -0.10701809
00000000: 375a fd3c 6def d1bd 7346 b7bd ed65 abbd
00000010: 42bc 4a3c 2208 f7bd a082 4bbd fdc4 eebc
00000020: 26d7 b1bc 8c90 a53d 41a6 61be d222 e83b
00000030: 9f14 f33d 35a6 103d 85a5 21bc 6913 1ebe
00000040: af65 c1bc 1713 9ebc fb0c 1bbe bdef 5bbd
00000050: 85ec 423d 2062 95bd 46d6 cbbd df14 c4bc
00000060: 1ccb b53d 9d3f eabd f558 e63c 49fd 9cbd
00000070: 93b9 48be 9393 843d 401c f7bd 9670 94bd
00000080: c34f 853d 4a39 f43c 490a 90bc 611b dfbd
00000090: 7ea5 053e 3fd5 ea3c a898 89bc 5c7a 38be
000000a0: 046a a7bd 39d8 1abe 74f4 0d3b c9f1 f5bb
000000b0: ded9 3b3e 3f26 52bd 6246 e73d 823d 0fbd
000000c0: 0ad3 9fbd 19ca a839 a4ec 2b3e e179 a33d
000000d0: 192b 92bd e8ff 3bbd 62e7 e23c 3469 96bd
000000e0: 0c2e 1dbd a6c0 6b3d e761 6cbd 874d 893d
000000f0: d444 c4bd ea40 b9bc 8229 1c3e b02f 01bc
00000100: 0192 ab3c 2f4c 1cbe 2a63 52be 6f52 ff3d
00000110: 57ea 44bb 9195 203e b869 063d ab7d 83bd
00000120: e767 98bd 96f1 6ebd 0501 f8bb 8b9c 98bd
00000130: 5619 39be 8eb7 06bb b07f 053e e8c2 b9bc
00000140: 78f6 693d cbbc 31be 5a49 1b3d 3562 1ebe
00000150: 99e9 83bd 2fbb 153e 2ddc d33b b031 c93d
00000160: 8a8b e5bd 9003 7fbd 976d 46bd 1b82 03be
00000170: 1c00 c8bd ddbd c8bc 56e9 7abd 5136 c83d
00000180: da03 383c 1ba0 5dbd 7709 0fbc e0d5 ffbd
00000190: 05fa 693d 153d 053c e745 40bc bba9 ac3d
000001a0: 1b17 49be d995 b23d 1544 9dbc 9c2c 74bd
000001b0: f4f4 06bc b13b 73be a6db eb3d 3cef f0bd
000001c0: d162 7c3d de58 fb3a e116 813d 7f94 5abd
000001d0: 6939 4c3d 0216 153e 6c53 133e 230d 39bd
000001e0: 9a3c 3e3e d06d a03c a516 23bc cdb4 55bd
000001f0: 28f1 bc3d 02e9 f4bc 91ff 94bd 85bc 94bd
00000200: 9ff8 80bd c122 9dbd 168d ddbc cb2f 723d
00000210: 2a86 cb3b c3b9 57be 275d 92bd 2218 023e
00000220: f121 27be b29c 833d 7a58 64bd 65c7 2a3e
00000230: 17da 53bb 9ce8 e0bd 873e 30bd 054d 093e
00000240: 3632 2d3e fce6 0b3e f36d 83bd 07f4 843d
00000250: 89ce bebd a42b b03c 0a96 9f3c 4037 463a
00000260: 3483 383d 53ed 1cbd 470a f33d ca27 e83d
00000270: a435 76bd b232 ae3d 1763 cd3d 8dd9 0abd
00000280: 1f8f 9e3c 2404 20bd 3fd0 4ebd 40a0 523d
00000290: add7 6b3e dc46 bb3d 5387 f93c d31f a63b
000002a0: 0ba3 ca3b 5fc1 d63d 84d7 8cbc 43d5 ea3d
000002b0: 21de 343e e83c 9e3d 0077 34bc 29bc f23c
000002c0: 205a 3a3b 36f8 e3bd 2085 f0bd 34e1 04bd
000002d0: 6dd5 7f3d b0d6 723d cc61 6bbd efd0 b3bc
000002e0: ead1 983b 1546 44be b4e5 78be af23 9cbe
000002f0: e962 9b3c 2db6 79bc f412 a3bc 48ad b2bd
00000300: 0372 a23b 4d5a 46bd 5982 003d 25c8 8cbd
00000310: 5a3e 17be b877 87bc e7ec 963d 2740 833c
00000320: aaa8 c4bd c475 423c 208d 3ebd b621 123b
00000330: e8f7 9b3b 01ae fdbd 3a59 223d 6793 3ebd
00000340: 1d9f 3f3d 59d1 73be 49c7 2ebe 9fec db3d
00000350: 8e36 0e3d 8190 bebd a30a 19ba e741 81be
00000360: fdaf 5bbd 4250 47bd e55f 1abc 9dab 55bd
00000370: 0810 14bb 09e4 99bd 2669 79bd 3b67 d83d
00000380: 1cd0 0ebe fa5f 51be a734 083e 4bef 81bd
00000390: 0290 ff3b e04c 30be a593 cebd 7f53 d6bd
000003a0: 6098 90bc 28d9 f8bb 0738 d9bd 940a a8bd
000003b0: b835 563c fa56 c13d 4fde a93a 6a7a 6a3d
000003c0: 9cc4 d1bb 1d7a b73c 2594 a4bd 864c d2bd
000003d0: 9f62 023e 44ec 063e 71b3 a13d e414 0b3d
000003e0: 3036 883c a54f ce3d a2ab 093c d976 afbd
000003f0: 6608 843d d885 5a3c 8261 3b3d 4d2c dbbd

convs.0.block2.0.bias f4 [16]
0.015291906 0.14737312 -0.086022295 0.027399374 -0.039882597 0.14237836 0.012012247 -0.066912755
-0.051857118 0.033274963 0.06523786 0.012006345 0.05975085 0.07555644 -0.05829825 0.08159494
00000000: e78a 7a3c fbe8 163e 752c b0bd a774 e03c
00000010: ef5b 23bd a2cb 113e 04cf 443c 8e09 89bd
00000020: 2168 54bd 544b 083d 6d9b 853d 43b6 443c
00000030: 4fbd 743d 56bd 9a3d 25ca 6ebd 3f1b a73d

convs.0.block2.1.weight f4 [16]
2.0341983 1.9955019 2.0239544 2.030205 2.0240057 2.029719 2.0243535 2.028344
2.0106738 2.0215418 2.028433 2.0215545 2.0213518 2.02034 2.028924 2.0229201
00000000: 4e30 0240 9b6c ff3f 7888 0140 e1ee 0140
00000010: 4f89 0140 ebe6 0140 028f 0140 63d0 0140
00000020: e1ae 0040 f160 0140 d9d1 0140 2661 0140
00000030: d45d 0140 404d 0140 e4d9 0140 8677 0140

convs.0.block2.1.bias f4 [16]
1.0518987 1.0239369 1.0449405 1.052009 1.0426254 1.0518647 1.0430775 1.0551428
1.0455161 1.0371324 1.0514749 1.0385009 1.0499669 1.0450929 1.0414482 1.0587429
00000000: 9ea4 863f 5d10 833f 9cc0 853f 3ba8 863f
00000010: c074 853f 81a3 863f 9083 853f eb0e 873f
00000020: 79d3 853f c1c0 843f bb96 863f 99ed 843f
00000030: 5165 863f 9bc5 853f 2d4e 853f e384 873f

convs.0.block2.1.running_mean f4 [16]
-2.4898047 -0.46672323 -1.2953209 0.57955545 -0.7738764 -2.7870085 -2.3654919 -0.6038314
-2.331969 -1.3622382 -0.18395706 -2.5919135 -0.79577065 -2.1440694 -2.122528 -0.5003245
00000000: f658 1fc0 59f6 eebe 13cd a5bf bf5d 143f
00000010: c41c 46bf 595e 32c0 3864 17c0 b294 1abf
00000020: fb3e 15c0 d25d aebf 3d5f 3cbe e9e1 25c0
00000030: a0b7 4bbf 6f38 09c0 80d7 07c0 4415 00bf

convs.0.block2.1.running_var f4 [16]
0.7471857 0.3336815 1.9947467 0.55111563 2.150352 1.8637067 1.3811392 1.3181838
0.5301864 1.0698361 1.3240193 1.3893437 0.108924426 1.534145 1.0961113 0.48543715
00000000: 9047 3f3f 4dd8 aa3e dc53 ff3f ea15 0d3f
00000010: 5e9f 0940 f18d ee3f 2bc9 b03f 3fba a83f
00000020: 4cba 073f 64f0 883f 7779 a93f 04d6 b13f
00000030: c513 df3d dd5e c43f 604d 8c3f 388b f83e

convs.1.block1.0.weight f4 [8, 1, 3]
-0.29856217 -0.06382133 0.3395172 -0.3826388 0.14641619 -0.2545412 -0.31028295 0.59424984
-0.3559699 -0.045193512 0.14995366 -0.12021488 -0.12134937 0.22540769 -0.13135996 0.28967267
-0.22778738 -0.03745023 -0.31121042 0.4923537 -0.23600465 -0.45339775 0.23065533 0.21975705
00000000: 24dd 98be c2b4 82bd 33d5 ad3e 3ce9 c3be
00000010: 20ee 153e 3953 82be 68dd 9ebe c220 183f
00000020: b041 b6be d51c 39bd 748d 193e 3833 f6bd
00000030: 0586 f8bd 46d1 663e 3a83 06be fa4f 943e
00000040: 1841 69be 6a65 19bd f956 9fbe c915 fc3e
00000050: 34ab 71be c023 e8be e930 6c3e fe07 613e

convs.1.block1.0.bias f4 [8]
-0.2790046 0.45992285 0.4663686 0.07323829 0.087507054 -0.21435006 -0.44230455 0.42206594
00000000: b1d9 8ebe 027b eb3e ddc7 ee3e f5fd 953d
00000010: e636 b33d 957e 5bbe be75 e2be 0719 d83e

convs.1.block1.1.weight f4 [8]
2.0140512 2.0006394 2.0178409 2.0144823 2.0290656 2.0057776 2.0251591 2.0149527
00000000: 37e6 0040 7a0a 0040 4e24 0140 47ed 0040
00000010: 36dc 0140 a95e 0040 359c 0140 fcf4 0040

convs.1.block1.1.bias f4 [8]
1.0501964 1.029657 1.0491892 1.0526959 1.0563886 1.0496733 1.0508562 1.0515774
00000000: d66c 863f cdcb 833f d54b 863f bdbe 863f
00000010: be37 873f b25b 863f 7582 863f 179a 863f

convs.1.block1.1.running_mean f4 [8]
-0.28927433 0.14261357 0.44127452 0.068091 0.07781751 -0.20942649 -0.45885688 0.43554518
00000000: c41b 94be 4b09 123e bcee e13e 4b73 8b3d
00000010: c95e 9f3d e673 56be 4aef eabe c7ff de3e

convs.1.block1.1.running_var f4 [8]
0.026197942 0.042110298 0.022874134 0.0019567043 0.0032505726 0.00849254 0.014822522 0.028447332
00000000: 119d d63c d97b 2c3d 8962 bb3c 0d3c 003b
00000010: 8f07 553b 4b24 0b3c 2ada 723c 610a e93c

convs.1.block2.0.weight f4 [16, 8, 5]
0.15463702 0.029455544 0.010175937 -0.008892505 0.07127333 0.025574556 -0.11600058 0.011053962
0.07420118 -0.10464596 0.049032524 0.09828491 0.038043525 0.05955655 0.031951137 0.16010152
-0.010012155 -0.029847387 -0.042030077 -0.15270843 -0.11482742 -0.08073359 0.08893449 -0.057111632
-0.18791251 0.17861244 -0.0340754 0.010761951 -0.0048641707 -0.20354363 0.047188118 0.09709709
-0.05138497 0.08436706 0.119805984 0.09225539 -0.12359375 0.09311569 0.041514296 -0.020223124
0.07710317 -0.034486014 -0.09368831 -0.033941105 -0.11982612 0.08351729 0.0007880202 -0.0739954
0.13747044 -0.093637735 0.11740638 -0.054765705 -0.09822935 -0.13857701 -0.08057707 0.148955
0.06589387 -0.16240612 0.076808915 -0.18674313 -0.034885373 0.08977478 0.16171442 -0.13936079
-0.04059778 0.10075081 -0.071823 -0.103756905 0.10984661 -0.102908045 -0.1518797 -0.12962101
0.02286411 0.15112858 0.09982294 0.09525419 -0.021330252 -0.018743813 -0.0019872 0.13124399
0.06413769 0.095896706 0.08838228 -0.02039661 -0.2819232 -0.12677245 -0.024554504 -0.09916287
-0.11062436 -0.19881722 -0.049679432 -0.11638645 -0.02720006 -0.020090679 -0.12851432 -0.028086292
-0.051411107 0.0547046 -0.008951663 -0.023959624 -0.13237481 -0.041221235 -0.06564818 0.12291481
-0.05982994 -0.055175386 0.01887435 -0.038237683 -0.12740104 -0.029984426 -0.14532761 -0.13731886
-0.053850528 -0.06945641 0.012377887 0.09181169 0.035939656 -0.078336634 0.029645583 -0.029082736
-0.16759087 0.06342155 -0.039770454 -0.080980234 0.11583407 -0.009273458 0.06753528 -0.025346357
-0.11458883 0.14502726 0.055679556 0.1075859 0.09856984 -0.17274907 0.0468772 -0.06614041
-0.051949646 0.058358155 -0.06327778 0.09242976 -0.02962428 -0.085653394 -0.11506058 -0.00085881486
0.0048871045 -0.23791933 0.071612045 0.030625518 0.015819795 0.05176024 -0.12268006 0.053752467
-0.09284568 0.15674543 -0.024725545 -0.19862822 0.026232108 0.0755899 -0.0119701 0.12622851
-0.23346733 0.06693248 -0.03032048 0.0044480525 0.12997143 -0.038778666 0.03367498 -0.001145418
0.07340184 -0.022586226 -0.10878966 -0.034155466 0.031438198 -0.008199456 0.115257464 -0.096517675
0.0067396956 -0.11926473 -0.089838214 0.01081034 0.03397864 0.05372584 0.08877676 0.021342192
0.03087641 0.012764563 -0.00055410154 0.073416255 0.13505694 0.11001773 -0.12943245 -0.071509495
-0.027994126 0.043458186 -0.021032035 -0.0972068 -0.050776348 0.06951022 -0.008819943 0.09461482
0.0011253213 0.04567284 -0.04153069 -0.022283675 -0.021212999 0.17674863 -0.029142322 0.005536221
-0.05232879 -0.22148177 -0.030903453 0.026906108 0.089989744 0.06216404 -0.17511745 0.043793462
-0.12471082 0.06840679 0.12607956 -0.2098285 0.1283215 0.033020645 0.07757022 -0.047280762
0.014407374 0.01854335 -0.043150954 -0.058644205 -0.05643967 0.035389155 -0.0036954775 -0.15700105
-0.12698081 -0.10080565 0.12533389 -0.046000987 -0.14013281 -0.08682462 0.067894176 -0.1126616
-0.043647945 -0.07349778 0.20744447 0.17822458 -0.025832444 0.2579483 -0.020289255 0.0052007637
0.0003061897 0.17154077 0.0007677531 0.11124304 0.101729214 0.03989777 -0.11622121 0.08344025
00000000: 2b59 1e3e c14c f13c f9b8 263c dfb1 11bc
00000010: c0f7 913d bb81 d13c b691 edbd ad1b 353c
00000020: caf6 973d 9f50 d6bd 54d6 483d 9949 c93d
00000030: 87d3 1b3d 92f1 733d 32df 023d a7f1 233e
00000040: 060a 24bc 8282 f4bc bb27 2cbd 995f 1cbe
00000050: a32a ebbd a757 a5bd 4923 b63d e3ed 69bd
00000060: 236c 40be 2ee6 363e a692 0bbd e552 303c
00000070: 9f63 9fbb be6d 50be 5448 413d d7da c63d
00000080: 0c79 52bd a3c8 ac3d d75c f53d 65f0 bc3d
00000090: b81e fdbd 70b3 be3d e50a 2a3d f7aa a5bc
000000a0: 44e8 9d3d 3541 0dbd a8df bfbd d405 0bbd
000000b0: 6667 f5bd 1d0b ab3d 2493 4e3a e68a 97bd
000000c0: 0dc5 0c3e 24c5 bfbd c272 f03d 0152 60bd
000000d0: 782c c9bd 22e7 0dbe 9705 a5bd a987 183e
000000e0: 5ef3 863d ca4d 26be fe4d 9d3d 9739 3fbe
000000f0: f7e3 0ebd d7db b73d 7798 253e 98b4 0ebe
00000100: dc49 26bd 7156 ce3d f017 93bd 807e d4bd
00000110: 42f7 e03d 74c1 d2bd 5a86 1bbe 5fbb 04be
00000120: 844d bb3c 73c1 1a3e f86f cc3d a114 c33d
00000130: c8bc aebc a08c 99bc af3b 02bb d364 063e
00000140: 9f5a 833d 7e65 c43d c501 b53d cb16 a7bc
00000150: 3d58 90be a3d0 01be 8726 c9bc e715 cbbd
00000160: 068f e2bd be96 4bbe a97c 4bbd 055c eebd
00000170: a9d2 debc 3595 a4bc 4299 03be 3915 e6bc
00000180: 7494 52bd ee11 603d ffa9 12bc f946 c4bc
00000190: 438d 07be 99d7 28bd 8e72 86bd c3ba fb3d
000001a0: 3d10 75bd 96ff 61bd 619e 9a3c 1e9f 1cbd
000001b0: 6b75 02be e6a1 f5bc c3d0 14be 519d 0cbe
000001c0: 5f92 5cbd 2a3f 8ebd 9fcc 4a3c c407 bc3d
000001d0: 7635 133d f56e a0bd 4bdb f23c eb3e eebc
000001e0: f19c 2bbe 28e3 813d 58e6 22bd f7d8 a5bd
000001f0: 6a3a ed3d b4ef 17bc f04f 8a3d 2aa3 cfbc
00000200: 8cad eabd 0782 143e 3f10 643d ff55 dc3d
00000210: fcde c93d 22e5 30be 4f02 403d a074 87bd
00000220: 27c9 54bd f608 6f3d c897 81bd d04b bd3d
00000230: 9eae f2bc 0c6b afbd e2a4 ebbd 1722 61ba
00000240: 0124 a03b 20a1 73be 56a9 923d 5ee2 fa3c
00000250: 8498 813c 8c02 543d af3f fbbd 8c2b 5c3d
00000260: e025 bebd e081 203e 3a8d cabc 3265 4bbe
00000270: b8e4 d63c e1ce 9a3d 3d1e 44bc 0c42 013e
00000280: 0f12 6fbe e513 893d a862 f8bc f8c0 913b
00000290: 3b17 053e 61d6 1ebd c7ee 093d da21 96ba
000002a0: b453 963d c006 b9bc 1dcd debd 9ae6 0bbd
000002b0: 57c5 003d 0357 06bc 1b0c ec3d 0fab c5bd
000002c0: aad8 dc3b 1141 f4bd 19fd b7bd da1d 313c
000002d0: 302d 0b3d a00f 5c3d 97d0 b53d d2d5 ae3c
000002e0: 86f0 fc3c 7522 513c 2041 11ba 435b 963d
000002f0: 5e4c 0a3e fa50 e13d f189 04be 9273 92bd
00000300: f053 e5bc 3601 323d 604b acbc 5c14 c7bd
00000310: dcfa 4fbd 605b 8e3d 8681 10bc 6ac5 c13d
00000320: 847f 933a 7213 3b3d 161c 2abd 418c b6bc
00000330: e2c6 adbc 98fd 343e e1bb eebc 3069 b53b
00000340: b756 56bd 1ecc 62be 3d29 fdbc 336a dc3c
00000350: 8b4c b83d b89f 7e3d fd51 33be c660 333d
00000360: 6368 ffbd dc18 8c3d 001b 013e 48dd 56be
00000370: b666 033e a840 073d 23dd 9e3d 79a9 41bd
00000380: e80c 6c3c 39e8 973c 0ebf 30bd e834 70bd
00000390: 492d 67bd 38f4 103d d32f 72bb e2c4 20be
000003a0: 4207 02be 3173 cebd 8757 003e 886b 3cbd
000003b0: fa7e 0fbe 1bd1 b1bd 1a0c 8b3d 20bb e6bd
000003c0: 30c8 32bd 0186 96bd 536c 543e 8180 363e
000003d0: 909e d3bc cd11 843e a735 a6bc 2b6b aa3b
000003e0: 1688 a039 62a8 2f3e 0a43 493a 64d3 e33d
000003f0: 6857 d03d d86b 233d 6305 eebd b9e2 aa3d

convs.1.block2.0.bias f4 [16]
0.0080640055 0.027717002 0.136596 -0.087296166 -0.109714955 -0.102222204 -0.09530847 0.11190362
-0.028359417 -0.13842139 -0.008963136 -0.03272967 -0.13074476 -0.12956029 -0.10550326 0.08272268
00000000: e41e 043c c40e e33c d2df 0b3e 55c8 b2bd
00000010: 3cb2 e0bd e059 d1bd 1631 c3bd ba2d e53d
00000020: 0252 e8bc 56be 0dbe 1eda 12bc 8c0f 06bd
00000030: f4e1 05be 74ab 04be 1812 d8bd 826a a93d

convs.1.block2.1.weight f4 [16]
2.007068 2.024332 2.0251722 2.0322876 2.0296748 2.0244985 2.0106285 2.0225875
2.011507 2.0239697 2.032234 2.0283158 2.0239172 2.0285819 2.0136611 2.0242143
00000000: cd73 0040 a88e 0140 6c9c 0140 0011 0240
00000010: 31e6 0140 6291 0140 23ae 0040 1372 0140
00000020: 88bc 0040 b888 0140 1f10 0240 edcf 0140
00000030: dc87 0140 49d4 0140 d3df 0040 ba8c 0140

convs.1.block2.1.bias f4 [16]
1.0351411 1.0475012 1.0401921 1.0554712 1.0477988 1.044886 1.0386485 1.0418918
1.0292897 1.0514084 1.0483224 1.0533231 1.0412033 1.0512165 1.0357927 1.0517613
00000000: 817f 843f 8514 863f 0425 853f ae19 873f
00000010: 451e 863f d3be 853f 6ff2 843f b65c 853f
00000020: c4bf 833f 8d94 863f 6e2f 863f 4bd3 863f
00000030: 2646 853f 438e 863f db94 843f 1da0 863f

convs.1.block2.1.running_mean f4 [16]
0.5661156 -0.69222164 -3.1596873 -0.5846018 0.031970654 -1.5413797 0.40557793 -0.47993392
-2.3512301 1.4652026 -2.321852 -0.04861049 -1.2413611 0.19938798 -2.887274 1.6130311
00000000: f4ec 103f 7035 31bf 5138 4ac0 77a8 15bf
00000010: a9f3 023d ee4b c5bf e9a7 cf3e e6b9 f5be
00000020: 8e7a 16c0 c28b bb3f 3999 14c0 cb1b 47bd
00000030: ece4 9ebf 5d2c 4c3e 19c9 38c0 ce77 ce3f

convs.1.block2.1.running_var f4 [16]
0.9960116 0.7380754 1.7080121 1.321887 1.3519132 0.90911716 0.71935123 0.4297113
0.844234 1.5709622 1.2505976 1.8271859 0.80407834 1.2096531 3.5430844 0.86326635
00000000: 9efa 7e3f 82f2 3c3f 24a0 da3f 9833 a93f
00000010: 7e0b ad3f e7bb 683f 6727 383f 1f03 dc3e
00000020: b81f 583f 4a15 c93f 9513 a03f 3ae1 e93f
00000030: 14d8 4d3f ead5 9a3f e5c1 6240 06ff 5c3f

convs.2.block1.0.weight f4 [8, 1, 3]
0.34087676 -0.5640217 0.2761983 0.20570484 -0.318985 0.14453715 -0.3526237 0.15163706
-0.19216809 -0.5777659 -0.23701166 -0.5887938 0.40590575 -0.39976242 0.0230488 0.3345561
-0.23997845 0.49833778 -0.53399163 0.35623688 0.19182953 0.14442974 -0.22770357 0.10442342
00000000: 6687 ae3e ba63 10bf dd69 8d3e 4aa4 523e
00000010: 0052 a3be 8c01 143e 188b b4be bf46 1b3e
00000020: b6c7 44be 77e8 13bf 2fb3 72be 31bb 16bf
00000030: e1d2 cf3e a9ad ccbe d6d0 bc3c f04a ab3e
00000040: e9bc 75be 2126 ff3e adb3 08bf ae64 b63e
00000050: f66e 443e 64e5 133e 202b 69be f2db d53d

convs.2.block1.0.bias f4 [8]
-0.08280056 -0.48542595 -0.2576567 -0.5790091 -0.49554822 0.3773311 -0.53815335 -0.06626607
00000000: 5793 a9bd c089 f8be 94eb 83be f139 14bf
00000010: 7fb8 fdbe 8b31 c13e 6bc4 09bf 81b6 87bd

convs.2.block1.1.weight f4 [8]
2.0139527 2.0052404 2.0053756 2.0068932 1.9885842 2.010864 1.9766502 2.0247135
00000000: 9ae4 0040 dc55 0040 1358 0040 f070 0040
00000010: ed89 fe3f ffb1 0040 e002 fd3f e894 0140

convs.2.block1.1.bias f4 [8]
1.0573078 1.0595282 1.012924 1.0144453 1.0503035 1.01082 1.0456151 1.0614868
00000000: dd55 873f 9f9e 873f 7ea7 813f 58d9 813f
00000010: 5870 863f 8d62 813f b7d6 853f cdde 873f

convs.2.block1.1.running_mean f4 [8]
-0.082809485 -0.4857595 -0.33621404 -0.879948 -0.5020348 0.5010242 -0.51812124 -0.06648978
00000000: 0598 a9bd 78b5 f8be 3f24 acbe 4644 61bf
00000010: 5a85 00bf 1f43 003f 98a3 04bf cb2b 88bd

convs.2.block1.1.running_var f4 [8]
0.009188778 0.0030649672 0.06401175 0.8380747 0.011550129 0.14370987 0.029716646 0.0015413266
00000000: 878c 163c 9edd 483b 9818 833d 108c 563f
00000010: c13c 3d3c ae28 133e 5370 f33c 5706 ca3a

convs.2.block2.0.weight f4 [16, 8, 5]
-0.131123 -0.075201504 -0.0027056441 -0.09083274 -0.0055176793 0.16097425 0.03811058 0.089491695
0.0473108 0.041982826 0.08595213 -0.019809498 -0.21020803 -0.1794779 -0.11592785 -0.19942793
-0.15422796 -0.21704486 0.09037974 -0.023361094 -0.05344244 0.0337575 -0.020152738 0.02606875
0.02470272 -0.069379196 -0.16003641 -0.122933544 -0.17414865 -0.05616514 0.0014681835 0.04435384
-0.059499938 0.013657263 -0.06493142 0.021098752 0.03662255 -0.08437112 0.039367773 -0.03560044
0.09550487 -0.019497497 0.12486547 -0.029746369 -0.007111829 -0.05100579 0.04159582 -0.035183188
0.05642414 0.0017996357 -0.075452395 -0.029295573 -0.16999419 -0.3008498 -0.07538051 0.05311255
-0.050555367 -0.06674905 -0.061130766 -0.12718347 -0.11940366 -0.0828381 -0.010858526 -0.014610272
-0.044527035 0.07036921 -0.11434067 -0.1156373 -0.10575806 -0.05347303 -0.03728342 -0.022274667
0.037054814 -0.033643022 0.0450647 0.017283687 0.08936328 -0.01702176 -0.007842939 0.04475205
0.011406936 0.029214796 0.11953249 -0.0029986347 -0.052537143 -0.050379965 -0.092856415 -0.07772682
0.034239944 0.07601324 -0.17475347 -0.085793994 -0.12924424 -0.135703 0.14390408 -0.087379314
0.11184336 -0.027617851 0.043423753 0.10293924 -0.097781666 0.029206298 -0.1158636 0.0007509601
-0.017860983 -0.25395533 0.044207152 0.010456106 -0.13486072 0.20313485 -0.1947985 -0.075371206
0.0026753002 0.027675472 0.0081889145 -0.08828927 0.09238977 0.019591464 -0.044473466 0.07649605
-0.05764005 -0.09636224 -0.15047379 0.027415605 0.09729885 0.13674465 -0.003032453 0.10879061
0.112327896 0.029085252 0.066990145 0.001622721 0.052309968 -0.06561715 -0.2697976 -0.00059528515
-0.001030353 -0.11923984 -0.19020827 -0.24648468 0.037059464 0.04665148 0.07237967 -0.14007646
-0.19071889 0.07341306 0.12419333 0.028790839 -0.13042988 -0.040220764 -0.05651234 -0.048804134
0.02668225 0.07382455 -0.04528737 0.018925501 0.07181696 0.046482496 0.028938387 -0.16230127
0.021664416 -0.1882852 -0.05481976 -0.038875375 -0.09158796 0.071273446 0.027634995 -0.15914536
-0.15221265 -0.08274668 0.021185232 0.027817708 0.050076887 -0.013302963 -0.025034806 0.05629449
-0.16531348 -0.16968259 -0.098363966 0.070582666 -0.034255568 -0.063158475 -0.032265536 -0.08856471
-0.080333605 0.013944048 0.0032615182 -0.08533344 -0.1715769 0.027873613 -0.06474129 -0.03307656
-0.08066424 0.027236434 -0.12662745 -0.06846474 0.08514988 0.08140515 -0.18656757 -0.088191055
0.056148704 -0.045595974 -0.01708016 -0.027745223 0.08076675 0.09307169 0.09888712 0.06150339
0.08486663 -0.09192622 0.0016514662 -0.054389182 -0.28267962 -0.14734486 -0.16444045 0.04069224
-0.1129187 -0.10075277 -0.15221763 0.003996174 -0.14829138 -0.12735042 0.014680681 -0.12321167
-0.062305026 0.15774457 -0.1752991 -0.12667254 -0.0020475194 -0.0245318 -0.07781929 -0.039045714
0.064762495 -0.088495545 -0.002472663 -0.12445821 0.030798284 -0.08909194 -0.08523672 0.017114088
-0.057272475 -0.114886865 0.013781579 -0.06843431 0.018233256 0.0017539933 -0.17673261 -0.123582296
-0.059529223 0.034327496 0.040427983 -0.15517306 -0.0023828223 -0.023345305 -0.0056432467 0.06268829
00000000: 1c45 06be 3f03 9abd 2d51 31bb 8406 babd
00000010: a6cd b4bb 6fd6 243e d719 1c3d 6c47 b73d
00000020: f8c8 413d 2ff6 2b3d ac07 b03d 8747 a2bc
00000030: c640 57be 0ec9 37be 956b edbd d636 4cbe
00000040: efed 1dbe 0241 5ebe 0319 b93d c45f bfbc
00000050: 76e6 5abd 4e45 0a3d 5b17 a5bc 228e d53c
00000060: 5c5d ca3c ae16 8ebd 96e0 23be 95c4 fbbd
00000070: 0654 32be 6b0d 66bd 1070 c03a 5fac 353d
00000080: 35b6 73bd b6c2 5f3c c4fa 84bd 4ad7 ac3c
00000090: 8701 163d c4ca acbd 1a40 213d c4d1 11bd
000000a0: 0f98 c33d 37b9 9fbc 78b9 ff3d a8ae f3bc
000000b0: 580a e9bb 72eb 50bd 6160 2a3d 3f1c 10bd
000000c0: 001d 673d c1e1 eb3a c986 9abd 45fd efbc
000000d0: f512 2ebe fc08 9abe 1961 9abd 8c8c 593d
000000e0: 2513 4fbd bab3 88bd 4164 7abd 623c 02be
000000f0: e889 f4bd 06a7 a9bd f6e7 31bc ec5f 6fbc
00000100: fb61 36bd bb1d 903d 712b eabd 40d3 ecbd
00000110: af97 d8bd 8906 5bbd 80b6 18bd 5d79 b6bc
00000120: cac6 173d 44cd 09bd c395 383d 8596 8d3c
00000130: 1804 b73d 3871 8bbc ac7f 00bc ed4d 373d
00000140: 28e4 3a3c de53 ef3c 73cd f43d be84 44bb
00000150: 3031 57bd 395b 4ebd 812b bebd 3d2f 9fbd
00000160: 2f3f 0c3d d4ac 9b3d 93f2 32be c3b4 afbd
00000170: 9a58 04be baf5 0abe 975b 133e edf3 b2bd
00000180: 220e e53d d53e e2bc 1bdd 313d cfd1 d23d
00000190: c141 c8bd 0c42 ef3c e549 edbd 14dc 443a
000001a0: 3251 92bc 6f06 82be 8f12 353d 1650 2b3c
000001b0: ee18 0abe 9502 503e 4279 47be 385c 9abd
000001c0: 1754 2f3b acb7 e23c cc2a 063c 01d1 b4bd
000001d0: d936 bd3d 477e a03c cf29 36bd f6a9 9c3d
000001e0: f917 6cbd 9159 c5bd cd15 1abe b196 e03c
000001f0: 9f44 c73d ca06 0c3e 1ebc 46bb 9dcd de3d
00000200: 2b0c e63d 3244 ee3c 2132 893d 7bb1 d43a
00000210: fa42 563d 4962 86bd e922 8abe e90c 1cba
00000220: e90c 87ba 0434 f4bd f5c5 42be 7b66 7cbe
00000230: aacb 173d 9f15 3f3d cb3b 943d 3470 0fbe
00000240: d04b 43be 9659 963d 1359 fe3d c4da eb3c
00000250: 698f 05be 87be 24bd 7c79 67bd d8e6 47bd
00000260: bc94 da3c 5331 973d 407f 39bd a709 9b3c
00000270: c514 933d 6e64 3e3d 3210 ed3c 4e32 26be
00000280: 9379 b13c d6cd 40be af8a 60bd c93b 1fbd
00000290: 7892 bbbd d0f7 913d c962 e23c 00f7 22be
000002a0: a2dd 1bbe 1777 a9bd a78c ad3c f6e1 e33c
000002b0: 6c1d 4d3d acf4 59bc cb15 cdbc 0d95 663d
000002c0: f047 29be 46c1 2dbe 0c73 c9bd a58d 903d
000002d0: 914f 0cbd 3b59 81bd de28 04bd 6a61 b5bd
000002e0: f285 a4bd 9475 643c 32bf 553b 4cc3 aebd
000002f0: dbb1 2fbe 3457 e43c 1597 84bd 497b 07bd
00000300: 4b33 a5bd f11e df3c a0aa 01be 3e37 8cbd
00000310: 0f63 ae3d beb7 a63d 920b 3fbe 839d b4bd
00000320: 2ffc 653d d8c2 3abd b1eb 8bbc f349 e3bc
00000330: 0a69 a53d 5f9c be3d 5585 ca3d fbea 7b3d
00000340: 8ece ad3d d043 bcbd 0376 d83a 31c7 5ebd
00000350: 62bb 90be 92e1 16be 1463 28be e8ac 263d
00000360: eb41 e7bd 7857 cebd f0de 1bbe 56f2 823b
00000370: b2d9 17be 2668 02be 3d87 703c 6656 fcbd
00000380: 8e33 7fbd cb87 213e 9b81 33be 72b6 01be
00000390: ad2f 06bb eaf6 c8bc b85f 9fbd 66ee 1fbd
000003a0: 33a2 843d 273d b5bd 670c 22bb f2e3 febd
000003b0: af4c fc3c d675 b6bd 9790 aebd d832 8c3c
000003c0: 8b96 6abd ce49 ebbd 22cc 613c 4a27 8cbd
000003d0: e95d 953c 40e6 e53a 65f9 34be b718 fdbd
000003e0: ead4 73bd fd9a 0c3d d097 253d b0e5 1ebe
000003f0: 2029 1cbb a73e bfbc fcea b8bb b862 803d

convs.2.block2.0.bias f4 [16]
-0.115540765 0.14030316 -0.08985781 -0.00075072463 -0.14573428 -0.059969198 -0.07818679 0.0011926616
0.15815106 0.021914829 -0.11627308 -0.016336214 -0.11949346 -0.16116145 -0.11638896 -0.0063878912
00000000: a3a0 ecbd a2ab 0f3e 5f07 b8bd 47cc 44ba
00000010: 5e3b 15be 43a2 75bd 6520 a0bd 1553 9c3a
00000020: 5af2 213e ba86 b33c 9520 eebd 86d3 85bc
00000030: fdb8 f4bd 8207 25be 565d eebd 8451 d1bb

convs.2.block2.1.weight f4 [16]
2.0249014 2.022288 2.0282276 2.031518 2.0228136 2.0250778 2.0237117 2.029027
2.0124362 2.0339339 2.0120761 2.0222826 2.029109 2.024574 2.0132337 2.0266292
00000000: fc97 0140 2b6d 0140 7bce 0140 6404 0240
00000010: c775 0140 e09a 0140 7e84 0140 94db 0140
00000020: c1cb 0040 f92b 0240 dbc5 0040 146d 0140
00000030: ecdc 0140 9f92 0140 d2d8 0040 4bb4 0140

convs.2.block2.1.bias f4 [16]
1.0494455 1.0488447 1.0490823 1.0544008 1.0442841 1.0466228 1.0436573 1.0533304
1.0400872 1.0499485 1.0379689 1.0456896 1.0478612 1.0484236 1.0323491 1.0498844
00000000: 3b54 863f 8b40 863f 5448 863f 9bf6 863f
00000010: 1aab 853f bcf7 853f 9096 853f 88d3 863f
00000020: 9421 853f b664 863f 2adc 843f 28d9 853f
00000030: 5120 863f bf32 863f 0424 843f 9d62 863f

convs.2.block2.1.running_mean f4 [16]
-2.5322576 -1.728497 -1.3006508 -1.023354 -3.4472823 -2.8691475 -2.9277735 2.1533074
-0.21640602 -1.8566188 -0.17985784 -2.3479567 -3.2000139 -3.091152 -1.9812068 -1.5225186
00000000: 8210 22c0 643f ddbf ba7b a6bf 44fd 82bf
00000010: 46a0 5cc0 1da0 37c0 a460 3bc0 cacf 0940
00000020: 8a99 5dbe afa5 edbf a72c 38be ec44 16c0
00000030: 07cd 4cc0 6fd5 45c0 2f98 fdbf e4e1 c2bf

convs.2.block2.1.running_var f4 [16]
0.42585918 0.53452927 0.72500414 1.2298121 0.60690117 0.8007691 0.59352946 1.3187523
1.7794698 0.40480363 0.2922993 0.62402326 0.72795945 0.70608544 0.53582 1.2568063
00000000: 370a da3e e9d6 083f df99 393f 7c6a 9d3f
00000010: e05d 1b3f 34ff 4c3f 8cf1 173f e0cc a83f
00000020: abc5 e33f 6c42 cf3e 41a8 953e fdbf 1f3f
00000030: 8d5b 3a3f 04c2 343f 802b 093f 07df a03f

convs.3.block1.0.weight f4 [8, 1, 3]
0.28130692 -0.3153699 0.28666702 -0.4780202 0.19258179 0.29555684 0.29357964 -0.24961305
-0.023081519 -0.14121234 0.24227847 -0.12781695 -0.1633288 0.19076835 -0.042181257 0.26477733
0.3610569 -0.62165856 -0.10007766 0.17470391 -0.11013298 0.20155627 -0.3695235 0.2166992
00000000: 7607 903e 2a78 a1be 05c6 923e 10bf f4be
00000010: 2934 453e 3a53 973e 1250 963e 909a 7fbe
00000020: 7415 bdbc f899 10be d917 783e 72e2 02be
00000030: aa3f 27be c758 433e 41c6 2cbd e590 873e
00000040: 73dc b83e 0425 1fbf 84f5 ccbd 95e5 323e
00000050: 668d e1bd c464 4e3e 2f32 bdbe 65e6 5d3e

convs.3.block1.0.bias f4 [8]
0.4498047 0.4342424 -0.29655445 0.29066375 -0.49028414 -0.3169603 0.19972363 -0.5431759
00000000: cd4c e63e 0555 de3e fcd5 97be e1d1 943e
00000010: 8606 fbbe 9f48 a2be 5a84 4c3e 930d 0bbf

convs.3.block1.1.weight f4 [8]
2.0160022 2.0024347 1.9950452 2.0172694 1.9937736 2.0008266 2.0098906 2.0162396
00000000: 2e06 0140 e427 0040 a45d ff3f f11a 0140
00000010: f933 ff3f 8b0d 0040 0ca2 0040 120a 0140

convs.3.block1.1.bias f4 [8]
1.0372379 1.041035 1.0421686 1.0509013 1.0454792 1.0420299 1.0423923 1.0464998
00000000: 36c4 843f a340 853f c865 853f ef83 863f
00000010: 43d2 853f 3c61 853f 1c6d 853f b5f3 853f

convs.3.block1.1.running_mean f4 [8]
0.5912174 0.46344835 -0.29839596 0.2831238 -0.4900083 -0.3218899 0.18390709 -0.5256604
00000000: 065a 173f 1a49 ed3e 5bc7 98be 9af5 903e
00000010: 5ee2 fabe c1ce a4be 2452 3c3e ae91 06bf

convs.3.block1.1.running_var f4 [8]
0.018932896 0.022746539 0.003715635 0.0022503566 0.0011265308 0.0541213 0.0015206904 0.0059422683
00000000: 2919 9b3c f356 ba3c 0382 733b b87a 133b
00000010: 1aa8 933a 4cae 5d3d e751 c73a 5cb7 c23b

convs.3.block2.0.weight f4 [16, 8, 5]
-0.14076993 -0.029345542 -0.0669543 0.017980264 -0.13958865 -0.012179888 -0.04455676 0.092283204
-0.046099644 0.16282596 -0.09448678 -0.04680813 0.0618936 0.078651406 0.11226639 -0.025294926
-0.032471314 -0.16634743 0.09870506 0.025358077 0.0275492 -0.026667042 0.09169919 0.010657417
-0.07328544 -0.056524567 0.09351616 0.07064416 0.03770065 0.116512 -0.042362653 0.05634979
-0.24272421 -0.29924956 -0.14105524 0.09116685 -0.044172782 -0.106989086 0.005799699 0.13342841
0.123777114 -0.11512081 -0.084910214 0.048763584 -0.1416514 0.09530934 0.0067997864 0.10749262
-0.10214292 -0.07199696 0.13066739 -0.023425663 0.09207595 -0.058283634 -0.11946778 -0.092961356
-0.031829998 0.04185513 -0.017733822 0.013175168 0.15513754 -0.08467313 -0.03150679 0.06282015
-0.047480058 0.05645933 -0.060412616 0.021299805 0.09591377 -0.12592961 0.046488855 -0.03722098
-0.025825372 0.031303607 -0.27091485 -0.035113394 0.06971312 0.041730586 0.055318758 0.016396789
-0.073001884 -0.07917919 -0.22196142 -0.14321046 0.10514386 -0.21551421 -0.09153389 -0.13872233
-0.073710725 -0.05760256 0.0032309266 0.060281593 0.105770804 -0.028196145 -0.10203356 0.0026423908
-0.020118315 0.03221325 0.003023711 0.016641313 0.007147466 0.050513916 0.06598259 0.07256509
-0.04318072 -0.110416606 -0.044588868 -0.124477424 -0.18557222 -0.12002946 -0.0104426555 -0.06979334
-0.23604697 -0.10286953 0.05710722 0.09361563 -0.0052416003 -0.13113342 -0.10489472 0.021246541
0.09673375 -0.15194947 0.08245484 -0.1691755 0.16454417 0.092378885 0.017942231 0.090095356
-0.06678544 0.055937786 -0.005341849 -0.162622 0.13095386 0.03490472 0.124171615 0.082203366
-0.13117418 -0.06438149 0.0065044803 -0.022477347 -0.06704896 -0.0051251096 -0.05349839 0.00442037
0.07542862 0.07814571 -0.011649846 -0.057920292 -0.048605457 0.0063115316 0.074112885 -0.012399409
0.046068374 -0.033345386 0.0777839 0.029864809 0.077078015 0.03916473 -0.06195015 -0.05670149
-0.02495607 -0.12812826 0.025159582 0.08677033 -0.18409054 0.06332886 -0.12173409 0.04081914
-0.0062926393 0.061647113 0.03914877 -0.09916715 -0.16664708 0.016931662 0.102811016 -0.004087609
-0.07673729 -0.06481727 -0.092069164 -0.09982556 -0.04485728 -0.023302402 -0.17069575 -0.050388105
-0.037065998 0.11452 0.06889037 -0.246952 0.065963 -0.042078797 0.12965903 -0.1708214
-0.028502155 -0.081362866 -0.16867393 0.0759643 -0.06812281 -0.0016056632 0.04443309 -0.030610621
0.034529172 -0.14857732 -0.1550266 -0.25730866 -0.14892466 -0.0067230226 -0.08907555 -0.0028210122
-0.10725918 0.13226695 -0.09430908 -0.037082188 -0.060508 -0.015379711 -0.10963304 0.01049229
0.10065232 -0.090280145 -0.017126074 -0.06564437 -0.18683209 -0.08011376 -0.046779126 0.022207193
-0.11871268 -0.15772119 -0.14071496 0.07541792 -0.1631884 0.016348576 0.1209161 -0.07127839
-0.12363849 0.014557062 0.027410598 0.023602823 -0.0005748833 -0.122729294 -0.018908331 -0.09709893
0.073283814 0.010119637 0.09413011 0.044139877 -0.038638923 0.0966868 -0.1287365 -0.10986965
0.08040783 0.07343052 0.062196076 -0.061844233 -0.08584149 -0.018296713 0.04609404 -0.0752671
00000000: fe25 10be 1066 f0bc 561f 89bd 594b 933c
00000010: 54f0 0ebe 278e 47bc 2681 36bd fafe bc3d
00000020: fbd2 3cbd d9bb 263e 4982 c1bd e2b9 3fbd
00000030: 2584 7d3d fd13 a13d eceb e53d 4e37 cfbc
00000040: a400 05bd fb56 2abe e125 ca3d bebb cf3c
00000050: dcae e13c d774 dabc c9cc bb3d 729c 2e3c
00000060: ad16 96bd 4e86 67bd 6785 bf3d e3ad 903d
00000070: ff6b 1a3d d89d ee3d 7684 2dbd 0acf 663d
00000080: b28c 78be 3d37 99be c970 10be afb5 ba3d
00000090: 85ee 34bd 181d dbbd 670b be3b 75a1 083e
000000a0: db7e fd3d 76c4 ebbd 68e5 adbd 53bc 473d
000000b0: 110d 11be 8b31 c33d bed0 de3b 1725 dc3d
000000c0: 4f30 d1bd 2473 93bd accd 053e 2de7 bfbc
000000d0: 5192 bc3d d2ba 6ebd 86ab f4bd 8662 bebd
000000e0: 2c60 02bd 4970 2b3d 8546 91bc a9dc 573c
000000f0: 60dc 1e3e 1b69 adbd 440d 01bd daa7 803d
00000100: 737a 42bd e641 673d 3873 77bd ee7c ae3c
00000110: 706e c43d b1f3 00be 196b 3e3d 0775 18bd
00000120: bb8f d3bc 3638 003d 5ab5 8abe 10d3 0fbd
00000130: c1c5 8e3d b1ed 2a3d ec95 623d 8f52 863c
00000140: 0382 95bd b328 a2bd db49 63be c3a5 12be
00000150: aa55 d73d c2af 5cbe 1f76 bbbd 3a0d 0ebe
00000160: a6f5 96bd a9f0 6bbd f4bd 533b d5e9 763d
00000170: 5d9e d83d 9afb e6bc f9f6 d0bd f62b 2d3b
00000180: 2acf a4bc 0af2 033d 7429 463b 5d53 883c
00000190: 4a35 ea3b aee7 4e3d e121 873d 029d 943d
000001a0: 44de 30bd 1a22 e2bd d1a2 36bd 05ee febd
000001b0: a506 3ebe 01d2 f5bd ac17 2bbc d0ef 8ebd
000001c0: 4cb6 71be 43ad d2bd 43e9 693d 8db9 bf3d
000001d0: bbc1 abbb d747 06be 0bd3 d6bd 3a0d ae3c
000001e0: 581c c63d a498 1bbe 15de a83d 583c 2dbe
000001f0: 447e 283e 2431 bd3d 96fb 923c ea83 b83d
00000200: cec6 88bd 051f 653d ad0a afbb 6286 26be
00000210: c518 063e 40f8 0e3d b04d fe3d 3d5a a83d
00000220: 8652 06be 71da 83bd 8923 d53b 6a22 b8bc
00000230: f750 89bd 89f0 a7bb 2121 5bbd c0d8 903b
00000240: 527a 9a3d dc0a a03d ffde 3ebc d43d 6dbd
00000250: 8416 47bd f7d0 ce3b 7fc8 973d e426 4bbc
00000260: 31b2 3c3d 2c95 08bd 2a4d 9f3d 0ba7 f43c
00000270: 14db 9d3d 326b 203d 71bf 7dbd d23f 68bd
00000280: ac70 ccbc 0e34 03be 781b ce3c a5b4 b13d
00000290: 3b82 3cbe 90b2 813d b94f f9bd f831 273d
000002a0: 7c32 cebb af81 7c3d 765a 203d 2618 cbbd
000002b0: 88a5 2abe 45b4 8a3c 958e d23d 59f1 85bb
000002c0: 7128 9dbd ebbe 84bd c28e bcbd 5871 ccbd
000002d0: 44bc 37bd aee4 bebc deca 2ebe c263 4ebd
000002e0: 84d2 17bd 7689 ea3d 6516 8d3d fce0 7cbe
000002f0: 9c17 873d d15a 2cbd 56c5 043e ceeb 2ebe
00000300: 5a7d e9bc 93a1 a6bd dcb8 2cbe 2c93 9b3d
00000310: f983 8bbd 1e75 d2ba 79ff 353d 20c3 fabc
00000320: 766e 0d3d a724 18be 4bbf 1ebe f6bd 83be
00000330: b57f 18be cd4c dcbb 3e6d b6bd bbe0 38bb
00000340: b3aa dbbd fd70 073e 1e25 c1bd 7ee3 17bd
00000350: 3dd7 77bd 2ffb 7bbc 4a87 e0bd dbe7 2b3c
00000360: ce22 ce3d cce4 b8bd fb4b 8cbc 8e70 86bd
00000370: e950 3fbe af12 a4bd 789b 3fbd dceb b53c
00000380: a21f f3bd aa81 21be 9517 10be b674 9a3d
00000390: dc1a 27be 73ed 853c dca2 f73d 68fa 91bd
000003a0: 2d36 fdbd be80 6e3c 318c e03c b55a c13c
000003b0: c4b3 16ba 7f59 fbbd a5e5 9abc cedb c6bd
000003c0: d315 963d d5cc 253c 4ac7 c03d 04cc 343d
000003d0: d943 1ebd bb03 c63d 80d3 03be 5703 e1bd
000003e0: dcac a43d be62 963d 50c1 7e3d 6150 7dbd
000003f0: aacd afbd fde2 95bc 1bcd 3c3d a325 9abd

convs.3.block2.0.bias f4 [16]
-0.02308204 0.04790359 -0.016954064 0.0032077641 -0.016032083 0.026022295 -0.13222893 -0.019079126
-0.05392467 0.15151833 0.155997 0.01771317 0.11923151 -0.16284446 -0.124730624 0.13962615
00000000: 8c16 bdbc 8e36 443d 40e3 8abc 5a39 523b
00000010: b755 83bc b52c d53c 0567 07be d44b 9cbc
00000020: 1de0 5cbd 9f27 1b3e adbd 1f3e 361b 913c
00000030: a62f f43d b3c0 26be c572 ffbd 28fa 0e3e

convs.3.block2.1.weight f4 [16]
2.0190895 2.027431 2.0191185 2.0291932 2.0263562 2.026169 2.0119376 2.0291326
2.0308871 2.025916 2.0222704 2.015741 2.027347 2.014447 2.020056 2.0101953
00000000: c338 0140 6ec1 0140 3d39 0140 4dde 0140
00000010: d2af 0140 c1ac 0140 96c3 0040 4fdd 0140
00000020: 0efa 0140 9ca8 0140 e16c 0140 e701 0140
00000030: 0ec0 0140 b3ec 0040 9948 0140 0aa7 0040

convs.3.block2.1.bias f4 [16]
1.045584 1.0519795 1.0371616 1.0664539 1.0505688 1.0396897 1.0334792 1.0470042
1.0523412 1.0520024 1.0520076 1.0562346 1.0484954 1.0472364 1.0408599 1.037062
00000000: b2d5 853f 44a7 863f b6c1 843f 9081 883f
00000010: 0a79 863f 8d14 853f 0c49 843f 3c04 863f
00000020: 1eb3 863f 04a8 863f 2fa8 863f b232 873f
00000030: 1935 863f d80b 863f e63a 853f 73be 843f

convs.3.block2.1.running_mean f4 [16]
-0.8550613 -0.48319218 -3.270489 0.48195043 -2.5025218 -4.123464 -1.0614177 -0.09486761
-2.664785 -2.3040557 -0.5723829 2.7797759 -3.021168 -0.41125795 -1.1317587 3.2581718
00000000: 4ce5 5abf f764 f7be b14f 51c0 35c2 f63e
00000010: 5129 20c0 6bf3 83c0 89dc 87bf f349 c2bd
00000020: d68b 2ac0 a675 13c0 b087 12bf d9e7 3140
00000030: d15a 41c0 6790 d2be 78dd 90bf e385 5040

convs.3.block2.1.running_var f4 [16]
0.35761213 1.8550675 1.4341301 0.45041236 1.0294112 1.6742314 0.965504 0.70813376
1.0171776 1.6798065 0.33792555 1.0859079 0.694235 0.46328023 1.1672751 1.5137575
00000000: f018 b73e da72 ed3f 9391 b73f 739c e63e
00000010: bfc3 833f 374d d63f 452b 773f 4148 353f
00000020: e032 823f e603 d73f 9404 ad3e 08ff 8a3f
00000030: 63b9 313f 1133 ed3e 4569 953f cec2 c13f

convs.4.block1.0.weight f4 [8, 1, 3]
0.27028683 -0.4189267 0.25731078 -0.26724946 0.34488928 -0.12327251 -0.008421071 -0.48236832
0.60047287 -0.31710824 0.48061776 -0.29271188 0.27170178 -0.4178042 0.26354304 0.057292458
-0.08658382 0.050584693 -0.17663556 0.3396999 -0.22555587 -0.11157447 0.17718 -0.10927404
00000000: 0963 8a3e 8f7d d6be 3dbe 833e ecd4 88be
00000010: 5495 b03e 4c76 fcbd 88f8 09bc fbf8 f6be
00000020: 97b8 193f 035c a2be 8813 f63e 55de 95be
00000030: 7f1c 8b3e 6fea d5be 1def 863e 7fab 6a3d
00000040: dc52 b1bd e531 4f3d f4df 34be 25ed ad3e
00000050: 1ef8 66be 2881 e4bd ad6e 353e 11cb dfbd

convs.4.block1.0.bias f4 [8]
-0.22266746 0.105250016 -0.46706134 -0.044919726 0.3004611 -0.10178711 0.5065255 -0.53276604
00000000: f002 64be 528d d73d aa22 efbe bffd 37bd
00000010: 0ad6 993e c375 d0bd a8ab 013f 5b63 08bf

convs.4.block1.1.weight f4 [8]
2.0285192 2.0312247 2.018377 2.0258858 2.025631 2.0280814 2.0380523 2.0349178
00000000: 42d3 0140 96ff 0140 172d 0140 1da8 0140
00000010: f0a3 0140 16cc 0140 736f 0240 183c 0240

convs.4.block1.1.bias f4 [8]
1.0508678 1.0517308 1.047817 1.0466332 1.0485716 1.0474166 1.0587509 1.0527527
00000000: d682 863f 1d9f 863f de1e 863f 14f8 853f
00000010: 9837 863f bf11 863f 2685 873f 9ac0 863f

convs.4.block1.1.running_mean f4 [8]
-0.2243793 0.10541833 -0.47300392 -0.043001972 0.29862264 -0.10179875 0.5080749 -0.5321881
00000000: b0c3 65be 91e5 d73d 922d f2be d622 30bd
00000010: 11e5 983e dd7b d0bd 3211 023f 7b3d 08bf

convs.4.block1.1.running_var f4 [8]
0.1790512 0.11488808 0.31069046 0.23742922 0.18098679 0.0075806337 0.11172293 0.031715337
00000000: 3359 373e 714a eb3d d212 9f3e a520 733e
00000010: 9a54 393e f766 f83b fece e43d f1e7 013d

convs.4.block2.0.weight f4 [16, 8, 5]
0.039184097 -0.080039665 -0.034211412 -0.030192645 0.0037657046 -0.20156404 -0.09219577 -0.02685333
-0.017742265 -0.005233979 -0.08412592 0.091498554 0.046667825 0.018231725 0.10642201 0.0041028103
0.16578703 0.1376977 -0.074044935 0.06511846 0.12935384 0.11039506 0.056514136 -0.09343133
0.025979403 -0.10473173 -0.028545585 -0.019771365 0.1547803 -0.063255616 -0.106129706 -0.097915195
-0.0951172 -0.026918717 -0.025006833 -0.04394468 0.055414975 -0.12971292 0.035055853 0.040936086
0.0078059616 -0.029320017 0.13400964 -0.073963754 0.063323215 -0.046431836 0.10709556 0.09822727
-0.006026651 -0.0695177 0.2272189 0.06442723 -0.014099745 -0.122462995 0.024412755 -0.04369411
-0.178948 0.0071920175 0.03100511 0.085645884 0.13170464 -0.12281016 -0.046018593 0.031089282
-0.08383057 -0.05586664 0.023904277 -0.13120869 0.028941914 0.017781617 0.019880416 -0.13563393
0.114077866 -0.03268456 -0.054984212 0.043931067 -0.012300203 -0.084172115 0.081743225 -0.027386032
0.061085228 -0.12675405 0.07419063 -0.054005258 -0.13246822 0.10225244 -0.08447103 -0.07977667
0.07690054 -0.24296293 0.1510438 0.029541716 0.084835805 0.038680226 -3.1930183e-05 -0.059614412
-0.00060646865 -0.10037217 -0.05002267 -0.10501456 0.060975842 -0.09191162 -0.1421439 0.063133255
-0.07844563 0.11079431 0.19029179 -0.060718287 0.018271806 -0.20537485 0.14315777 -0.0074178735
-0.028284717 -0.016621474 -0.1118515 -0.014896365 0.017723266 0.047570884 0.0061716964 -0.2321771
-0.08811518 0.16670889 0.051324885 0.007967613 -0.1776771 0.02345943 0.10306823 0.010639924
-0.009377667 -0.24192764 0.027673017 -0.020309119 -0.04524953 0.01197025 -0.026079109 0.03503761
-0.039235864 -0.032306645 0.10417086 -0.15511529 0.030574558 0.03510159 -0.0078813685 -0.064468086
-0.14815058 0.19258723 -0.060469933 -0.089710206 -0.075998865 0.06786906 -0.07901667 -0.005101422
-0.009930969 -0.011708287 -0.08919085 0.06317559 -0.06078056 0.07247661 -0.08448649 -0.13515191
-0.009494476 0.084581524 0.05390098 -0.101236105 -0.18265937 0.14825508 -0.0019777773 0.006357975
-0.08745294 -0.08668577 0.11308831 0.07196263 -0.053285453 0.048753727 -0.034849178 0.015276628
0.12385802 0.0415949 0.09608488 -0.17103447 0.103167295 0.07859347 0.037317377 -0.11588341
-0.07027751 0.060543414 -0.12153196 -0.13120204 0.124561995 -0.13843113 -0.025647337 -0.071864195
-0.004753407 0.092187345 -0.17555343 0.045881383 -0.06569969 -0.031703867 -0.003579432 -0.14521319
0.038786408 0.017245881 -0.038401328 0.08340358 0.09099645 -0.074556656 -0.036726367 -0.011056226
-0.1307817 0.07020518 -0.0056454213 -0.049978245 -0.055616397 0.003272669 -0.011368209 -0.05459997
0.031195076 -0.10384256 0.1866445 -0.043780383 -0.12422528 -0.032762356 -0.024804004 -0.05650779
0.0019429971 -0.16358803 -0.039932854 -0.10036411 -0.14002365 -0.09176363 0.06505119 -0.08184726
-0.17827481 -0.03504596 0.047456518 -0.0040483465 -0.043229863 -0.048700295 -0.07253889 -0.014999957
-0.11775256 0.036232084 0.059520297 0.014468777 0.11868552 -0.27350348 0.04399808 0.10232433
0.13787222 0.07686509 -0.0964531 0.034065578 -0.048051182 -0.020858923 -0.012078765 -0.12388147
00000000: 817f 203d d6eb a3bd 4421 0cbd 9156 f7bc
00000010: 0aca 763b ce66 4ebe 23d1 bcbd 84fb dbbc
00000020: 3a58 91bc cc81 abbb 364a acbd 9863 bb3d
00000030: c326 3f3d b35a 953c c8f3 d93d de70 863b
00000040: 13c4 293e a000 0d3e dfa4 97bd d45c 853d
00000050: 5575 043e ce16 e23d 5e7b 673d ed58 bfbd
00000060: c2d2 d43c 977d d6bd 6ed8 e9bc 8ff7 a1bc
00000070: ba7e 1e3e 298c 81bd 885a d9bd c387 c8bd
00000080: cecc c2bd a484 dcbc 21db ccbc 56ff 33bd
00000090: d0fa 623d 77d3 04be ba96 0f3d 99ac 273d
000000a0: 27c9 ff3b 8830 f0bc d339 093e 4f7a 97bd
000000b0: 9aaf 813d 4f2f 3ebd eb54 db3d 612b c93d
000000c0: 367b c5bb 4c5f 8ebd 12ac 683e 6cf2 833d
000000d0: 9e02 67bc e1cd fabd 42fd c73c 98f8 32bd
000000e0: 253e 37be 04ab eb3b 6efe fd3c 1c67 af3d
000000f0: 95dd 063e e583 fbbd fe7d 3cbd f3ae fe3c
00000100: 5daf abbd 6bd4 64bd e7d2 c33c 925b 06be
00000110: 9817 ed3c c1aa 913c 41dc a23c 9fe3 0abe
00000120: a8a1 e93d 3fe0 05bd 2037 61bd 10f1 333d
00000130: ca86 49bc 6e62 acbd fe68 a73d ac58 e0bc
00000140: 8134 7a3d d0cb 01be 42f1 973d 9e34 5dbd
00000150: c0a5 07be ba69 d13d 26ff acbd f361 a3bd
00000160: 087e 9d3d 46cb 78be 3aab 1a3e 7801 f23c
00000170: 65be ad3d 286f 1e3d c6ec 05b8 3e2e 74bd
00000180: 6cfb 1eba ed8f cdbd 92e4 4cbd e011 d7bd
00000190: cec1 793d 293c bcbd 2c8e 11be 024c 813d
000001a0: 1aa8 a0bd 21e8 e23d dadb 423e bdb3 78bd
000001b0: c1ae 953c c94d 52be f397 123e a211 f3bb
000001c0: 5ab5 e7bc c229 88bc 6612 e5bd e20f 74bc
000001d0: 6230 913c b0d9 423d f13b ca3b d5bf 6dbe
000001e0: bb75 b4bd bcb5 2a3e 0b3a 523d 978a 023c
000001f0: fcf0 35be fe2d c03c 7015 d33d 1353 2e3c
00000200: c9a4 19bc e1bb 77be 86b2 e23c 4f5f a6bc
00000210: 9257 39bd de1e 443c dba3 d5bc 9983 0f3d
00000220: c9b5 20bd f953 04bd 8857 d53d 8bd6 1ebe
00000230: 7f77 fa3c afc6 0f3d db20 01bc d807 84bd
00000240: c9b4 17be 9635 453e 52af 77bd fcb9 b7bd
00000250: 4ba5 9bbd effe 8a3d 7ed3 a1bd d429 a7bb
00000260: 81b5 22bc 1dd4 3fbc b1a9 b6bd 3462 813d
00000270: 09f5 78bd 9e6e 943d 4107 adbd 4365 0abe
00000280: b88e 1bbc 1439 ad3d 46c7 5c3d e054 cfbd
00000290: 0f0b 3bbe 2ed0 173e 999d 01bb 8f56 d03b
000002a0: 871a b3bd 4f88 b1bd d89a e73d 2561 933d
000002b0: d941 5abd fdb1 473d 03be 0ebd d24a 7a3c
000002c0: 46a9 fd3d 6a5f 2a3d 26c8 c43d a923 2fbe
000002d0: 6049 d33d 9df5 a03d 1bda 183d 4854 edbd
000002e0: a8ed 8fbd 5ffc 773d c0e5 f8bd d459 06be
000002f0: 5c1a ff3d e4c0 0dbe 5d1a d2bc 892d 93bd
00000300: 78c2 9bbb b8cc bc3d 47c4 33be 1eee 3b3d
00000310: 8f8d 86bd eadb 01bd e794 6abb c4b2 14be
00000320: 7fde 1e3d 3c47 8d3c b64a 1dbd 7fcf aa3d
00000330: 595c ba3d 29b1 98bd 636e 16bd 2c25 35bc
00000340: a3eb 05be bcc7 8f3d 3afd b8bb fdb5 4cbd
00000350: 05ce 63bd 467a 563b b941 3abc 38a4 5fbd
00000360: d18c ff3c 68ab d4bd bc1f 3f3e 0f53 33bd
00000370: d369 febd d231 06bd c431 cbbc b674 67bd
00000380: 2aac fe3a 9f83 27be a290 23bd b38b cdbd
00000390: 5c62 0fbe 92ee bbbd 8f39 853d 899f a7bd
000003a0: ac8d 36be 5a8c 0fbd c461 423d fea7 84bb
000003b0: cc11 31bd f679 47bd 458f 94bd 61c2 75bc
000003c0: 4128 f1bd 1868 143d 8ecb 733d 730e 6d3c
000003d0: 6511 f33d a608 8cbe 5537 343d 6b8f d13d
000003e0: 602e 0d3e 726b 9d3d 3489 c5bd 5988 0b3d
000003f0: 51d1 44bd 55e0 aabc 03e6 45bc 91b5 fdbd

convs.4.block2.0.bias f4 [16]
0.07599505 -0.03850308 0.09450163 0.08417519 0.12693927 0.05674352 -0.067595094 0.032093924
-0.10959426 0.09053097 -0.06532618 0.0032099832 -0.020535087 0.06402808 0.1012542 0.073488966
00000000: 4ba3 9b3d 68b5 1dbd 128a c13d 0b64 ac3d
00000010: 5efc 013e e56b 683d 4c6f 8abd eb74 033d
00000020: f572 e0bd 4d68 b93d bbc9 85bd 955e 523b
00000030: 3339 a8bc 2721 833d 5d5e cf3d 6281 963d

convs.4.block2.1.weight f4 [16]
2.0314455 2.024475 2.0309575 2.0344965 2.0271769 2.0147636 2.0302932 2.0254924
2.0206728 2.0354967 2.036535 2.023861 2.0293276 2.022737 2.033011 2.026623
00000000: 3403 0240 0091 0140 35fb 0140 3135 0240
00000010: 44bd 0140 e3f1 0040 53f0 0140 aba1 0140
00000020: b452 0140 9445 0240 9756 0240 f086 0140
00000030: 81e0 0140 8674 0140 da1c 0240 31b4 0140

convs.4.block2.1.bias f4 [16]
1.0501046 1.0465204 1.0430923 1.0583287 1.0433637 1.037929 1.0537413 1.0450673
1.0472908 1.0519317 1.0546076 1.0439833 1.0439094 1.0397795 1.0539267 1.0420732
00000000: d469 863f 61f4 853f 0c84 853f 5177 873f
00000010: f18c 853f dcda 843f ffe0 863f c4c4 853f
00000020: a00d 863f b3a5 863f 62fd 863f 3fa1 853f
00000030: d39e 853f 7f17 853f 12e7 863f a862 853f

convs.4.block2.1.running_mean f4 [16]
-0.40748748 -0.14736527 -1.538816 -1.5417321 -0.8331159 -3.062876 -1.4818069 0.8608247
-0.93821895 -2.6484966 -1.9578131 1.819595 -3.5052037 -4.065348 -1.8011906 -1.8379556
00000000: 33a2 d0be ece6 16be ecf7 c4bf 7a57 c5bf
00000010: 1547 55bf 2906 44c0 d9ab bdbf 025f 5c3f
00000020: 1e2f 70bf f880 29c0 9f99 fabf 7de8 e83f
00000030: 4255 60c0 5517 82c0 6a8d e6bf 2142 ebbf

convs.4.block2.1.running_var f4 [16]
0.34342712 0.41465625 3.7677581 1.9291344 2.6422796 1.2253593 3.4760392 0.42904502
0.33180633 1.198027 2.718017 0.76912135 2.107346 2.175516 1.7120467 2.3679168
00000000: aed5 af3e d34d d43e f322 7140 e0ed f63f
00000010: 1c1b 2940 93d8 9c3f 6d77 5e40 caab db3e
00000020: 85e2 a93e f358 993f fef3 2d40 23e5 443f
00000030: c2de 0640 a73b 0b40 5924 db3f f38b 1740
