runs/base_802.pt (torch, 97949 bytes, 91 tensors)

convs.0.block1.0.weight f4 [8, 1, 2]
000000 fc 0b 3d 3f 77 01 6b 3e 89 0d ff be 5a 34 8b be
       0.7384641 0.22949778 -0.49815014 -0.2718838
000010 60 04 9b 3e a7 b4 24 be 48 6f cd be 47 e7 51 be
       0.30276775 -0.16084538 -0.40123963 -0.20498382
000020 b0 7b 0c bd 20 78 c0 be 13 33 72 be 25 3a a6 be
       -0.034297645 -0.37591648 -0.23652296 -0.32466236
000030 3b 5f d6 bc 74 84 44 3f 4f 96 09 3f 4d 95 91 3d
       -0.026168456 0.7676461 0.5374498 0.07108555

convs.0.block1.0.bias f4 [8]
000000 9a ad 10 3e 16 3a 8c be 13 c0 07 3f 4e 5f 4e be
       0.14128724 -0.27388066 0.53027457 -0.20153543
000010 ec 4a 0c bf 45 be 99 3d e4 eb 94 be b0 fe 04 bf
       -0.5480182 0.07506994 -0.2908622 -0.5195112

convs.0.block1.1.weight f4 [8]
000000 35 00 71 40 d3 a6 6d 40 ea f3 7c 40 1a 62 5d 40
       3.7656376 3.7133071 3.9523873 3.4591126
000010 d7 1d 70 40 1a d8 6e 40 bb 7c 82 40 9c c5 6c 40
       3.7518213 3.7319398 4.077726 3.699561

convs.0.block1.1.bias f4 [8]
000000 f7 0b 3a 40 ec ac 4a 40 70 87 48 40 7a 07 46 40
       2.9069803 3.1668043 3.1332664 3.0942063
000010 eb 45 44 40 ab d3 41 40 04 22 3f 40 0b 9e 3d 40
       3.0667675 3.0285442 2.9864511 2.9627712

convs.0.block1.1.running_mean f4 [8]
000000 6e c8 5c bf 3d 4c 06 3f d1 27 c4 3e 98 aa da 3e
       -0.8624333 0.5246008 0.38311628 0.42708278
000010 fe 30 fb bd ba 2f 28 3f 2c a5 87 bf 6e 44 93 bf
       -0.12265204 0.65697825 -1.0597281 -1.1505258

convs.0.block1.1.running_var f4 [8]
000000 bd a5 06 3e b7 cb 9f 3d f6 40 4c 3c 08 5c 47 3d
       0.13149162 0.078025274 0.01246666 0.048671752
000010 e3 ec db 3c 0c 14 26 3d 14 17 cb 3d 91 92 6a 3d
       0.026846355 0.040546462 0.09916511 0.057268683

convs.0.block2.0.weight f4 [16, 8, 3]
000000 ca ee 12 be b9 97 76 be fc 53 bc be 48 73 86 be
       -0.14348903 -0.24081315 -0.36782825 -0.26259828
000010 02 95 bb bd e9 70 9b be e1 12 9b 3b ec b6 99 3d
       -0.0915928 -0.3035958 0.004732475 0.07505593
000020 f6 b9 07 bd 94 11 9a be 47 1d 89 bd f6 99 30 be
       -0.03313633 -0.30091536 -0.06695037 -0.17246231
000030 d7 2d d5 bd af 6e ad bd 05 e8 99 be 10 05 70 bd
       -0.10409134 -0.08468377 -0.3005983 -0.058598578
000040 12 d4 74 bc dc 6f 1c be a8 a9 ab 3d 07 31 90 be
       -0.01494314 -0.15277046 0.08381969 -0.28162405
000050 fb a4 a4 3d c0 ef 19 be 01 23 5c 3b d8 19 7a be
       0.0803928 -0.15032864 0.00335902 -0.24423921
000060 fe 6f 8b bd dd 6a 91 bd b6 c9 70 bd db f2 19 be
       -0.0680847 -0.07100461 -0.058786117 -0.15034048
000070 0b 03 4f be c9 92 0e 3e 0a dd 7f be 2e 02 cb be
       -0.20216005 0.13923182 -0.24986663 -0.396501
000080 f9 b6 8e 3e 9b 13 3c be c9 bb 54 ba ea 33 bb 3d
       0.27873972 -0.18366854 -0.00081151404 0.09140761
000090 ba e6 88 bd 15 aa b7 be cb 0e 9f 3e 29 63 63 be
       -0.066846326 -0.3587195 0.31065974 -0.22205795
0000a0 26 15 18 be 54 bb 13 3e 3a fe 35 3c fe be b2 3d
       -0.14851817 0.14426929 0.011107976 0.08727835
0000b0 97 82 0c be 68 6d a3 bd aa cf 4b be e3 f7 aa 3e
       -0.13721691 -0.07979852 -0.19903436 0.33392248
0000c0 f5 ac b2 3d 0a 25 29 bd 8d ca 1a be 30 83 8e bd
       0.08724395 -0.04129509 -0.1511633 -0.06958616
0000d0 0e 4e 88 be ae 29 f9 3d c0 be ae be 29 2d d3 be
       -0.2662205 0.12166153 -0.34129906 -0.41245392
0000e0 05 1d 47 be 6e cb f6 3d 54 43 74 be e8 df 2c be
       -0.19444664 0.1205052 -0.23853809 -0.16882288
0000f0 fd 09 52 3d 03 70 79 be 87 19 94 be 12 ae fe 3d
       0.051279057 -0.24359135 -0.28925726 0.12435545
000100 89 76 c4 bd ed dd cd 3c 53 17 0b 3d 3f c7 ca 3d
       -0.09592921 0.025130237 0.03395779 0.099012844
000110 32 a6 00 be 8b 7c 3c 3e d9 ca 3c 3c 30 58 c8 be
       -0.12563398 0.18406884 0.011522972 -0.39129782
000120 ec ac 17 bd 6a 25 43 be dd 0c 2e be 01 08 f1 3c
       -0.037030146 -0.19057241 -0.16997094 0.029422762
000130 88 d1 8f be 49 c7 a8 bd 76 8f 4e be d1 57 87 be
       -0.28089547 -0.082411356 -0.20171914 -0.26434186
000140 f9 48 73 bc 26 9e ce 3c f9 a8 a0 be 8d bf 90 be
       -0.014848941 0.025221895 -0.31378916 -0.28271142
000150 b7 e6 ef bd 89 43 62 3d 40 93 a7 3d f1 46 4f 3c
       -0.11713927 0.055240188 0.081823826 0.012651191
000160 a3 d7 64 be d4 13 91 be 37 e1 b8 bc 38 a4 e0 3d
       -0.22347884 -0.2833544 -0.022568328 0.10968822
000170 0d f6 46 be a7 7c 23 3d 27 4f 93 be 58 82 2c 3d
       -0.19429798 0.0399138 -0.28771326 0.042116493
000180 14 0f 4a be 3d f9 9f be 3c ba 15 3e e4 ad 3b be
       -0.19732314 -0.3124484 0.14621824 -0.18328053
000190 3c 28 9d be da 46 4b 3d 6e 9c 9e be 07 63 3e be
       -0.3069476 0.049628116 -0.3097872 -0.18592463
0001a0 87 0d 97 3e d3 c2 54 be 47 e9 19 be 42 3a 18 be
       0.29502508 -0.20777445 -0.15030394 -0.14865974
0001b0 30 b0 87 3d cd 27 46 be 15 86 45 3e 42 a5 09 bd
       0.06625402 -0.1935112 0.1928943 -0.033604868
0001c0 6e 81 cb be 4c 8b f9 3c 54 d8 fb bd 24 b4 7b 3c
       -0.39747185 0.03046193 -0.12297121 0.015362773
0001d0 b9 99 95 bd a9 0e 74 be 47 ac bd bd d3 7c 2c 3e
       -0.07304711 -0.23833717 -0.09261375 0.16844492
0001e0 e7 f8 37 3e 34 4c 14 be 47 f6 e1 bd cb 0a 6a be
       0.17966042 -0.14482194 -0.11033302 -0.2285568
0001f0 a7 7b 7b 3e 7d c6 df be 20 12 e5 bc d0 70 86 be
       0.24558888 -0.43706122 -0.027962744 -0.26257944
000200 d0 1f 96 bd 91 d3 ad bd 71 49 14 be 8b 71 9e bd
       -0.073302865 -0.08487619 -0.1448114 -0.077365
000210 b1 62 68 be 30 39 e5 bd dc b3 88 bd 9a f8 83 be
       -0.22693898 -0.11192548 -0.066749305 -0.25775605
000220 fd a1 7a 3d 64 4d b3 be 8b 76 35 3e 4a 98 96 be
       0.06118964 -0.35019982 0.17721002 -0.29413062
000230 27 bf 5e be 98 a5 9b bd 8f 6c 4b be 55 be 2a be
       -0.21752606 -0.07599944 -0.1986563 -0.16674168
000240 fa b4 b2 bd 61 80 93 bd 4e 24 8c 3d 29 e6 3b be
       -0.08725925 -0.07202221 0.06842862 -0.18349518
000250 fd 42 8e bd ee 9c 71 be 67 8b a5 be a3 e9 98 be
       -0.06946371 -0.2359502 -0.32332918 -0.2986575
000260 ad 36 03 bd c1 29 4b bd f8 3c d5 3d ad df 7c 3d
       -0.032034565 -0.049600367 0.104120195 0.06173675
000270 b0 61 f5 bd 87 7f 98 bd 68 18 b1 be 9e 24 55 bc
       -0.11981523 -0.07446199 -0.34588933 -0.0130092185
000280 44 e6 13 be 02 a6 0d be 33 00 82 3e 81 cb 20 be
       -0.14443308 -0.13832858 0.25390777 -0.1570263
000290 ef 65 c8 be ea 57 fb 3d ff 1a 4f be 23 4d 6b 3c
       -0.3914027 0.12272628 -0.20225142 0.014361653
0002a0 74 2d 94 be 51 a7 af be aa b0 20 be e1 72 51 be
       -0.28940928 -0.3430734 -0.15692392 -0.20453979
0002b0 96 95 a0 be a3 09 0f be e7 ab 13 3e ff 96 9c be
       -0.31364125 -0.1396852 0.14421044 -0.3058395
0002c0 a9 e5 4d be 7e b5 11 3d a6 07 92 be 90 74 88 3b
       -0.2010714 0.035573475 -0.2852146 0.004164286
0002d0 ab e0 69 3b 30 5d 8c bb 8c 64 bc 3d a3 b3 a0 3c
       0.003568689 -0.0042835698 0.09198865 0.019616907
0002e0 50 cd 4f bd 56 65 2c 3d f3 58 6f bd b6 17 57 3d
       -0.05073291 0.04208883 -0.058434438 0.052512847
0002f0 13 f9 55 3e d9 d4 8c be 1e 3a c4 be 44 7e 75 be
       0.20895796 -0.2750614 -0.3832559 -0.23973948
000300 71 39 1a be 0d c1 83 be 6c 12 05 3e bd d5 91 3d
       -0.15060975 -0.25733224 0.12995309 0.071208455
000310 8b 89 fb be e5 16 26 3e c2 8b d4 3d 9d e4 32 be
       -0.49128374 0.16219671 0.10378219 -0.17470022
000320 b3 c9 ce bd fc b6 92 bd e0 7f 64 be 06 a9 3c 3e
       -0.10097065 -0.07163808 -0.22314405 0.18423852
000330 27 10 1f 3e 29 8b 94 be cd 68 ad be f2 26 b0 bd
       0.15533505 -0.2901242 -0.3386902 -0.08601178
000340 e2 a2 c1 bd f1 9b 9a bd 89 bf a9 bd 3a fc 91 bd
       -0.094548956 -0.07549275 -0.082884856 -0.071281865
000350 92 d1 c4 3d bb 34 d2 3d 71 a0 b9 be 61 4f bb bd
       0.09610285 0.10263964 -0.3625522 -0.09146
000360 99 38 43 be 92 88 22 be 90 bf ce be 90 3a 82 be
       -0.19064559 -0.1587241 -0.40380526 -0.25435305
000370 19 b3 74 be 2d 21 04 be 70 27 a0 bc c7 58 04 bd
       -0.23896445 -0.1290328 -0.019550055 -0.032311227
000380 82 6c 15 3e 7d 0e db bd 2d 08 59 be bb 29 40 bd
       0.14592174 -0.10696123 -0.21194525 -0.046914797
000390 fc d5 1c bd 54 81 38 bd 75 2c 95 3c d6 44 97 be
       -0.03829001 -0.045045212 0.018209675 -0.29544705
0003a0 42 26 19 be 61 c3 12 bd 54 e8 4a 3e eb 70 aa be
       -0.14956 -0.03583086 0.19815189 -0.33289275
0003b0 a3 db c7 be 89 d2 d0 3d 9f ec 7c be 2e d9 71 be
       -0.39034757 0.101964064 -0.24699639 -0.23618004
0003c0 ce d6 bd 3d 46 4b d0 3e 68 f2 4e 3e c3 48 9c 3d
       0.09269486 0.4068243 0.20209658 0.07631066
0003d0 57 27 c1 3b 7b f5 60 be 85 f9 b8 3d 96 43 51 bd
       0.0058945823 -0.21968643 0.09031967 -0.051089846
0003e0 55 7f aa 3e bb c8 8c bd 42 e6 63 be 4c 49 e5 be
       0.33300272 -0.06874224 -0.22255805 -0.44782484
0003f0 bc 9f 93 3e 00 ab 12 bc 5b 4d 73 be a8 54 09 3e
       0.28832805 -0.008951902 -0.23759978 0.134112

convs.0.block2.0.bias f4 [16]
000000 64 24 57 be f2 af 91 3d ca 46 a8 bd 89 f6 07 bd
       -0.21009976 0.07113637 -0.08216627 -0.0331941
000010 4b ca 66 be 88 2a 96 3d b1 ff d3 3d 5e f3 21 bd
       -0.22538106 0.07332331 0.10351504 -0.039538734
000020 9b 63 41 3e e3 8d ae 3d 2c 02 e5 3d 37 06 79 ba
       0.18885653 0.085231565 0.11182055 -0.0009499522
000030 65 bd c9 bc af 47 bc 3c d5 1d bd 3c db ed 9e 3c
       -0.024626443 0.0229834 0.023085514 0.019400528

convs.0.block2.1.weight f4 [16]
000000 80 d3 85 40 fa af 83 40 c0 6d 82 40 42 0b 77 40
       4.182068 4.1152315 4.075897 3.8600621
000010 f0 1f 80 40 c2 50 84 40 de 34 84 40 3b b4 82 40
       4.0038986 4.134858 4.1314535 4.084501
000020 b5 7a 87 40 93 25 86 40 82 cb 82 40 cf 7b 8b 40
       4.233729 4.1920867 4.0873423 4.3588634
000030 fe 16 88 40 d7 ef 83 40 96 12 85 40 2c f6 86 40
       4.2528067 4.1230273 4.158519 4.2175503

convs.0.block2.1.bias f4 [16]
000000 28 95 4a 40 ce f7 47 40 05 98 4c 40 c0 ae 4a 40
       3.1653538 3.1244998 3.1967785 3.166916
000010 d5 ed 4b 40 a4 37 4d 40 66 72 4c 40 b5 07 4a 40
       3.186391 3.206521 3.1944823 3.1567204
000020 cb 3c 4d 40 11 0e 49 40 51 9e 46 40 da 63 48 40
       3.2068355 3.1414835 3.1034129 3.1310945
000030 01 75 48 40 a9 e8 45 40 62 da 4c 40 5c eb 48 40
       3.1321414 3.0923254 3.200829 3.1393652

convs.0.block2.1.running_mean f4 [16]
000000 49 51 2b c1 f0 28 8e c0 5e 63 e9 c0 6a 0e 0e c1
       -10.707345 -4.4424973 -7.29338 -8.878519
000010 02 8d 00 c1 13 2f 1f c1 cd 7a 01 c1 e7 36 0a c1
       -8.034426 -9.948993 -8.092481 -8.638404
000020 c0 55 ce c0 5f 94 27 c1 be dd 51 40 1b 63 03 c1
       -6.4479675 -10.473723 3.279159 -8.211696
000030 66 fa 0f c0 fa 2a 0a c1 78 4f f0 c0 34 6e 08 c1
       -2.249658 -8.635492 -7.509701 -8.526905

convs.0.block2.1.running_var f4 [16]
000000 0e 44 99 40 ac 4f d6 40 db b0 b7 40 b4 24 fd 40
       4.7895575 6.6972256 5.740339 7.9107304
000010 5f c4 2d 41 46 00 a5 40 2d 88 86 40 16 2b 23 41
       10.860442 5.1562834 4.204123 10.198019
000020 4d 06 84 40 83 9e 0f 41 0e 30 05 42 b3 f6 a1 40
       4.125769 8.976199 33.29693 5.0613647
000030 81 4d f6 41 0d ab a5 41 4f 25 89 40 b1 99 e4 40
       30.787844 20.70852 4.2858043 7.143761

convs.0.block3.0.weight f4 [16, 16, 6]
000000 e9 87 17 3e 90 c5 de bd b1 bf 2e be 1b 64 36 3d
       0.1479794 -0.10877526 -0.17065312 0.04452906
000010 94 4a 2f be e3 a5 d8 bc e9 52 89 be f9 ce 36 3d
       -0.17118293 -0.026446288 -0.26821068 0.04463098
000020 35 28 f8 bd bb 10 ab 3d 69 77 7b 3d ed 29 45 bc
       -0.12117044 0.083528005 0.061393175 -0.012033922
000030 7f 27 cf 3d 89 09 8d be 9f 07 17 3d f8 a0 80 3d
       0.10114955 -0.27546337 0.036872502 0.06280702
000040 08 8f 14 3e 0b f2 59 3c 84 56 3a be 43 11 06 3e
       0.14507687 0.013302336 -0.18197066 0.13092522
000050 60 1b bf bd 1e 38 94 bc ad 18 54 3b 61 d4 43 bd
       -0.09331393 -0.018093165 0.003236334 -0.047809962
000060 f1 81 48 be 6c 54 37 3e 27 1e 1f be fc 8e 57 3d
       -0.19580819 0.17903298 -0.15538846 0.052626595
000070 42 69 05 3e c6 9b 30 3e f3 4d cd bd a3 f3 a3 be
       0.13028434 0.17246923 -0.10024633 -0.32021818
000080 0f f1 40 3e 39 19 0c 3d 40 77 44 bd b0 74 d0 3d
       0.18841957 0.03420374 -0.04796529 0.101785064
000090 09 b8 12 3e a9 db c9 be 32 f4 06 3e 90 18 56 3e
       0.14328016 -0.394254 0.1317909 0.20907807
0000a0 70 97 09 3d 86 8e 4b bd 76 28 a1 3c 2f 99 a4 be
       0.033591688 -0.049696468 0.019672614 -0.3214812
0000b0 b3 ec d8 bd 3e 32 75 be bc a4 bf bd 16 51 0d 3e
       -0.10592022 -0.23944947 -0.093575925 0.13800463
0000c0 44 a2 bd bd 29 ea 84 be 62 d3 86 3d 52 b9 7a be
       -0.09259465 -0.259599 0.06583287 -0.24484757
0000d0 91 ae 35 be 28 98 fd 3d 72 1f a9 3e bd 67 01 3e
       -0.17742373 0.12382537 0.33031803 0.1263723
0000e0 38 1d 30 3e ce 05 e6 3d a2 41 63 bd 5c 2b 24 be
       0.17198646 0.11231576 -0.055482514 -0.16032165
0000f0 46 59 bd bd 5e e7 20 be c3 e3 8c 3c ca 6e 43 bd
       -0.09245543 -0.1571326 0.017198449 -0.04771308
000100 4a 89 62 be 0b 9d 31 be 57 35 e2 3d e3 86 88 be
       -0.22122684 -0.17345063 0.1104533 -0.2666541
000110 6a 1a a8 3d 42 54 71 be 4c a3 ad 3d c7 e2 89 bd
       0.08208163 -0.23567298 0.08478412 -0.067327075
000120 b7 9c 75 be 40 fb 08 bf 33 5f 87 be c6 17 98 bd
       -0.23985563 -0.5350838 -0.2643982 -0.074264094
000130 a2 90 f9 3c 7c 5c 04 3e c5 44 e8 be 27 96 6d bd
       0.030464474 0.12925905 -0.45364967 -0.058004525
000140 1c fc a0 3e 06 34 32 3e c9 54 13 3d 25 98 16 3e
       0.31442344 0.17402658 0.03596953 0.14706476
000150 25 38 a1 be 28 ee af be a8 cd 7e 3d 6c 4b fc 3d
       -0.31488147 -0.34361386 0.062207848 0.12319073
000160 5c f4 dd 3d df 1d 12 3e 76 0a ad 3c ed 6a 7b be
       0.108376235 0.14269207 0.021123152 -0.24552508
000170 12 0d 85 bd 17 5d 03 be 47 61 2f 3e 50 f8 3e bd
       -0.064966336 -0.1282848 0.17126952 -0.046623528
000180 4b 75 39 3e be 4a db 3d c3 4a 4d bd af 0b 05 3d
       0.1811115 0.10707615 -0.050120126 0.032481845
000190 68 56 b8 be e0 20 61 be d4 29 bb be 84 52 7c 3d
       -0.36003423 -0.21985197 -0.3655535 0.06160213
0001a0 e5 1c c9 bc f0 40 6a 3d ea 02 a4 3d 85 a9 eb 3d
       -0.02454991 0.057190835 0.08008368 0.11506943
0001b0 92 0f 32 3e ba d2 c3 be aa fb 74 3d 1a 57 b4 3d
       0.17388752 -0.3824671 0.059810318 0.08805676
0001c0 8f 21 32 3d 91 02 f8 3d 2d ef 0b be 8a 79 3d 3e
       0.043489035 0.121098645 -0.13665457 0.18503395
0001d0 1f 59 30 be e0 af 57 be 10 a3 33 be f2 c1 12 be
       -0.17221497 -0.21063185 -0.17542672 -0.14331797
0001e0 29 68 e5 bd 86 b0 5c 3d 85 8b 0f be 29 ed c4 3d
       -0.112015076 0.053879283 -0.14018066 0.09615547
0001f0 61 1d 63 3e b0 ed 49 3d 97 6f a1 bd 12 14 d7 be
       0.22179176 0.049298942 -0.07882612 -0.420075
000200 35 49 5d 3d 4f bf ce bc ed 9f 17 be a1 98 5a bd
       0.054024894 -0.025237707 -0.148071 -0.053368215
000210 31 11 dd bd 52 e7 d7 be cc 63 8a 3d aa 13 a4 3e
       -0.107942946 -0.4216867 0.06757316 0.32046252
000220 59 6d c0 bd e6 9b ff 3b d8 6d 00 3e 9f 9b 80 be
       -0.093958564 0.007800567 0.12541902 -0.2511873
000230 13 bb f3 bd 5b 82 17 be d4 9d 18 3e 87 f5 22 3e
       -0.11900916 -0.1479582 0.14903957 0.15913974
000240 b5 91 65 bd 6d ac 54 be 16 8f 6b 3e bd 2d f2 bc
       -0.05604716 -0.207689 0.23003802 -0.029562825
000250 4a 13 cc bd bf fe 92 bb ee 7a 62 3e 72 bd 06 3d
       -0.099646166 -0.0044859345 0.22117206 0.032895513
000260 e4 67 23 3e 0f a4 4f 3e 9a 49 38 bc 54 08 07 be
       0.159576 0.20277427 -0.011248017 -0.1318677
000270 0d 0a a0 3d af c8 92 bd 29 1e 83 3e 09 1e 02 3d
       0.07814417 -0.071671836 0.25608948 0.031766925
000280 5a 82 08 be a6 cf 4d bd 2c 81 53 3e 6d 4e cb be
       -0.13330975 -0.050246857 0.20654744 -0.39708272
000290 e8 d2 d2 3d 57 16 69 bc b7 ab fc 3d 43 6d ba 3d
       0.102941334 -0.014226518 0.123374395 0.09102871
0002a0 1d 89 35 be c5 84 de be 24 6c 88 be 31 dd 2d be
       -0.17728086 -0.4346067 -0.26645005 -0.16978909
0002b0 74 77 e4 3b 6d 3b 42 3e bb 24 94 be 1e 09 17 bd
       0.0069722477 0.18967982 -0.28934273 -0.03687393
0002c0 19 00 fe 3d 99 3f 13 be 56 96 11 be 73 9f dd 3d
       0.124023624 -0.1437973 -0.14217505 0.10821428
0002d0 8e 0f 77 be c5 c0 b6 be 91 d8 7a 3d 86 f8 dc 3d
       -0.24127027 -0.35693946 0.06124169 0.107895896
0002e0 04 10 b9 bd d1 8c d0 3d b7 e9 50 3d fd f4 42 be
       -0.09036258 0.101831086 0.051004138 -0.19038768
0002f0 0b fc ff bd 60 1c 89 be 37 f0 07 3e 28 a0 06 3e
       -0.12499245 -0.2677946 0.13275228 0.13147032
000300 ec 86 c7 3d 3c 2c e5 bd 51 15 a9 3d 74 62 e1 3d
       0.09742531 -0.11190078 0.08256019 0.110051066
000310 d9 ef 82 3d 11 3a 16 be 9e 1a 3d bd 57 bd 03 3e
       0.063934036 -0.14670588 -0.046167962 0.12865196
000320 6d ed ec 3b 64 e2 c3 bc 17 c5 32 3e 89 8d 6f 3d
       0.007230452 -0.023911662 0.17457996 0.058484588
000330 c3 e5 38 be 9c 37 a1 bd c2 13 ad bd 71 c3 96 3e
       -0.18056397 -0.07871935 -0.08451034 0.29445985
000340 28 5d f0 bd 54 5c 5f be fe 58 37 bd 42 fc 00 3f
       -0.11736518 -0.21812564 -0.044762604 0.50384915
000350 75 43 a3 3e 36 21 4e bd da f1 b7 3d 6c e4 05 3e
       0.31887403 -0.05032464 0.089816764 0.13075417
000360 4a 0b c2 bd 25 8a 0c 3e 2d 69 04 bc b6 ae e1 bd
       -0.094748095 0.13724573 -0.0080817165 -0.110196516
000370 86 81 f9 bc 0b 3c 0a 3e 59 f6 d4 3d ae c7 17 bc
       -0.03045727 0.13499467 0.103985496 -0.009263916
000380 7e 13 b5 3d 24 7c 40 3e 52 da ba 3c 08 ce d2 bc
       0.088416085 0.18797356 0.022809181 -0.025733009
000390 d8 bf 0c be 10 2e 47 3e 5e 75 1c 3e f8 bb d2 bc
       -0.13745058 0.19451165 0.15279147 -0.025724396
0003a0 ed 44 c1 bd d3 31 c8 bd a9 21 94 3d 1c f8 8b be
       -0.09436975 -0.09775128 0.07232983 -0.2733773
0003b0 9b 4e ca bd d9 8f f8 3c 2f d4 88 3d 92 f0 5f 3e
       -0.09878274 0.03034203 0.06681096 0.21869114
0003c0 c1 bb 83 3d e2 eb 4b 3d e1 96 ec bd 3d ab 2e be
       0.064322956 0.049785502 -0.11552215 -0.1705751
0003d0 09 9a 31 3d 02 a9 08 bd 10 3c 3a 3e 30 58 9f be
       0.04335979 -0.033364303 0.18186975 -0.3112197
0003e0 59 64 ef bd 46 1b 38 3e 8c 71 72 3e 8a e7 c4 bd
       -0.11689062 0.17979154 0.23676127 -0.09614475
0003f0 6b a3 26 3e 2d fe 98 3d 1e f2 dc 3d 6f b7 bb 3c
       0.16273277 0.07470355 0.10788368 0.022914616

convs.0.block3.0.bias f4 [16]
000000 59 22 0c 3d 66 66 c8 3d 64 7f ca 3d 06 d8 1b 3d
       0.034212444 0.09785156 0.09887579 0.038047813
000010 2a b2 03 3b 01 48 24 3e 7f a9 09 be f3 28 0d bd
       0.0020095208 0.16043092 -0.13443564 -0.03446288
000020 55 c9 57 3d 42 00 33 3b f1 e5 04 bd e6 cb 0b be
       0.05268224 0.0027313386 -0.03244585 -0.13652
000030 41 36 05 bc 68 ea be 3d 33 7b a4 3c d4 4a 5a 3c
       -0.008130611 0.09322053 0.020078277 0.0133235045

convs.0.block3.1.weight f4 [16]
000000 d4 2b 97 40 72 07 9b 40 66 32 91 40 80 52 8a 40
       4.7241 4.844659 4.537402 4.322571
000010 d9 87 96 40 86 71 8b 40 38 28 8d 40 51 d9 8b 40
       4.704083 4.357608 4.4111595 4.370278
000020 ee 67 90 40 4d 2e 98 40 4b cb 92 40 a5 d7 92 40
       4.5126867 4.755652 4.587316 4.588824
000030 bf dd 8f 40 00 24 8f 40 fa 29 8d 40 e5 e9 8e 40
       4.4958186 4.4731445 4.411374 4.4660516

convs.0.block3.1.bias f4 [16]
000000 86 b2 55 40 0e 94 54 40 30 56 4f 40 44 0e 51 40
       3.3390212 3.3215365 3.2396355 3.2664957
000010 93 ca 4f 40 e1 47 52 40 46 db 50 40 e9 81 51 40
       3.2467391 3.2856371 3.2633834 3.273554
000020 7e e0 4d 40 52 bc 57 40 2a 70 4c 40 d6 ed 4e 40
       3.216827 3.3708692 3.194346 3.2332664
000030 a7 b0 4d 40 13 7c 4c 40 8b bb 4f 40 e8 79 50 40
       3.213907 3.195073 3.2458217 3.2574406

convs.0.block3.1.running_mean f4 [16]
000000 67 4a 46 c1 18 6c 3a c1 db e8 bb 40 c5 2c aa 40
       -12.393165 -11.65139 5.8721747 5.317965
000010 6a f7 e8 c0 69 39 98 40 26 66 b4 41 1c 8d 80 41
       -7.280202 4.757008 22.549877 16.068901
000020 49 ba 1b c0 5e 8b 77 c1 53 be 27 c1 bf f9 0f c1
       -2.433245 -15.471525 -10.483966 -8.998473
000030 ff b2 86 40 38 6b 31 c1 cd 8d 36 c0 60 00 3b be
       4.20935 -11.088676 -2.8524048 -0.18261862

convs.0.block3.1.running_var f4 [16]
000000 1a ff eb 41 37 64 b8 41 ef 3a 9f 41 d4 b5 45 42
       29.499561 23.048933 19.903776 49.427567
000010 86 91 c9 41 be ed 44 42 8d 22 8f 42 d0 50 51 42
       25.196056 49.23217 71.56748 52.32892
000020 5e 17 4d 42 d7 4e b9 41 c5 6e bf 41 64 85 21 42
       51.27282 23.163496 23.929087 40.380264
000030 28 30 3c 42 3b 27 f0 41 de 0a 4a 42 ff b3 3e 42
       47.047028 30.019156 50.510612 47.675777

convs.1.block1.0.weight f4 [8, 1, 2]
000000 24 90 85 3e 5d da 17 bf c3 dd 1d bf d5 20 dc bc
       0.26086533 -0.5931757 -0.61666507 -0.026871124
000010 d5 80 c6 be 3b c3 e5 3e 74 ab 81 3f c6 bf 2f 3c
       -0.38770166 0.44875512 1.0130448 0.010726875
000020 ad 26 97 3e 4d bf b6 bd 47 a4 40 3f 14 45 fd bb
       0.29521695 -0.089232065 0.7525067 -0.007729182
000030 d4 1f 82 3e 01 dd bd 3e e5 0a b3 3e 3e 12 73 be
       0.25414908 0.37082675 0.3496925 -0.23737428

convs.1.block1.0.bias f4 [8]
000000 01 0d ed 3e 2d 79 f5 be 70 e7 95 3e 81 55 44 bf
       0.46298984 -0.47944012 0.29278135 -0.7669297
000010 44 ca 90 be 59 36 5e 3e a7 73 5f be b4 a5 12 bf
       -0.28279316 0.2170042 -0.21821462 -0.5728409

convs.1.block1.1.weight f4 [8]
000000 9a f3 22 40 59 5d 30 40 30 07 1d 40 ac c7 59 40
       2.5461183 2.7556975 2.4535637 3.402812
000010 20 36 38 40 38 44 5d 40 d1 41 34 40 6c 2a 34 40
       2.8783035 3.4572887 2.816517 2.8150892

convs.1.block1.1.bias f4 [8]
000000 27 e4 1a 40 22 d1 03 40 c8 86 22 40 72 2c 16 40
       2.4201753 2.0596395 2.5394764 2.3464627
000010 6e af 25 40 f2 e7 2f 40 fd eb 38 40 87 80 26 40
       2.5888324 2.7485318 2.8894036 2.6015947

convs.1.block1.1.running_mean f4 [8]
000000 85 06 b5 3e c1 fa 30 bf 31 31 a0 3e c9 16 dc be
       0.35356537 -0.6913262 0.3128753 -0.42986134
000010 2b 22 5c be 06 a8 ec 3e 60 ec 4b bc 97 2d 09 bf
       -0.21497409 0.46221942 -0.012446493 -0.5358519

convs.1.block1.1.running_var f4 [8]
000000 34 d5 df 3b 71 2c 6f 3c 80 28 5b 3b 98 ac 19 3d
       0.0068308357 0.014597998 0.0033440888 0.037518114
000010 2e ed 03 3b d9 68 a4 3c 73 cf 49 3c cf 25 02 3b
       0.0020130384 0.020069527 0.012317526 0.0019858961

convs.1.block2.0.weight f4 [16, 8, 3]
000000 ca 87 34 3d 59 02 96 bc 05 05 22 3c a6 64 bd be
       0.04407481 -0.018311666 0.009888892 -0.3699085
000010 13 0c 03 bf 93 43 1f 3e 92 e2 01 be 08 23 20 be
       -0.511903 0.15553121 -0.12684086 -0.15638363
000020 1f 67 e7 3e 46 20 20 be 95 02 15 be 6d 01 1e be
       0.45195863 -0.15637311 -0.14551766 -0.15430231
000030 39 a2 a2 be d9 94 6f bd 8e f7 3e be cc 98 20 3c
       -0.3176439 -0.05849156 -0.18649122 0.009802055
000040 ba 0a 6a 3c e2 d8 7f 3d a3 75 bd 3c 49 4a 25 bd
       0.014284784 0.062462695 0.023127383 -0.040354047
000050 3e 8f 2a 3e 50 b8 b0 be 87 af 24 be 40 dd 00 bd
       0.16656205 -0.3451562 -0.16082583 -0.031461
000060 46 4a bb bd f1 03 09 bf a0 73 c4 be 88 46 83 be
       -0.09145026 -0.5352164 -0.38369465 -0.2563975
000070 1e 32 e0 bd 6b a9 c1 3e f1 6a 10 3e 51 2c 4e be
       -0.10947059 0.37824568 0.14103295 -0.20134093
000080 02 c7 0d 3e 1e 71 7d 3e 9b 8a 77 3c 3a 9a d6 bd
       0.13845447 0.24750182 0.01510873 -0.10478635
000090 11 48 e3 bd 10 24 f6 bd 0b a9 91 3c 51 16 8c 3d
       -0.1109773 -0.12018597 0.017780801 0.06840194
0000a0 dc d6 88 bd e7 c9 9b bd 76 14 36 3c 16 ff 6c be
       -0.06681606 -0.07606869 0.011113277 -0.23144183
0000b0 f2 85 ba 3e a5 5f 30 3e 71 f8 98 3d d9 59 16 3e
       0.36430317 0.17223985 0.074692614 0.14682712
0000c0 cc f2 69 bd 4d f6 98 be 45 03 b3 be 33 a5 d5 be
       -0.057116315 -0.29875413 -0.34963432 -0.417276
0000d0 e5 d2 77 be 01 46 eb 3d 72 00 c4 bd 26 43 e6 be
       -0.24201544 0.114879616 -0.095703974 -0.44973105
0000e0 29 85 14 be f5 8b 47 3c f1 ba 8b 3d 62 82 eb bd
       -0.14503922 0.012179364 0.068227656 -0.11499478
0000f0 c6 d6 9a 3e a9 32 fa 3d 44 06 13 3b 70 af b1 bd
       0.30241984 0.12216694 0.0022434155 -0.0867604
000100 0a ef 52 be 52 cc 83 be 0e 75 c9 bd 60 a9 fa bd
       -0.20598999 -0.25741822 -0.098367795 -0.12239337
000110 ec da 9b 3b 24 69 cd 3d 97 fc f6 3d 35 62 8c 3d
       0.004756322 0.100298196 0.120598964 0.06854669
000120 aa 3b 72 3e fd fd ad be 22 c8 f4 bd b7 3b 0a bd
       0.23655573 -0.3398284 -0.11952235 -0.033748355
000130 cf 4e 6b be a4 e9 e6 bd 95 a5 2a bd 26 0b d3 be
       -0.22979282 -0.11275032 -0.041661818 -0.41219443
000140 a3 81 77 bd fa 98 7e 3d 97 d0 cd be fa 8e 36 be
       -0.060426366 0.06215761 -0.40198204 -0.17827979
000150 98 49 c1 3d ef 60 32 be f7 37 07 be c8 b8 d2 bd
       0.09437865 -0.1741979 -0.13204943 -0.102891505
000160 c4 3c 2d be ef 7b 20 be d9 57 4d be 5a 0f 4a be
       -0.16917711 -0.15672277 -0.20053042 -0.19732419
000170 21 8b 2a 3e bc 16 66 bc fd de c2 be 6f c4 06 be
       0.16654636 -0.014043506 -0.38060752 -0.13160871
000180 f8 00 08 be 9d 66 bf 3d cc d3 a0 3e 21 f9 ba bd
       -0.1328162 0.09345744 0.31411588 -0.09129549
000190 12 8c 1b be c9 41 62 3e 1c e9 06 bf 64 6c 14 bf
       -0.15190151 0.22095408 -0.52699447 -0.5797789
0001a0 23 79 98 3e 24 9f 8f bc 37 34 10 3d 34 68 06 3e
       0.2977992 -0.017531939 0.035206046 0.13125688
0001b0 b9 e5 2d 3d 62 6a 70 3e 06 f5 f3 3d 13 fe 64 be
       0.04245541 0.23478082 0.11911969 -0.22362547
0001c0 05 1b 44 3e ca 7f 3c 3e 01 34 e3 bc b8 c5 f1 3d
       0.19150932 0.18408123 -0.027734758 0.1180529
0001d0 52 de 05 3e ef 79 4a be da fe 33 bd ce 66 75 bd
       0.1307309 -0.19773076 -0.043944217 -0.059912495
0001e0 6e 0d bd 3e f3 d9 18 bd 39 2c db 3d 4f cd a6 be
       0.3692431 -0.037317228 0.10701794 -0.32578513
0001f0 8c 87 d9 be 04 e6 14 3c 89 f2 1f be 50 e6 1b be
       -0.42486227 0.009088043 -0.15619864 -0.15224576
000200 2d cf 80 be 48 52 53 3d f3 07 47 be c7 00 11 be
       -0.25158063 0.05159214 -0.19436626 -0.14160453
000210 61 45 8f 3e 03 e0 14 3e 3a 1f 17 3e 27 a3 8b 3d
       0.2798262 0.14538579 0.14758006 0.06818228
000220 63 f0 cb 3c 9c 66 3e be 9a 9a 58 be 2e 7f f4 bd
       0.024894899 -0.1859383 -0.21152726 -0.1193832
000230 c3 29 c0 3e 1c 55 36 3b 00 2a bc bd d3 a7 f6 bc
       0.37531862 0.0027821725 -0.09187698 -0.030109322
000240 68 7e 80 3e 88 98 7f be 62 15 a3 be 5b f8 63 bd
       0.2509644 -0.2496053 -0.3185225 -0.055656772
000250 db 4d 6b 3d 9f 68 a0 3d 6f e0 2a bd 92 66 99 3c
       0.057447296 0.07832455 -0.041717943 0.018725667
000260 76 f5 3f be bf 5e 4c 3e cc d4 38 be df 11 79 bd
       -0.1874598 0.19958018 -0.18049926 -0.06080806
000270 57 68 6e 3e f2 00 11 3e 45 f6 e2 3d fb a0 92 3c
       0.2328199 0.14160517 0.110821284 0.017899027
000280 b0 f4 55 be d8 06 36 be ee 6d fb bc 56 69 b9 be
       -0.20894122 -0.17776048 -0.030692067 -0.36213177
000290 ef 34 e1 3d 11 9f 0a 3e 9d 9b 39 bd b3 70 05 3e
       0.109964244 0.13537242 -0.04531442 0.13031273
0002a0 68 17 11 3e 4a d3 4e be 72 1e f4 3c cc 44 d2 be
       0.14169085 -0.20197788 0.029799674 -0.41068113
0002b0 4a 5c 0e be 10 f4 4f 3d 5c 5e 99 be a1 d0 d3 be
       -0.13902393 0.050769866 -0.29954803 -0.4137011
0002c0 ae 8a 00 be 9c 36 1b 3e df a4 51 bd fe b9 78 be
       -0.12552902 0.1515755 -0.051182624 -0.242897
0002d0 ec e7 a3 3e d7 59 1d 3c 89 2b 92 3d 54 d3 1f 3e
       0.3201288 0.009603939 0.0713721 0.15607959
0002e0 21 b0 b1 bd c8 64 10 3e fd 71 81 bd ff 1a 47 be
       -0.08676172 0.14100945 -0.0632057 -0.19443892
0002f0 9e 91 41 bc e3 ba 70 3e 0a bd fc bb 1e 9c 2d 3a
       -0.011814503 0.23508792 -0.007712965 0.00066226895
000300 5b 22 9a 3e f2 da 7a be 0d fa 03 bf bf 47 7c 3d
       0.30104336 -0.24497584 -0.5155342 0.06159186
000310 46 ed 41 bd 82 b1 33 3c 30 91 4c 3d 12 ba 02 be
       -0.047345422 0.010967614 0.04994315 -0.12766293
000320 73 5f 07 be 18 40 57 3e 54 d7 4a be 86 37 b0 3d
       -0.13220005 0.21020544 -0.19808704 0.0860434
000330 2b 28 7a 3d e6 44 1b 3d 49 f9 4b bc 5e c6 ae 3d
       0.061073463 0.037907504 -0.012449571 0.08533929
000340 26 b8 27 bd fa 3a 0d 3d 89 95 bb bd 89 7e a9 be
       -0.040947102 0.034480073 -0.09159381 -0.3310435
000350 e7 6b 44 3e eb cb 9d 3e 37 b1 52 be 12 06 09 3e
       0.19181786 0.3081964 -0.20575415 0.13381222
000360 fe 99 64 be 74 92 84 bc a8 5b c6 3e f2 61 ff be
       -0.22324368 -0.016183116 0.38741803 -0.49879414
000370 79 70 11 bd f6 ed 9c 3d 41 bc 47 3e e4 e8 d1 be
       -0.035507653 0.07662575 0.19505407 -0.40997994
000380 e6 8e 11 be 9f 1e 63 bb 56 cd b8 bd 33 47 98 bd
       -0.14214668 -0.0034655703 -0.0902354 -0.07435455
000390 43 12 a3 be ca fe 34 be 02 ab 5f be e3 de 2a be
       -0.3184987 -0.1767532 -0.21842578 -0.16686587
0003a0 39 df 87 be 16 9b a3 3d 0c eb cc 3d 85 1b 2f be
       -0.26537493 0.07988565 0.10005769 -0.17100342
0003b0 38 0f 45 be 24 65 f6 3c f0 89 05 be ff 9b 9e 3d
       -0.19244087 0.030077524 -0.130409 0.07744598
0003c0 be dc 81 be 42 89 f6 3d 1b 67 94 be 9e ad d9 bd
       -0.25363725 0.120378986 -0.28984913 -0.10628818
0003d0 8e fd bd 3c 3f ca 03 bf 21 ba dd 3e 6d 53 4c bd
       0.023192193 -0.5148048 0.43306068 -0.04988425
0003e0 56 15 88 3d e3 e1 61 be 30 c2 50 be a2 d9 2c be
       0.066446945 -0.22058825 -0.20386577 -0.16879895
0003f0 19 c1 ad bd 28 96 a1 bc e1 1b 2d 3d 64 e3 d1 bc
       -0.08484096 -0.01972492 0.042262916 -0.025621124

convs.1.block2.0.bias f4 [16]
000000 e4 55 6b bc 01 b2 c6 bd 93 09 49 be c5 7c ea 3d
       -0.01436374 -0.0970192 -0.19632559 0.11449579
000010 20 99 a6 bd 56 7a 16 3e 49 24 4b bd aa c8 18 be
       -0.08134675 0.14695105 -0.04959515 -0.14920297
000020 2f 6f 5e 3e a6 0b 5b 3e f4 e9 da 3c 0a 19 b4 3d
       0.217221 0.21391162 0.026722886 0.08793838
000030 68 c0 78 3d 3c a6 ae bd 72 90 71 3d db e5 05 be
       0.060730368 -0.085278004 0.058975644 -0.13075964

convs.1.block2.1.weight f4 [16]
000000 96 2d 87 40 ea 3b 83 40 84 48 91 40 8d a7 8c 40
       4.2243147 4.1010637 4.540102 4.395453
000010 f4 2f 4f 40 5b 3e 8e 40 19 cd 8c 40 6e 46 8c 40
       3.2373018 4.4451118 4.4000363 4.3835974
000020 49 16 84 40 c3 6d 71 40 26 a2 6f 40 75 f6 85 40
       4.1277204 3.7723243 3.7442718 4.186335
000030 61 e4 83 40 9e 71 81 40 5b 9a 7f 40 25 78 83 40
       4.1216283 4.0451193 3.993796 4.108416

convs.1.block2.1.bias f4 [16]
000000 0a 8e 4e 40 8b 62 50 40 ea 3d 4b 40 ce a8 49 40
       3.2274194 3.2560146 3.175654 3.150928
000010 a5 8a 55 40 a4 1d 43 40 ff 1f 46 40 8f 17 4d 40
       3.3365872 3.0486841 3.095703 3.204563
000020 d4 35 49 40 86 73 55 40 9e 9f 57 40 52 e4 4b 40
       3.1439104 3.335176 3.3691173 3.1858106
000030 5f f6 42 40 90 0f 4d 40 55 82 51 40 a3 c2 41 40
       3.0462873 3.2040749 3.2735798 3.0275047

convs.1.block2.1.running_mean f4 [16]
000000 ed 70 a2 c0 29 34 c3 bf 5e c0 b2 c0 be ca 06 c1
       -5.076285 -1.5250293 -5.5859823 -8.424498
000010 d2 ff 17 3e 59 bb db bf 10 43 b6 bf a1 58 20 c0
       0.14843681 -1.7166549 -1.4239216 -2.5054095
000020 50 97 64 bf 44 e6 b6 c0 52 44 02 c0 21 29 ae bf
       -0.89293385 -5.7156086 -2.03542 -1.3606302
000030 a6 2e b3 c0 c3 09 04 c1 e4 91 5f c0 f9 ce d4 c0
       -5.5994444 -8.252383 -3.4932795 -6.650265

convs.1.block2.1.running_var f4 [16]
000000 79 ae 33 40 07 a0 95 40 05 9b 85 40 ed 16 6a 41
       2.807524 4.6757846 4.1751733 14.630597
000010 5a 5d 33 40 7d 11 38 40 9b 79 02 40 06 62 10 41
       2.8025727 2.8760674 2.0386722 9.0239315
000020 30 d3 fa 3f 27 b8 25 41 7e 95 cd 3f 92 9f cb 40
       1.9595699 10.357459 1.6061246 6.363229
000030 de 20 48 41 68 71 cb 3f 72 bc 24 41 db a7 a4 40
       12.508024 1.5893984 10.296007 5.14549

convs.1.block3.0.weight f4 [16, 16, 6]
000000 dc 35 73 be b3 8d f6 3d 70 3c f0 bc 5f 56 4c be
       -0.23751014 0.12038746 -0.029325694 -0.19954823
000010 7e 54 2b be e9 99 17 3e 0b 11 3c 3e 27 a7 04 3d
       -0.1673145 0.14804806 0.18365876 0.03238597
000020 27 ec b7 3d 5f 33 88 3d 7d 15 26 3e 28 14 69 be
       0.08980589 0.06650423 0.16219135 -0.22761595
000030 49 88 ad bc 68 67 5f 3d 9a 55 cc bd 88 86 84 3e
       -0.02118315 0.054541975 -0.09977265 0.2588389
000040 38 33 c4 3e c6 53 8a 3e 31 fc 8a be 4e 04 be bc
       0.38320327 0.2701704 -0.27145532 -0.023195412
000050 49 fd af 3e 2c 15 c8 bd 38 d7 75 3e 7c 8c a4 bd
       0.3437293 -0.09769663 0.2400788 -0.08034608
000060 0c 30 9d 3c b5 60 f7 bd d5 29 5f 3e 6c ff ed bd
       0.01918795 -0.12078992 0.21793301 -0.116209835
000070 78 63 05 3a 76 04 04 3e 86 58 8d be dd 88 ad bd
       0.00050883694 0.12892327 -0.276066 -0.0847337
000080 2d 7d 5f be 77 99 64 3e f3 90 43 bc f1 d8 9d bd
       -0.21825095 0.22324167 -0.011936414 -0.07707394
000090 90 4a b0 bd e4 90 be bc 43 fd c8 bd 97 96 11 3e
       -0.08607972 -0.023262449 -0.09813931 0.14217602
0000a0 3d 45 09 3e d3 1c 6a bd 3b b8 49 3c c1 f1 56 bd
       0.13405319 -0.057156395 0.01231199 -0.05247665
0000b0 6b 5f 0b be a2 e6 39 3e b4 6e aa bb 26 35 8b 3e
       -0.13610618 0.18154386 -0.005201185 0.27188987
0000c0 85 7d 1d bd b0 23 e3 bd 66 ad 07 3e 2f ee f5 3d
       -0.038449783 -0.11090791 0.1324974 0.120083205
0000d0 dc 4a b2 3e 39 6e 18 be 46 aa 6a bd f5 b2 47 be
       0.34822738 -0.14885797 -0.05729129 -0.1950186
0000e0 6e 93 2a be 1e 12 53 bd 2c 14 ce bd b8 51 43 3c
       -0.16657802 -0.05153095 -0.10062441 0.011921339
0000f0 91 99 89 bd 75 f8 0f 3e 03 c2 eb bd be a9 7f be
       -0.067187436 0.14059623 -0.11511614 -0.24967095
000100 e6 70 6e bc 90 9f ec bd ae 28 3a bd 06 56 9c bd
       -0.014553284 -0.11553872 -0.04544895 -0.07633595
000110 88 d9 aa bd c2 bb 8a be 2f 5e 0b 3e cf 1b a7 be
       -0.08342272 -0.27096373 0.13610147 -0.32638404
000120 11 23 35 3e 26 9d 9f 3e fd 36 94 3d b1 71 e4 3d
       0.17689158 0.31174582 0.07237051 0.111544974
000130 28 e5 47 3e 7d 3b 11 bd 5a b1 fd bd d1 6f a6 bc
       0.1952101 -0.035457123 -0.12387343 -0.02031699
000140 7b 3f 09 bf 6a 27 b4 be 29 ab ba be b4 7c 7e bd
       -0.5361249 -0.3518632 -0.3645871 -0.062130645
000150 a7 0f 71 3c 33 1d 05 3d a1 c4 ff 3d 24 11 b9 3c
       0.0147132045 0.03249855 0.12488676 0.022591181
000160 c5 2d 9f 3d 26 fd f6 be e2 f3 66 bd c8 61 76 3e
       0.07772402 -0.48240012 -0.05638493 0.24060738
000170 e0 32 21 3e e9 87 2a be 01 8d 9e bd 36 c3 86 be
       0.15742064 -0.16653408 -0.07741738 -0.2632081
000180 c6 7f 26 be 16 f1 e9 3d ed f7 15 be c7 f3 cd bd
       -0.16259679 0.114229366 -0.14645357 -0.100562625
000190 fc 7c 03 3e c7 ac 8d 3d b6 8b 8a 3e 22 20 ee 3d
       0.12840647 0.0691772 0.27059716 0.116272226
0001a0 73 b5 1b 3d 52 a0 46 3e 86 67 00 3e 05 83 c5 be
       0.03801484 0.19397095 0.12539491 -0.38576522
0001b0 f0 ad ce bc 86 f3 9d bc eb cc b9 bd 8d 79 90 3e
       -0.025229424 -0.01928116 -0.09072288 0.28217736
0001c0 d7 3b 08 3e d9 88 92 3e 29 58 8c be 25 9c fe 3d
       0.13304077 0.2862003 -0.2741101 0.12432126
0001d0 33 87 0f 3e 80 19 ef bb 80 4f 97 3e 0d cd eb 3b
       0.14016418 -0.007296741 0.2955284 0.007196075
0001e0 93 9d a3 3d 6a f1 bd 3d ce d6 4f 3d 5e 6d c0 3b
       0.07989039 0.09274562 0.050741963 0.0058724126
0001f0 31 36 0d 3e 4a b3 71 3e cb 5c b7 be ee a2 12 be
       0.13790204 0.2360355 -0.35812983 -0.14319965
000200 55 ac d4 bd b9 10 ff 3d d0 81 12 bd 61 f5 45 be
       -0.10384432 0.124543615 -0.03576833 -0.19331886
000210 d7 4d a1 bd b2 dc 8c bd f8 12 30 bd 9e 10 16 3e
       -0.07876175 -0.06878032 -0.04298684 0.14654776
000220 2e 25 30 3d ba 1c 84 bd 86 38 cb 3c ff 11 c8 bd
       0.043004207 -0.06450792 0.024807226 -0.097690575
000230 9d ae 5c be 44 60 fe 3c 1e c7 37 bd b2 e0 9f 3e
       -0.21550985 0.031051762 -0.044867627 0.31226116
000240 3d 5b 70 bd 40 87 a6 bd 63 dc b0 3d ec 34 f8 3d
       -0.05868076 -0.08131266 0.086357854 0.12119469
000250 18 ca 03 3f 1a 81 57 be e9 cf c7 3b 04 39 25 be
       0.51480246 -0.21045342 0.006097783 -0.16135031
000260 16 42 18 be ad dc 0a be 3b 42 52 bd 6c d0 89 bd
       -0.1486896 -0.13560744 -0.051332694 -0.067292064
000270 d3 f4 8a 3e f4 0e 0a 3e cc 4b 77 3d 61 30 37 be
       0.2713991 0.13482267 0.06037502 -0.17889549
000280 5f 02 38 be 6a e4 2f be 84 77 04 3b ea b1 7c bc
       -0.17969655 -0.17176977 0.0020212838 -0.015423277
000290 72 e6 0e be 16 ba 81 be d6 c0 3a 3e 78 35 58 be
       -0.13955095 -0.25337285 0.18237624 -0.21114147
0002a0 6b 0c 30 3e 73 6d 14 3e 81 86 97 3e 24 4e c4 3d
       0.17192237 0.14494877 0.29594806 0.09585217
0002b0 f0 c5 95 3c f0 88 42 3e a3 e7 2b be 26 cf a8 bc
       0.01828286 0.1899755 -0.16787581 -0.020606589
0002c0 56 f9 a3 be f1 9a 70 be 0c e9 a6 be 45 7c 96 bd
       -0.32026166 -0.23496605 -0.32599676 -0.07347921
0002d0 6d 21 c4 3d 9a 70 2d 3e 16 81 0b 3e 87 76 4a 3d
       0.09576688 0.16937485 0.13623461 0.049429443
0002e0 bb 1c a4 3d 06 a2 e1 be 1c 4f 5e bd 17 5a 2c 3e
       0.080132924 -0.44068927 -0.054274663 0.16831242
0002f0 0c 57 25 3d 96 bb 0f be 6a 71 47 bd 58 d2 d2 bd
       0.040366217 -0.14036402 -0.048692144 -0.10294026
000300 f9 a9 2e 3d 48 ce 5d 3e 3c 2a b4 be ac 50 47 be
       0.042642567 0.21660721 -0.35188472 -0.19464368
000310 c0 84 00 3e b6 6c c7 3d b1 49 23 3e c1 93 2c 3e
       0.1255064 0.09737532 0.1594608 0.16853239
000320 ff f8 e4 3d b4 45 02 3e e4 43 b5 3d 9b 42 43 bd
       0.11180305 0.12721902 0.0885084 -0.04767094
000330 0e db e8 3d 42 03 c2 3c 09 31 26 be ed 2d 50 bd
       0.11369906 0.023683194 -0.16229643 -0.05082505
000340 9f 04 98 3e 3c fb 0a be 3f 3c 4c bd 34 d7 03 3e
       0.29691026 -0.13572401 -0.049862143 0.12875062
000350 33 82 94 3b 7f 1a 86 bd 3c 6c aa 3d 8f e7 22 3e
       0.0045321225 -0.065480225 0.08321425 0.15908645
000360 1c 26 6d be ba 5c d8 bd 91 29 6f 3d 1b 52 1c be
       -0.23159069 -0.10564561 0.05838925 -0.15265696
000370 f3 e9 bb bd c9 b9 92 3d 49 12 a2 be c9 94 45 bd
       -0.09175482 0.07164342 -0.31654575 -0.048237596
000380 10 3f c8 bc ed e9 35 3e 35 cd 14 3e 4a f8 45 bc
       -0.024444133 0.17765017 0.14531405 -0.0120831225
000390 b1 97 b6 bd 34 1c 08 bc cc ed f9 3d 03 3d 15 3e
       -0.089156516 -0.008307505 0.12203559 0.14574055
0003a0 f5 b4 2f 3e 66 ff b0 bc b3 b4 90 bd 99 0e b2 3b
       0.17158873 -0.021606158 -0.07065716 0.005433869
0003b0 99 0f cc bd 11 8b 9d 3d cf 00 ae 3d 92 20 eb bc
       -0.099639125 0.076925404 0.08496248 -0.028702054
0003c0 bb 8f 76 bb 4a 10 62 bd 2c cd 82 bd 75 09 59 3e
       -0.003762229 -0.055191316 -0.0638679 0.21195014
0003d0 f5 66 d9 bd 1d 8f ca bb 56 21 07 bd d5 dc 80 3d
       -0.106153406 -0.006181611 -0.032990776 0.0629212
0003e0 e8 76 e5 be a7 61 d0 bd ab 2a 7c be 81 0e a9 bd
       -0.4481728 -0.10174876 -0.24625652 -0.082547195
0003f0 40 14 a2 be 5e b7 35 be 6c bd 14 be bf a6 09 bd
       -0.31656075 -0.1774573 -0.14525384 -0.033606287

convs.1.block3.0.bias f4 [16]
000000 a4 f7 b9 bd 7a 99 f1 3d 47 41 80 3c 0c df bb 3d
       -0.09080437 0.117968515 0.015656127 0.09173402
000010 2f 0c a0 bd f8 46 ea 3c c2 ef 90 bd d7 62 a6 bc
       -0.07814824 0.028598294 -0.0707698 -0.020310802
000020 a7 9b 2b be 56 59 88 bd ff d7 1c bd a8 1b 09 3d
       -0.16758595 -0.066576645 -0.038291927 0.03347364
000030 66 62 18 3d d5 b1 00 3d 26 5f fb bc cb 39 bd bd
       0.037203215 0.031419594 -0.030685019 -0.09239539

convs.1.block3.1.weight f4 [16]
000000 70 eb 94 40 5c 03 90 40 f0 6c 8f 40 80 22 a7 40
       4.65374 4.50041 4.482048 5.2229614
000010 03 97 9e 40 c0 49 90 40 41 f4 8f 40 b6 22 a0 40
       4.955934 4.5090027 4.498566 5.004237
000020 a4 13 9c 40 67 de a0 40 5f b0 9f 40 c4 44 a5 40
       4.8773975 5.0271487 4.9902797 5.1646442
000030 98 92 a1 40 de cc 8d 40 ca d7 9b 40 45 73 a4 40
       5.0491447 4.431258 4.8700914 5.139071

convs.1.block3.1.bias f4 [16]
000000 71 fc 49 40 6c b6 4c 40 ca 12 4f 40 44 e6 51 40
       3.1560328 3.1986341 3.2355218 3.2796793
000010 b4 77 4d 40 4c ac 4c 40 f2 6a 4d 40 db 7a 57 40
       3.210431 3.1980162 3.2096524 3.3668735
000020 a2 bb 4e 40 b3 88 4f 40 eb 25 4a 40 1e 4a 51 40
       3.2302022 3.2427185 3.1585643 3.2701488
000030 3b 6c 52 40 ec e0 52 40 7e c6 4d 40 c5 2b 53 40
       3.2878559 3.2949781 3.21524 3.2995465

convs.1.block3.1.running_mean f4 [16]
000000 12 27 9b c0 b5 c6 17 3f 98 b9 23 41 72 c6 a0 c1
       -4.8485193 0.5928758 10.232811 -20.096897
000010 d5 15 6a c1 44 61 8a bf f6 7c 38 40 0a d6 ca c1
       -14.63033 -1.0810933 2.882627 -25.354511
000020 72 28 9e c1 cb f1 c1 c1 64 c1 91 c1 e7 c9 33 c1
       -19.769749 -24.243063 -18.219429 -11.236793
000030 08 b4 98 c1 1d 8f a1 3f 7e 13 0e 41 96 65 98 c1
       -19.087906 1.26218 8.879759 -19.049603

convs.1.block3.1.running_var f4 [16]
000000 79 7c 56 42 ea 9b 2a 42 bc c3 94 41 09 1f fe 40
       53.621555 42.65226 18.595573 7.9412885
000010 fb 72 43 41 a4 f2 83 42 37 4b 4c 42 7a 1a f6 40
       12.215571 65.97391 51.073452 7.690732
000020 2c ad 2e 41 0f d7 45 41 cd 13 23 41 7b 1e a0 41
       10.917278 12.365005 10.192334 20.014883
000030 b0 da 1c 41 0b 14 92 42 69 35 8d 41 33 52 0b 41
       9.8033905 73.03915 17.65108 8.707568

convs.2.block1.0.weight f4 [8, 1, 2]
000000 21 f6 22 3f 15 8e 04 be 5a 58 fa 3d a2 2f e1 3e
       0.6365681 -0.12944825 0.12223883 0.43981653
000010 12 d5 ac be be 9c c1 3e 39 c5 04 bf a5 0c e8 3e
       -0.3375631 0.37814897 -0.5186344 0.45322147
000020 65 b0 04 3f ea 0d 91 3d 7b 45 01 bf af bc 39 bf
       0.51831657 0.07082732 -0.50496644 -0.72553533
000030 85 e1 f6 3d 3e fd f5 3e 22 8a 0c 3f 5a 82 a0 be
       0.12054733 0.4804477 0.54898274 -0.3134945

convs.2.block1.0.bias f4 [8]
000000 ba 2e d9 3d 7a 2b 83 bd 5f da 3d be 41 f6 05 3f
       0.106046155 -0.06404777 -0.18540333 0.5232888
000010 49 33 40 3d f2 b9 22 3e 73 52 2c bf cd b9 fc 3e
       0.04692391 0.15891245 -0.6731331 0.49360505

convs.2.block1.1.weight f4 [8]
000000 c9 16 09 40 1f 59 01 40 9f 03 37 40 fd 83 33 40
       2.1420157 2.0210645 2.859596 2.804931
000010 b1 9c 0d 40 22 e8 08 40 6d 0c 31 40 0e af 12 40
       2.2126887 2.1391683 2.7663834 2.2919345

convs.2.block1.1.bias f4 [8]
000000 ce 64 46 40 66 05 28 40 0c 09 3b 40 22 81 4a 40
       3.0999026 2.6253295 2.9224272 3.1641316
000010 29 93 42 40 34 29 36 40 c0 48 37 40 40 33 4b 40
       3.040232 2.8462648 2.8638153 3.175003

convs.2.block1.1.running_mean f4 [8]
000000 06 40 20 3f 53 1f 03 3f 98 3c 13 be f4 96 e9 3e
       0.6259769 0.5121967 -0.14378583 0.4562298
000010 16 a4 26 3f 98 23 8d bf 08 57 69 bd db 2b 3c 3f
       0.65094125 -1.1026487 -0.056967765 0.7350442

convs.2.block1.1.running_var f4 [8]
000000 82 37 cb 3c f6 6e 69 3c 89 a0 5c 3c 8a c6 cb 3c
       0.024806742 0.014247647 0.013466009 0.024874944
000010 63 68 93 3c ee 1c 69 3d e6 7f 88 3c 3e 2b b0 3c
       0.017994111 0.056912355 0.01666255 0.021504994

convs.2.block2.0.weight f4 [16, 8, 3]
000000 28 57 2b be 7b 98 83 bd af eb 2b be 2d da 69 be
       -0.16732466 -0.06425568 -0.16789125 -0.22837134
000010 fe e3 e5 3c c3 99 3c 3e 38 16 df be 8b 12 09 be
       0.028062817 0.1841803 -0.4357164 -0.1338598
000020 22 8a ec 3d 09 50 1a bf a4 1c 83 be 5a ba b5 3d
       0.11549784 -0.60278374 -0.2560779 0.08873434
000030 e6 e3 35 3d 50 10 72 3c 6d 22 cb 3b 0c c0 64 3e
       0.044406794 0.014774397 0.006199172 0.22338885
000040 8e f4 92 be e9 d5 15 be 38 89 54 bd f9 51 a3 3e
       -0.28702205 -0.14632381 -0.051888674 0.31898478
000050 85 26 4d bd 64 51 94 3e 62 f7 9f be 07 12 f7 be
       -0.050085563 0.28968346 -0.31243426 -0.4825594
000060 4c ef d9 3d f8 55 24 3d c4 1b 95 3e d6 7d 87 3e
       0.106413454 0.04012105 0.29122746 0.26463193
000070 7e 13 ca 3d c4 8c a4 3d 95 76 a3 3e 79 18 fe 3c
       0.09866999 0.080346614 0.31926408 0.031017529
000080 a8 e4 c2 be 39 39 d4 3e 02 c6 43 bc e6 6e b5 3b
       -0.38065076 0.41449907 -0.011949064 0.0055369018
000090 ed ec 75 3d 06 cb 02 be 75 1f b2 3e be 7c 97 3e
       0.060040403 -0.1277276 0.34789625 0.29587358
0000a0 e7 26 44 be f3 2a 43 3e b4 cd 0b be 7d 47 09 bd
       -0.19155465 0.19059353 -0.13652688 -0.033515442
0000b0 bb f0 9e bc db 5b 7b 3e 90 d4 86 be 32 8a 2b 3f
       -0.019401899 0.24546759 -0.26334047 0.67007744
0000c0 7e e3 bf bd 43 3b e7 bc 80 17 0e be 3b f6 83 be
       -0.093695626 -0.0282265 -0.13876152 -0.25773796
0000d0 91 b8 43 3d 73 84 64 3e 84 c1 23 bf 4b 38 62 be
       0.047783438 0.2231615 -0.63967156 -0.22091787
0000e0 5e c2 17 3d 19 d1 a7 be c1 9c 1f be e0 f0 c5 bd
       0.037050597 -0.32776716 -0.1558714 -0.09665084
0000f0 ed 18 e2 3d 52 57 b5 3d 67 2d 01 be bf f8 56 3e
       0.110399105 0.08854546 -0.12614976 0.20993327
000100 5a 54 9d be d4 34 5f be 49 e5 11 be e6 48 8d 3e
       -0.30728418 -0.21797496 -0.14247622 0.2759468
000110 cc 43 d1 bd 54 fe 49 3e bf d1 89 be d3 c2 ce be
       -0.10218009 0.19725925 -0.26917836 -0.40383014
000120 11 5c 11 3d 48 2c 1c 3d f0 40 80 be bd 81 6d be
       0.035488192 0.038128167 -0.25049543 -0.23194022
000130 a1 e6 f2 3d 4b e6 11 bd 1e af 3a bf 44 39 8a bd
       0.11860395 -0.035620015 -0.7292346 -0.06749204
000140 11 1f 3e 3d 78 21 d8 be fc 7e a6 be cb 4a 05 3d
       0.046416346 -0.42213035 -0.32518756 0.03254203
000150 12 7c 46 bd 5b 26 13 3e 4a e5 6b 3d 71 8e 2e 3e
       -0.048458166 0.143701 0.057591714 0.17046525
000160 7c 29 a8 be bd 53 38 be e5 79 9f be 24 8d c0 3d
       -0.3284415 -0.18000694 -0.31147686 0.094019204
000170 03 f8 93 bc d3 13 8c 3e e2 79 b9 be 83 57 a1 be
       -0.018062597 0.27358875 -0.36225802 -0.3151208
000180 0b 77 87 bd a3 5b 9d 3c c8 19 4d 3c 8b 9f 42 be
       -0.066145025 0.019208735 0.012518354 -0.19006173
000190 c3 9f 28 3c 32 f5 ab 3d 16 76 28 bf a6 88 a0 be
       0.010291996 0.08396377 -0.65805185 -0.31354254
0001a0 d6 15 6a 3c 58 b9 25 bf 4e 8d ca bd 39 8b f9 3d
       0.014287433 -0.6473594 -0.09890233 0.12184758
0001b0 88 54 04 3d fe 25 2a 3c 56 e5 11 be e2 5c 71 3e
       0.032307178 0.010385035 -0.14247641 0.23570588
0001c0 55 54 8b be b4 70 02 be 49 86 69 3c 5f 23 70 3e
       -0.27212778 -0.12738305 0.0142532075 0.23450993
0001d0 d4 31 21 bc 75 bf 6c 3e 6f 8d 93 be b2 5b d3 be
       -0.00983854 0.2311991 -0.28818843 -0.41280895
0001e0 85 3e e4 bd bc 67 3c 3e 7a 8a 83 be 42 3a 29 be
       -0.11144737 0.18398947 -0.25691587 -0.1652613
0001f0 c1 ed 7e 3d a5 25 8e 3d d1 e4 e5 be 77 26 3a be
       0.06223846 0.06940774 -0.44901136 -0.18178736
000200 f4 90 2d be 7c 7d 07 bf 53 44 2e be d5 85 bb bc
       -0.16949826 -0.5292585 -0.17018251 -0.022890965
000210 81 af f5 3d f7 a4 05 3d f4 4f 13 be 96 cf 96 3e
       0.11996365 0.032628026 -0.14385968 0.2945525
000220 3b d5 70 be 9d b3 1d be 36 30 09 be e2 8d 36 3e
       -0.23518841 -0.15400548 -0.13397297 0.17827561
000230 4a dc 90 3e 6d 05 46 3e 15 a3 dc be c1 87 be be
       0.28293067 0.19338007 -0.43093172 -0.37212947
000240 96 5d 08 be ff a9 ba bd 5d e5 04 be bf 4a 11 be
       -0.1331695 -0.091144554 -0.1297812 -0.1418867
000250 d5 8c 1f 3e 45 6c c7 3c 97 fd de be 92 b4 4f bd
       0.15581067 0.02434362 -0.4355285 -0.050709315
000260 6c 05 69 bd 11 5f d3 be 24 b7 dd bd af c5 2c 3e
       -0.056889936 -0.41283467 -0.10825947 0.16872285
000270 cd d2 cd bd 48 2e b8 3d 18 08 1c 3d cc 4e 33 be
       -0.10049973 0.089932024 0.038093656 -0.17510527
000280 67 13 b2 be 42 2b dd be 60 55 58 3d 11 6b e4 bc
       -0.34780428 -0.43197066 0.052815795 -0.027883084
000290 31 e2 03 be 40 a0 76 3e fc 93 d9 be be 1d ca be
       -0.12879254 0.24084568 -0.42495716 -0.39475816
0002a0 b0 09 7c 3e 1b 8b 37 bc b1 34 09 bb dd 39 23 3e
       0.2461307 -0.011202599 -0.0020935948 0.15940042
0002b0 d8 89 3c bd c2 3c 90 bd 34 0a a1 3e c9 dd 0a 3f
       -0.046029896 -0.07042839 0.31453097 0.5424467
0002c0 6a 95 9b bd 31 96 8a 3e a6 d7 cd 3e 8f 4a ed bd
       -0.07596858 0.27067712 0.4020359 -0.115864865
0002d0 fd 9f 8c 3d 46 9d 2e 3c d5 49 67 3d fb de 84 be
       0.06866453 0.010657614 0.056466896 -0.2595137
0002e0 91 a4 8a 3e 18 4c fa 3d b3 2b 64 be c5 01 4f 3e
       0.2707868 0.12221545 -0.22282295 0.20215519
0002f0 b3 20 d3 3c f4 82 59 3e c0 da bc 3e 85 50 b9 3e
       0.025772428 0.21241361 0.36885643 0.36194244
000300 69 11 74 be f6 d8 5d bd e5 28 86 bd c9 b7 1b be
       -0.23834766 -0.05416199 -0.06550769 -0.15206827
000310 b0 28 0e 3e 9f 4f d0 ba 45 c5 17 bf ed 9b ce be
       0.13882709 -0.001589287 -0.59285384 -0.40353337
000320 ae 4b 29 3e a6 0d 1f bf 48 08 8b be 59 b7 1d be
       0.16532776 -0.621302 -0.27154756 -0.15401973
000330 71 c2 47 3d 00 2c 77 bc f2 7b 60 bd 08 1f 59 3e
       0.04876942 -0.015086174 -0.054805703 0.21203244
000340 71 0b 84 be 18 44 ef bd 36 da 1f be a4 b9 dc 3d
       -0.2578998 -0.1168291 -0.15610585 0.10777596
000350 a0 a8 62 3e 6a b6 4a 3e 46 2d a4 be 5d ca b1 be
       0.22134638 0.19796148 -0.3206579 -0.34724703
000360 7d b4 18 be b0 4a 79 3e 5c be 8e bd da 78 6b be
       -0.14912601 0.24344897 -0.06969902 -0.2299532
000370 15 f3 b3 bb 76 99 91 3d ae d1 8d 3e 1b 5c 22 be
       -0.005491624 0.071093485 0.27699035 -0.15855448
000380 a0 08 9b 3e 77 84 f5 3d 14 86 c9 bc 0d dd 0e 3d
       0.30280018 0.11988156 -0.024600066 0.03487878
000390 d0 d3 f7 bd 97 eb d7 3d 36 ec a7 bd 6e 5b a0 bc
       -0.12100947 0.10542982 -0.081993505 -0.019574847
0003a0 ff 07 06 bf 47 ef 63 be c3 e3 e4 bc 05 b5 bb bc
       -0.5235595 -0.22259246 -0.027940637 -0.022913465
0003b0 ab 97 10 bc 80 a7 cd 3e c3 71 45 be f6 81 78 be
       -0.008825223 0.40166855 -0.19281678 -0.24268326
0003c0 df 01 f0 3d 7f 9f b2 3e b5 a1 a8 3e ec 25 4a 3e
       0.11719107 0.3488731 0.32935873 0.19741029
0003d0 3a 75 c1 bd d2 eb 4b 3e 18 f1 82 be 94 1a 5b bd
       -0.09446187 0.19914177 -0.25574565 -0.053492144
0003e0 24 78 1f be 4e 58 17 be 66 ea cf bc e8 40 3b bc
       -0.15573174 -0.1477978 -0.025380325 -0.011429049
0003f0 1e 4e 6c 3e 2c 35 10 3e cf 30 d1 3d b6 05 f5 be
       0.23076674 0.14082783 0.102143876 -0.4785592

convs.2.block2.0.bias f4 [16]
000000 ed f0 25 be d8 be 75 be be 62 2f 3e 73 bc c2 bd
       -0.16205187 -0.23998582 0.17127511 -0.095086
000010 95 20 8d be 83 c2 e4 bd a6 60 7d 3d 38 46 67 3e
       -0.2756392 -0.11169913 0.06185975 0.2258538
000020 4a 95 2a bd 61 32 26 bd 8e b5 4a bd 31 82 95 3e
       -0.04164628 -0.04057539 -0.04948955 0.2920089
000030 43 07 10 3e 23 e8 6f 3e 55 c3 d7 bd 1a 88 d7 3d
       0.1406527 0.23428397 -0.105353035 0.10524006

convs.2.block2.1.weight f4 [16]
000000 9f 18 9b 40 ef 41 79 40 1d 2c 99 40 33 49 9c 40
       4.8467555 3.8946493 4.786635 4.8839355
000010 8e b9 99 40 82 f0 99 40 55 e4 99 40 1b e1 7b 40
       4.8039007 4.810609 4.8091226 3.9356143
000020 ae e0 9d 40 6b a6 8d 40 62 8e 6b 40 20 fc 98 40
       4.9336767 4.4265647 3.6805654 4.780777
000030 99 84 98 40 89 55 81 40 a3 d4 9d 40 fd 2f 9c 40
       4.766186 4.0416913 4.9322066 4.880858

convs.2.block2.1.bias f4 [16]
000000 69 6c 4c 40 34 d6 55 40 99 36 4c 40 5b de 47 40
       3.1941168 3.341199 3.1908324 3.1229465
000010 c6 76 4a 40 cd 25 51 40 2b 61 4e 40 96 04 53 40
       3.1634994 3.2679322 3.2246807 3.297155
000020 50 93 4d 40 fd 6a 58 40 ae 77 60 40 5b 2a 4b 40
       3.2121162 3.38153 3.5073047 3.1744602
000030 45 c9 52 40 8b 19 5e 40 84 d6 47 40 ca 77 48 40
       3.2935345 3.470309 3.122468 3.1323113

convs.2.block2.1.running_mean f4 [16]
000000 58 29 e7 c0 a5 0f e3 40 9a 97 ee c0 51 03 0a c1
       -7.223797 7.0956597 -7.456006 -8.62581
000010 e2 19 f4 c0 24 90 e3 c0 ec bd 0c c1 42 1c 1a 41
       -7.6281595 -7.1113453 -8.796368 9.631899
000020 37 a1 11 c1 e6 2b d8 bf e9 93 91 3f 5c 6b ef c0
       -9.101859 -1.6888397 1.1373264 -7.4818554
000030 90 dc 09 c1 11 da f0 c0 6b c2 ed c0 4a a5 ce c0
       -8.616348 -7.5266194 -7.4299827 -6.457677

convs.2.block2.1.running_var f4 [16]
000000 69 a8 ad 40 d9 47 f7 40 f9 75 89 40 6c 6c cd 40
       5.426808 7.7275205 4.295651 6.419485
000010 02 be 06 41 62 77 86 40 3e d0 ad 40 00 4b 6e 40
       8.421389 4.202073 5.43167 3.7233276
000020 f8 02 ca 40 54 ed 7b 40 42 d1 b1 40 15 cc c8 40
       6.3128624 3.9363604 5.556794 6.2749124
000030 33 a0 58 40 4e 2f cf 40 62 3d cf 40 31 cb b7 40
       3.3847778 6.4745245 6.476243 5.7435536
