runs/base.pt (torch, 44799 bytes, 61 tensors)

convs.0.block1.0.weight f4 [8, 1, 3]
000000 db 0b 68 3e 1b 18 ba be 4a 30 46 3e ea 47 94 be
       0.22660773 -0.36346516 0.19354358 -0.28961116
000010 52 21 0b 3f 96 ac a4 be 1c 46 87 be 15 e8 ea 3e
       0.5434772 -0.32162923 -0.26420677 0.4588019
000020 34 b7 79 be a8 1f 0e 3e 2e 07 b8 be 97 fd 76 3e
       -0.24386293 0.13879263 -0.35942978 0.24120174
000030 16 e8 08 be bf b2 80 3e 5a c5 0e be 15 9d 15 3e
       -0.13369784 0.25136372 -0.13942471 0.14610703
000040 87 28 82 be 49 4d 0a 3e 15 aa ac be 81 8e 11 3f
       -0.25421545 0.13506044 -0.33723512 0.5685807
000050 4c fe 98 be 3c 19 49 be f4 42 bf 3e 29 69 66 be
       -0.29881513 -0.19638532 0.3735577 -0.22501053

convs.0.block1.0.bias f4 [8]
000000 55 70 08 bf af a2 37 bd 0f f6 d1 be 13 57 09 3f
       -0.53296405 -0.04483288 -0.4100804 0.5364849
000010 c4 ba f9 3e eb 72 72 3e 12 69 50 3e 11 6a 08 3e
       0.48775303 0.2367665 0.20352581 0.13321711

convs.0.block1.1.weight f4 [8]
000000 c4 bd b0 40 30 ec b2 40 8d a3 b3 40 1f 35 b0 40
       5.5231647 5.5913315 5.6137147 5.5064845
000010 72 7c b1 40 8d 50 b2 40 e4 55 b1 40 a5 28 b3 40
       5.546441 5.572333 5.5417347 5.5987115

convs.0.block1.1.bias f4 [8]
000000 31 08 95 40 fc 0a 96 40 04 e3 96 40 6a b1 96 40
       4.65725 4.688841 4.715212 4.709157
000010 df ac 95 40 69 d7 95 40 a0 c7 94 40 33 e5 96 40
       4.6773524 4.682545 4.6493683 4.7154784

convs.0.block1.1.running_mean f4 [8]
000000 30 13 07 bf 0d af 3d bd e7 f5 d2 be 2f 07 09 3f
       -0.5276365 -0.04630952 -0.41203234 0.53526586
000010 f7 1a f9 3e 22 43 75 3e 61 dc 4b 3e e1 ec 06 3e
       0.48653385 0.2395139 0.19908287 0.131763

convs.0.block1.1.running_var f4 [8]
000000 c9 34 f1 3c bd 9b 81 3d 6d b1 37 3d 94 36 da 3c
       0.029444115 0.06328533 0.04484694 0.026637353
000010 6b be 58 3c 4c 23 62 3c 4f b9 8e 3d 84 ce f5 3c
       0.013228993 0.013802361 0.069689386 0.0300057

convs.0.block2.0.weight f4 [16, 8, 5]
000000 24 76 bb be 6b c9 10 bd 64 cc 1d 3e 76 4c 9f bc
       -0.36613572 -0.035348337 0.1541 -0.01944564
000010 21 2c b8 3e 23 c9 76 be 1c 17 1a bd 28 de 58 3d
       0.35971168 -0.24100165 -0.037619695 0.05294624
000020 fc 85 74 be b7 77 14 3e 99 6e 20 be 5d da 32 bd
       -0.23879236 0.14498793 -0.1566719 -0.04366528
000030 7d 71 bc bd 74 a2 8b bc 25 3e f5 3d bf 42 73 bd
       -0.09201334 -0.017045237 0.11974744 -0.059389826
000040 e2 66 19 bd bc c1 bc bd 79 8c a4 be df d2 b4 3e
       -0.037451632 -0.092166394 -0.32138422 0.35317132
000050 da 6b 4b 3d 39 33 01 3d 41 03 b1 3d 85 fd f4 bc
       0.049663402 0.03154299 0.08643199 -0.029906044
000060 66 41 f7 bc e3 34 84 be b7 ba 9b 3c ef 98 75 3d
       -0.030182552 -0.258216 0.019009931 0.059960302
000070 06 0a 19 3e 98 eb 21 3e d1 be 0a be a0 a2 8e 3d
       0.1494523 0.15812528 -0.13549353 0.06964612
000080 08 70 17 be 25 22 ec bc d7 33 cb 3d dd 63 58 be
       -0.1478883 -0.028824875 0.09921997 -0.21131845
000090 c4 76 3c bc a8 2d 6c bc 9f 88 c8 bd 23 ff 0a 3e
       -0.011502925 -0.014415182 -0.097916834 0.1357389
0000a0 ce 46 22 3e 20 08 1d be ad b6 42 3c 46 86 cf bc
       0.15847322 -0.1533513 0.011884374 -0.025332581
0000b0 bf 2d 70 3e 16 4a 10 3e b5 fb c8 bd df 3b f3 bd
       0.23454951 0.14090762 -0.09813634 -0.11876654
0000c0 57 b7 af bd 57 91 3e 3d 7a b6 6a 3d a9 72 c4 bd
       -0.08579891 0.046525326 0.05730293 -0.09592182
0000d0 eb 70 bb 3d 62 61 9d bd b9 b5 45 3e 31 a7 cb 3e
       0.09152397 -0.0768459 0.19307603 0.39775994
0000e0 ab 40 37 3d ca b0 9f 3d 03 0a e3 be 07 41 6a 3e
       0.044739407 0.07797392 -0.44343576 0.22876368
0000f0 db f1 6d 3d e9 27 fd bc 12 5e c6 3d 5a 4c c8 bd
       0.05809198 -0.03090282 0.09685911 -0.09780188
000100 c7 d2 3d 3e 0b fe da 3d b0 b0 ea bb 0a b1 a8 bd
       0.18537436 0.10692986 -0.007162176 -0.082368925
000110 94 2f 28 be 62 ae 0a 3e 5a 08 ef bc df 36 ad bd
       -0.164244 0.13543084 -0.029178787 -0.084577315
000120 00 2b 69 3d 93 ae be bd f0 42 46 3d f5 42 ad 3e
       0.056925774 -0.09310641 0.04840368 0.33840147
000130 14 a8 fe 3d 30 f9 2d 3d 5e 9e 53 be 9f 92 00 3c
       0.12434402 0.04247397 -0.20665881 0.007847457
000140 6a 18 29 3d 98 15 a7 3d 50 9a d5 bc 09 49 3f 3d
       0.04128305 0.081584156 -0.026074558 0.04670051
000150 37 e9 c9 3c f0 8d 1f bd 06 0e 89 3d b8 f5 9f 3d
       0.024647338 -0.03895372 0.06692128 0.07810539
000160 9b 2d 42 3d 87 6d a9 be ca 03 4b bc cd f0 91 bd
       0.047406774 -0.33091375 -0.01239104 -0.07126007
000170 1a f8 32 3d d2 07 95 3c dd 25 4c be 54 57 d1 bc
       0.04369364 0.018192206 -0.19936319 -0.025554337
000180 62 20 46 ba a8 57 ad bd ab f4 fe be c8 8d b4 be
       -0.0007557926 -0.08463985 -0.49796042 -0.3526442
000190 04 e0 36 3d 76 30 3e 3e 44 23 3a 3d 85 23 c9 bd
       0.04464723 0.18573174 0.04544379 -0.09821228
0001a0 24 d4 ce bd d9 81 4b bd 80 85 d6 3c 83 b9 85 bd
       -0.10099056 -0.04968438 0.026186705 -0.06529524
0001b0 7e 8f 0a 3e 62 4a 88 bd d1 88 09 bd 3c 2a 50 bd
       0.135313 -0.066548124 -0.033577744 -0.050821528
0001c0 33 dd b9 bc 93 ca c4 3d 24 13 b7 be 43 2f ce 3d
       -0.022688484 0.096089505 -0.3575679 0.10067608
0001d0 eb 8c f4 3d 69 1e 08 3d bb a9 91 bd e5 17 c3 be
       0.119409405 0.033232126 -0.07112452 -0.38104168
0001e0 9f ed 70 3d 03 7d 94 be 6a 9e 87 be be 82 2a bd
       0.058820363 -0.29001626 -0.26488048 -0.04162859
0001f0 d1 e3 c5 bc 9c 2d 39 3e 30 b7 b9 3d e8 19 7f 3d
       -0.024156483 0.18083805 0.09068143 0.062280566
000200 e1 16 df 3c fa a3 78 bd 0b e4 0f 3e 0d 0c 2f be
       0.02723259 -0.060703255 0.14051835 -0.17094441
000210 d8 14 5a 3d e3 44 23 bd f3 c6 61 bd 2f ff d2 3e
       0.053242534 -0.039860617 -0.055121373 0.41210315
000220 22 a6 66 3e c1 1b 87 3d 39 40 18 be d9 3f e7 be
       0.22524312 0.065970905 -0.14868249 -0.451659
000230 53 05 86 3d 1c 68 1d 3c 3b 4a 82 bd b5 70 94 bc
       0.06543984 0.009607341 -0.063618146 -0.01812015
000240 b6 0e b0 bb 5b f5 6b 3e 83 66 cb bc bf 45 d4 3d
       -0.0053728474 0.23042814 -0.024829155 0.103648655
000250 db 05 27 3e 09 84 a6 3c 03 2f c1 3c 81 86 14 be
       0.16310827 0.020326631 0.023581987 -0.14504434
000260 b7 ab c5 3c ac c6 24 bc 6b 21 9d be 03 e5 82 3d
       0.024129732 -0.010057133 -0.30689558 0.06391337
000270 eb 24 47 bd e4 f6 d1 3d 57 d9 16 be 2a f4 5c be
       -0.048619192 0.10252169 -0.14731346 -0.21577516
000280 ac ed 9a bd 5e bf 62 bd f0 c3 55 bd 50 51 c4 3d
       -0.075648636 -0.055358283 -0.052188814 0.09585822
000290 06 98 e9 3d d7 28 cc 3d a3 c7 83 3d 85 32 b2 bc
       0.11405949 0.09968727 0.06434562 -0.021752605
0002a0 23 19 88 3d 3f bb 94 be 5d d6 ba ba 29 75 66 bb
       0.066454194 -0.29049107 -0.0014254559 -0.0035165048
0002b0 c4 e9 ff bc e5 97 67 bc e0 2a a4 be bc f6 da 3d
       -0.031239398 -0.014135336 -0.3206396 0.10691592
0002c0 84 93 7c 3d 77 6a f6 bc 7f 05 f9 be 99 af b7 be
       0.06166412 -0.030080063 -0.48637006 -0.35876158
0002d0 f1 17 3a 3d 02 36 18 bc 0e b6 c8 3d 88 ac 42 bd
       0.04543299 -0.00929022 0.09800349 -0.04752782
0002e0 8f 1f 28 be f9 63 b6 3d f9 a3 d9 3d 3a 5e b4 bd
       -0.16418289 0.08905787 0.106269784 -0.08807035
0002f0 40 7a 3e 3d 96 23 16 be 27 f6 17 bd b7 3e 92 3c
       0.046503305 -0.14662012 -0.037099984 0.01785217
000300 0f 4c 93 3d 16 f3 b0 3d d5 c1 ad be fb 77 d0 3c
       0.071922414 0.08640115 -0.33936945 0.025447836
000310 cf 63 03 3e f6 59 9a 3d ac 3a d3 bc 69 25 98 be
       0.12831043 0.0753669 -0.025784813 -0.29716042
000320 c0 07 18 3e 25 5e be bd 7d 66 b1 bd d5 4b a5 bd
       0.14846706 -0.092953004 -0.08662126 -0.080711044
000330 12 55 2a 3e ee dc 97 3d 9e 06 9f 3d 0c 2b 90 bd
       0.16634014 0.07415186 0.07764934 -0.070394605
000340 df 38 1d be d0 a6 b8 bc a8 7a 94 3d cc de 28 3d
       -0.15353726 -0.02254048 0.07249957 0.0412281
000350 6c b7 55 3d 34 22 83 be 70 56 fc 3d 4a 6b 87 3e
       0.052176878 -0.25612032 0.12321174 0.26449043
000360 b7 ac 20 3d c7 96 48 3d 8a 28 ff be f0 81 5e 3e
       0.039227214 0.048971917 -0.49835616 0.21729255
000370 d1 93 49 3e e8 b2 5b bc 17 98 5c 3e 05 e3 68 3d
       0.19685294 -0.013409354 0.21542393 0.056857128
000380 4f 11 d2 3b 25 9f 70 3d 11 cd 73 bd 61 e6 63 3c
       0.0064107548 0.058745522 -0.05952174 0.013909907
000390 fd 3a 7e bd b3 29 3d 3e 19 08 7e 3d 91 3d 4e be
       -0.062067974 0.18472938 0.06201944 -0.20140673
0003a0 2c 55 52 3d b9 23 5d 3b da df 04 3e 9a 97 57 3b
       0.051350757 0.0033743216 0.12976018 0.0032896758
0003b0 71 d4 be bd 45 77 bf bd 5a 0e 5c be 79 39 4f 3e
       -0.09317864 -0.09348921 -0.2148985 0.20236768
0003c0 cf ff 07 3e 00 4e 83 3d b0 a6 31 3c 10 b5 9a be
       0.13281177 0.06411362 0.010842964 -0.30216265
0003d0 43 2d b9 3e 8a 2a 1f 3d c1 15 22 bd c7 70 f8 3c
       0.36167344 0.038858928 -0.039571527 0.030327214
0003e0 b6 1e 4e be 4e f8 ee bd 06 46 14 3c bb 6a 28 be
       -0.20128903 -0.11668454 0.009049898 -0.16446964
0003f0 8e 0f 25 bd 87 f1 1d be f2 2e 2b 3e d2 bf 9f 3e
       -0.040298037 -0.15424167 0.16717127 0.31201035

convs.0.block2.0.bias f4 [16]
000000 ed 98 b4 bd 59 da df bd 49 14 c0 bd b3 1e aa 3d
       -0.08818231 -0.109303184 -0.09378869 0.08306637
000010 c5 c8 58 3d 76 e1 2d bb 9b 8f da 3b b6 d9 d9 3d
       0.052925844 -0.002653209 0.006669951 0.10637228
000020 98 b7 0c be 27 62 2c 3e 0a f4 b4 bd 14 65 48 3e
       -0.1374191 0.16834317 -0.08835609 0.19569808
000030 34 85 04 bd ea 54 18 3e f1 73 93 bc ac a4 3a 3e
       -0.032353595 0.14876142 -0.017999621 0.1822688

convs.0.block2.1.weight f4 [16]
000000 f2 b6 ac 40 1b 28 b0 40 9b ce ae 40 92 2f af 40
       5.397332 5.5048957 5.4627204 5.474557
000010 18 0d ae 40 7f cf b0 40 75 01 b1 40 59 27 af 40
       5.4390984 5.525329 5.531428 5.473553
000020 c9 5e ae 40 09 4b b0 40 44 ee ae 40 69 23 ae 40
       5.4490705 5.5091596 5.466585 5.4418225
000030 7b b2 ae 40 a6 8c b0 40 65 94 ae 40 7f ad ad 40
       5.459287 5.517169 5.4556146 5.4274287

convs.0.block2.1.bias f4 [16]
000000 1d d6 96 40 35 2f 96 40 9d 26 97 40 96 70 97 40
       4.713637 4.6932626 4.7234635 4.7324934
000010 f8 d6 96 40 c1 e4 96 40 0a 15 97 40 25 05 98 40
       4.7137413 4.715424 4.7213182 4.750628
000020 b9 38 96 40 bb 1d 97 40 66 a2 97 40 d7 64 95 40
       4.694424 4.722379 4.738574 4.6685596
000030 67 8a 97 40 0b 2e 98 40 7e 66 97 40 0a ed 96 40
       4.735645 4.7556205 4.7312613 4.7164354

convs.0.block2.1.running_mean f4 [16]
000000 48 73 a6 c0 fb 9f bf 40 1a 18 55 c1 de b0 5e c0
       -5.2015724 5.988279 -13.318384 -3.479545
000010 4d bb 36 c1 f8 5b 28 40 a6 c7 6f 40 e1 83 82 c0
       -11.420728 2.6306133 3.7465606 -4.0785985
000020 bc ec ec c0 eb 73 84 40 36 86 8f c0 43 c5 d2 c0
       -7.4038982 4.13915 -4.485133 -6.58658
000030 78 05 c3 c0 ae c1 aa c0 16 62 60 c1 7c 03 c0 c1
       -6.0944176 -5.3361425 -14.023947 -24.001701

convs.0.block2.1.running_var f4 [16]
000000 3a 81 81 42 e1 41 89 42 a3 d7 8e 42 c8 3c 3e 42
       64.752396 68.62867 71.421165 47.559357
000010 d2 f2 96 42 98 bc 5b 42 bb 5e 96 42 04 41 e7 41
       75.47426 54.934174 75.18502 28.906746
000020 5c 79 31 42 68 47 94 42 8a c3 74 42 2b b3 4a 42
       44.368515 74.139465 61.190956 50.67497
000030 a7 32 47 42 c5 52 16 42 c9 fc 90 42 37 00 94 42
       49.799465 37.58083 72.49372 74.00042

convs.1.block1.0.weight f4 [8, 1, 3]
000000 50 fa 8f 3e fc 8d 81 3e ee cb 17 bf cf 98 98 3e
       0.2812066 0.25303638 -0.59295547 0.29804084
000010 58 a3 ee be 13 3d 28 3e 79 be e1 be 0d 8d 9d bc
       -0.46608996 0.16429548 -0.44090632 -0.019232297
000020 4a 8a c9 3e 0e 5d a7 3e 91 0f 24 3e e2 09 08 bf
       0.3936332 0.32688183 0.16021563 -0.5314008
000030 39 e2 a6 bd 24 ae ec be 9b fb 0f 3f e2 e4 98 be
       -0.08148617 -0.4622661 0.56243294 -0.29862124
000040 9a 54 bf 3e 1e 10 99 bd 72 20 2f 3f d0 29 f3 be
       0.37369233 -0.07473777 0.6840888 -0.47492838
000050 c1 d0 84 be 25 0d b0 3e d2 e0 1f bf c4 c6 73 3e
       -0.25940517 0.34385028 -0.62452424 0.23806292

convs.1.block1.0.bias f4 [8]
000000 5d a8 f6 bd a2 65 f7 be a9 2c 0c 3f 2f 55 99 3e
       -0.120438315 -0.48319727 0.54755646 0.29947802
000010 6e 72 0e bf 21 4c c5 be 89 48 a1 be 10 39 ef bd
       -0.55643356 -0.38534644 -0.31500652 -0.11680806

convs.1.block1.1.weight f4 [8]
000000 31 fa a4 40 13 78 a6 40 a7 59 97 40 49 85 a9 40
       5.155541 5.2021575 4.729694 5.29752
000010 96 d6 96 40 71 16 a0 40 c8 74 9d 40 7e 98 a6 40
       4.7136946 5.0027394 4.9205055 5.206115

convs.1.block1.1.bias f4 [8]
000000 9c 44 96 40 cd f5 95 40 48 36 97 40 48 66 97 40
       4.695875 4.686255 4.725376 4.7312355
000010 0a 83 96 40 d0 09 94 40 c8 ba 96 40 5a 10 96 40
       4.703496 4.626198 4.7103004 4.689496

convs.1.block1.1.running_mean f4 [8]
000000 55 60 2c be 8a c2 02 bf 8f dd ea 3e 88 25 89 3e
       -0.16833623 -0.51078093 0.4587216 0.26786447
000010 9b b3 0e bf 49 c4 bd be 20 e4 c7 be 28 80 50 be
       -0.55742806 -0.37063816 -0.39041233 -0.20361388

convs.1.block1.1.running_var f4 [8]
000000 a7 d9 0e 3d 10 f3 75 3c 2c 2e 1d 3d 92 98 10 3d
       0.03487554 0.015011564 0.03837411 0.035301752
000010 c6 7d 90 3c b0 c7 68 3c d9 40 ac 3d 91 6c b3 3c
       0.017638098 0.014207765 0.08410806 0.021902354

convs.1.block2.0.weight f4 [16, 8, 5]
000000 41 d3 a7 3e 3e 01 0c be 28 ff 08 3e 36 07 bf be
       0.3277836 -0.13672349 0.13378584 -0.3731019
000010 b1 ed f8 bd 0b e9 13 3c 99 d1 20 be 3f 9e ca 3d
       -0.12154711 0.00902773 -0.15704955 0.09893464
000020 8d 4f 08 3e 03 3a 6f 3e 73 fc e2 3c 56 20 ea be
       0.13311596 0.23361973 0.027708268 -0.45727795
000030 f4 4d 2b 3e d4 4c 74 be 8e be 9e 3d 1d 1d 28 3d
       0.16728956 -0.23857433 0.07751189 0.04104339
000040 41 18 89 bd 99 71 5c 3e 8c 6e 47 be 49 35 2e bc
       -0.06694079 0.21527709 -0.19475764 -0.010632821
000050 35 70 90 3e ae 34 77 3d f2 4f 15 3e a8 ca fe be
       0.28210607 0.060352974 0.14581278 -0.4976399
000060 d9 69 4f be 98 0f 97 bc 03 8f 11 be 2d 23 29 3e
       -0.20255221 -0.018440053 -0.14214711 0.16517325
000070 34 f0 5b bc 56 89 a7 3e d7 ce c5 3c 7a a1 18 be
       -0.013423968 0.32721967 0.02414648 -0.14905348
000080 f8 3f b4 3c 0d d7 3a be 39 c4 f9 3d 89 1b 39 bd
       0.022003159 -0.18246098 0.121956296 -0.045192275
000090 49 e1 71 be 93 c6 da bd 16 55 91 3d 92 5f 23 bd
       -0.23621096 -0.10682406 0.07096307 -0.039886065
0000a0 b7 f7 f6 bc 3d 0a 6f bd e0 65 cc bd a4 ed d9 bd
       -0.030147417 -0.058359373 -0.099803686 -0.106410295
0000b0 5f 2f bc be 90 12 18 be 0a 56 06 ba 74 fa 0b 3d
       -0.3675489 -0.14850831 -0.0005124515 0.034174398
0000c0 72 65 9d 3d 3e 67 f6 3d f7 36 48 be 92 18 96 be
       0.07685365 0.12031411 -0.19552217 -0.2931562
0000d0 88 5e 10 3d 7d f3 43 be cf 77 28 be 7f ac b2 b9
       0.035246402 -0.19135852 -0.16451953 -0.00034079325
0000e0 8a 9f 0d be 1f a5 a1 3d 08 bf 37 be 90 34 92 be
       -0.1383039 0.078928225 -0.17943966 -0.28555727
0000f0 b3 31 aa 3d 9e 7d c5 3d be 1a ff ba f1 e7 d5 bd
       0.083102606 0.096431 -0.0019462926 -0.1044463
000100 fe 88 0c bf 66 1b b7 be 44 df 33 bc 8c a5 9a 3c
       -0.54896533 -0.3576309 -0.010978524 0.018877767
000110 89 a3 9a 3d d0 0b 97 3e 03 99 13 be e0 eb 3e bd
       0.07550723 0.295012 -0.14413838 -0.046611667
000120 ea e3 d6 3d 79 16 05 3c ff b4 87 3d 44 e2 81 be
       0.1049269 0.008123034 0.06626319 -0.2536794
000130 db b3 5e bd 2c 4e 83 3c ca cd 00 bd a1 a5 bd 3d
       -0.054370742 0.016028486 -0.031446256 0.09260107
000140 90 09 f6 3b f4 38 cc bd c4 fc 94 bd db 9a 4f be
       0.007508464 -0.099718004 -0.07274774 -0.20273916
000150 de 5d ac be c0 a3 70 bd e7 15 18 be bd 11 ab 3d
       -0.33665365 -0.058749914 -0.14852105 0.08352993
000160 e9 9a 33 3e fa aa a7 3c dd 76 12 be ae 79 b4 be
       0.17539562 0.02046727 -0.14303155 -0.35249084
000170 58 cc aa 3d 14 63 0e be 2c 13 04 be a7 b5 a3 3d
       0.08339757 -0.13904983 -0.12897938 0.07993632
000180 ff a6 2c be b6 f8 05 3e 80 9b f0 bc 59 22 5a be
       -0.16860579 0.13083157 -0.029371023 -0.21302165
000190 bc eb da 3d 57 e6 19 bc 87 c4 4b bd 45 55 1b be
       0.10689494 -0.009393296 -0.04974797 -0.15169246
0001a0 bd 50 d3 be 00 ab 8c be 37 21 a6 be 06 f9 36 3e
       -0.41272536 -0.27474213 -0.32447216 0.17868432
0001b0 53 33 8f 3d 20 e4 42 3e 19 a6 03 be fb a4 91 be
       0.06992211 0.19032335 -0.1285633 -0.28446183
0001c0 4c 24 92 3d 06 78 5e bd 60 e4 f6 3d 6e f1 71 be
       0.07135829 -0.054313682 0.12055278 -0.23627254
0001d0 cb 66 50 be 91 d6 33 bd c6 e6 90 bd 72 39 9e 3b
       -0.20351712 -0.0439058 -0.070752665 0.0048286254
0001e0 c7 5f c3 3a eb 33 84 bd 6f c9 b1 bc 98 ad 56 be
       0.0014905863 -0.06455215 -0.021702496 -0.20964658
0001f0 ca a5 d6 be 8d f0 57 3d bb 99 cc bd 23 32 8e bd
       -0.41923362 0.05271964 -0.09990259 -0.069431566
000200 c8 34 0d 3d bc 7e 00 3e 16 ac 9a bd 1c e8 2e be
       0.034474164 0.12548345 -0.07552354 -0.1708073
000210 66 1b 37 3e 8b 5d c3 be ed ab 2a be 59 17 87 3d
       0.17881545 -0.38157305 -0.16667147 0.0659625
000220 82 a1 15 be 7d 01 87 3e 07 c5 b4 be a9 a9 b6 bd
       -0.14612392 0.26368323 -0.3530657 -0.08919079
000230 99 10 c5 3d ab e2 9d bd 90 0a c0 3d 49 8f bb be
       0.096223064 -0.07709249 0.09377015 -0.36632755
000240 77 47 b5 be 4d d4 78 bd e7 5e 7e be 6d 47 bc 3d
       -0.35406086 -0.06074934 -0.2484089 0.09193311
000250 82 dc a5 3d ef 41 9e 3e 73 bd 33 bd 21 e0 0a be
       0.08098699 0.30909678 -0.043881845 -0.13562061
000260 77 8d a8 3d 4c 4b b2 bd 2c 34 ad 3d 9d 7b 2b be
       0.08230107 -0.08705768 0.084572166 -0.16746373
000270 dd 3d ac bd da d5 c4 bb 64 81 d0 3d 51 91 5b 3c
       -0.08410237 -0.0060069384 0.10180929 0.013401345
000280 8c 5b 33 3e 51 c7 87 bd b8 ae 0d 3e 7c a2 ab be
       0.17515391 -0.066298135 0.13836181 -0.33522403
000290 59 d4 65 be 4d 13 a8 3b 6c 30 89 bd d8 b7 0f be
       -0.22444285 0.005129254 -0.06698689 -0.14034975
0002a0 f0 5c 21 3e 55 99 18 3e 8d da 11 3d a3 54 76 be
       0.15758109 0.14902242 0.035608817 -0.24055724
0002b0 a1 7b 67 3d 7c 55 64 be 34 fc 5b bd 48 36 a1 3d
       0.056514386 -0.22298235 -0.053707317 0.078716815
0002c0 f2 bb 07 be 41 1e bb 3d 86 8f 7a be 5e 6d fc bd
       -0.13255289 0.0913663 -0.24468812 -0.12325548
0002d0 80 d2 54 3e 7c 21 77 bd 83 af 66 3e f8 30 0e bf
       0.20783424 -0.060334668 0.2252789 -0.5554347
0002e0 b9 95 c3 be 25 a9 1e bd 23 ba 2c be 05 c8 12 3e
       -0.38200167 -0.038735528 -0.1686788 0.14334114
0002f0 37 9f 73 3d d0 07 93 3e e6 d2 e8 3c f0 01 fc bd
       0.05947801 0.28716898 0.028420877 -0.12305057
000300 49 63 29 3e 8b af 2f be b0 a2 4b 3d 28 ed 15 bc
       0.1654178 -0.17156808 0.049715698 -0.009150781
000310 6d e4 7b be c9 c5 80 3c 38 c1 da 3d f2 ea c6 3d
       -0.24598856 0.015719311 0.10681385 0.09712781
000320 98 fe 4c 3e 7d c3 42 bc ec c3 1b 3c e5 ef 7d be
       0.20018995 -0.011887428 0.009507161 -0.24798544
000330 31 83 c0 bd cc f3 9c be 44 15 b8 bd 3e 52 9d bd
       -0.09400023 -0.30654752 -0.08988431 -0.07681702
000340 8b c9 dd 3d 12 05 ce 3d 1e 25 90 be ef fe 76 be
       0.10829457 0.10059561 -0.28153318 -0.24120687
000350 c7 03 ec 3d 9d ee b8 be b4 e1 63 3e dc 14 b3 3d
       0.11524158 -0.36119547 0.22254068 0.08744213
000360 f8 05 2e be b9 50 6b 3e 70 e1 86 be bf 1d ca 3b
       -0.16994464 0.22980012 -0.2634387 0.006168097
000370 5a 2c 9d 3e 18 78 b7 3b 7f 27 d9 3d 3d fc c8 be
       0.306979 0.005599033 0.106032364 -0.39254943
000380 bd 68 19 be cf 12 c0 be 02 9c 6e bd 75 fc cb 3d
       -0.1498136 -0.3751435 -0.05825425 0.09960262
000390 5d cc 10 3e 3b 8c 92 3e 01 fb 6d be 99 83 00 be
       0.14140458 0.28622612 -0.23240282 -0.125502
0003a0 f6 95 1f 3e 57 55 40 be a2 09 5c 3e a3 9f 4c be
       0.1558455 -0.18782555 0.2148805 -0.19982772
0003b0 10 c7 50 3d 5b f1 ac bc c8 1f 33 3c 3a c7 e6 bc
       0.05097109 -0.021111181 0.01093287 -0.02817117
0003c0 00 cc 8a 3e e8 38 d3 bc ab 5a 64 3e d2 97 af be
       0.27108765 -0.025783971 0.22300212 -0.34295517
0003d0 e0 96 df bd fb 9d f9 bd 0b 6d 17 bd 34 3f 17 bd
       -0.10917449 -0.121883355 -0.036969226 -0.03692551
0003e0 ac 44 bd 3d de 35 4e 3e c9 e1 86 3d 81 f5 b5 be
       0.09241614 0.20137736 0.06586034 -0.35538867
0003f0 c9 81 93 3d c4 be 70 be 1c 7e 55 3e f6 85 52 3e
       0.07202489 -0.23510271 0.20848888 0.20558915

convs.1.block2.0.bias f4 [16]
000000 42 ef e5 bc 70 2d a3 bd d3 85 22 3d 92 a4 bb 3d
       -0.028068189 -0.07967651 0.039678406 0.09162249
000010 20 0e 24 3e 43 55 e3 bc 7e d3 4c bd 45 45 c1 3d
       0.16021013 -0.027750617 -0.050006382 0.0943704
000020 e5 f2 b0 3d e9 d7 cd 3d a8 75 e0 bd 60 1d a1 bc
       0.086400785 0.10050947 -0.10959941 -0.019667327
000030 c3 f6 a2 bd 8d e3 3d 3e fc 76 9b 3d b4 43 74 bd
       -0.07957222 0.18543835 0.07591054 -0.05963488

convs.1.block2.1.weight f4 [16]
000000 12 a2 b0 40 28 25 b3 40 26 d9 b0 40 50 a3 ae 40
       5.519784 5.5982857 5.5265074 5.4574356
000010 a3 e6 ae 40 de 51 b4 40 1d a9 b4 40 a9 36 ac 40
       5.465654 5.6349936 5.6456437 5.3816724
000020 d9 ac b0 40 ef a0 b2 40 b9 6b b0 40 ac 73 b2 40
       5.5210996 5.582145 5.5131497 5.57662
000030 af 92 ad 40 18 75 ae 40 19 1d b2 40 4f c2 b0 40
       5.4241557 5.4517937 5.566052 5.5237193

convs.1.block2.1.bias f4 [16]
000000 69 01 97 40 c6 22 99 40 ed bb 94 40 c9 39 94 40
       4.718922 4.785495 4.64794 4.632054
000010 19 95 94 40 df 1d 9a 40 b8 fa 99 40 62 98 9b 40
       4.6432004 4.8161464 4.8118553 4.8623514
000020 48 d5 9b 40 58 d9 98 40 6c b7 99 40 89 d9 9a 40
       4.8697853 4.776531 4.8036404 4.8390546
000030 21 0b 93 40 87 b5 94 40 54 35 9a 40 50 d9 99 40
       4.5951085 4.647159 4.81901 4.8077774

convs.1.block2.1.running_mean f4 [16]
000000 b2 8f c8 c0 7e 03 7c c1 30 5a 97 c1 ef b6 64 c1
       -6.267541 -15.750853 -18.919037 -14.2946615
000010 cb 55 14 c1 7b 7f 26 c1 08 b2 b8 c0 73 4f 61 c0
       -9.270946 -10.406123 -5.7717323 -3.5204742
000020 60 50 7c c1 ff 06 3d c1 de ae 37 c1 b1 40 65 c1
       -15.769623 -11.814208 -11.480192 -14.328294
000030 c5 46 73 c1 f5 6a 84 c1 22 b2 90 c0 fd b8 4c c1
       -15.204778 -16.552225 -4.5217447 -12.795163

convs.1.block2.1.running_var f4 [16]
000000 f9 a2 fc 41 7b b2 91 41 89 a8 91 41 c3 3b 30 41
       31.579576 18.212149 18.207293 11.01459
000010 a9 c0 91 41 8c cc a8 41 52 fc 1f 42 88 d8 63 42
       18.219072 21.099876 39.996407 56.961456
000020 3f d8 b2 41 61 16 b7 41 a1 d7 c2 41 b3 b0 8f 41
       22.355589 22.885927 24.355288 17.961279
000030 06 51 38 41 50 6e 5c 41 a7 40 15 42 00 f1 c3 41
       11.519781 13.776932 37.313137 24.492676

convs.2.block1.0.weight f4 [8, 1, 3]
000000 7e d3 78 be 66 90 e2 3e a9 f0 67 be 4f 91 67 be
       -0.24299428 0.44250792 -0.22650398 -0.22614025
000010 94 3b d9 3e 2d fc 64 be 55 fe 26 3f 5e cb 04 bf
       0.42428267 -0.22361822 0.6523183 -0.51872814
000020 e6 44 5f be f0 c8 c6 bc 03 1a ea be 80 7c ea 3e
       -0.21803626 -0.024265736 -0.4572297 0.4579811
000030 ab da f9 3e bc 17 92 be 94 16 9d be 27 ea 94 3e
       0.48799643 -0.28533733 -0.30681288 0.29084894
000040 22 9e 08 bf c7 ee 74 3e b6 d1 c1 be ee 17 e0 bd
       -0.5336629 0.23919211 -0.3785531 -0.10942064
000050 78 46 1d 3f 4f 3b 97 3e 1b 6d 11 bf c1 a1 73 3e
       0.6143565 0.29537436 -0.56807107 0.23792173

convs.2.block1.0.bias f4 [8]
000000 1c 12 b1 3e 45 56 e0 3e c7 e3 c7 3e f2 de 70 3e
       0.3458413 0.43815818 0.39040968 0.23522547
000010 dd 68 95 be 3c c3 ba 3e 88 d8 a6 bd a1 93 0d 3f
       -0.29181567 0.36477077 -0.08146769 0.5530339

convs.2.block1.1.weight f4 [8]
000000 54 f2 ad 40 f6 49 ab 40 df f0 a7 40 8d c6 a4 40
       5.435831 5.3527784 5.248153 5.149237
000010 cc 36 a8 40 93 d6 ad 40 e8 ed a8 40 76 33 af 40
       5.256689 5.432443 5.2790413 5.475032

convs.2.block1.1.bias f4 [8]
000000 b5 54 94 40 67 9a 97 40 42 9b 97 40 20 a3 95 40
       4.63534 4.737598 4.7377024 4.6761627
000010 89 d0 95 40 d0 f4 96 40 85 eb 94 40 db 4f 96 40
       4.681706 4.7173843 4.65375 4.697248

convs.2.block1.1.running_mean f4 [8]
000000 a6 e7 a1 3e b1 61 d2 3e 94 b0 47 3e 96 75 19 3e
       0.31622046 0.41090158 0.19500953 0.14986262
000010 5b 26 00 bf bd 86 af 3e 4f b8 0f 3e 4b e8 ea 3e
       -0.50058526 0.34282485 0.14035152 0.4588035

convs.2.block1.1.running_var f4 [8]
000000 ac 31 9c 3c df 0c 8f 3c 74 15 a8 3d 87 3c 16 3d
       0.019066654 0.017462192 0.08207217 0.036678817
000010 8d af 6c 3d 88 7e cc 3c db e0 b8 3d e8 97 ce 3c
       0.057784606 0.024962679 0.09027263 0.025218919

convs.2.block2.0.weight f4 [16, 8, 5]
000000 ed 66 da bd 20 ce 5f bc 18 38 dd 3c 0e cb 63 bd
       -0.10664163 -0.013659984 0.027004287 -0.05561357
000010 33 26 34 bd 78 17 ca 3d e1 58 c2 3c c0 87 2d 3d
       -0.043981742 0.098677576 0.023724021 0.04236579
000020 66 8f 25 be ca a5 3d 3d 0b 69 3a bc 45 93 86 bb
       -0.16167983 0.046300687 -0.011377583 -0.0041069114
000030 e8 99 a8 bd bf 0c 32 be 83 31 22 3e dd b5 93 bd
       -0.0823248 -0.17387675 0.158392 -0.07212422
000040 ab 8e 0a bd b3 8a e9 3d f4 e2 68 be bb 62 f7 bd
       -0.033827465 0.11403408 -0.22742826 -0.12079378
000050 6e 57 4c be 5c 59 2a 3d f6 22 8d 3e 6a e0 0c bf
       -0.19955227 0.041589126 0.27565736 -0.5502993
000060 f2 64 60 3c 5d dd f2 3d 0c 47 52 bd ef 84 6e bc
       0.013695942 0.11858628 -0.051337287 -0.014558061
000070 65 cb 9e bd ca 1e 3f bd 61 bd 0f be 30 98 4a bd
       -0.07753638 -0.046660222 -0.14037086 -0.049461544
000080 f1 bd 63 3d be e6 da be f1 68 77 3e 82 30 74 3c
       0.055601064 -0.42754167 0.24161126 0.014904143
000090 13 8e c6 bd 3b 48 5d be 00 72 95 3d a4 43 4a 3e
       -0.09695067 -0.21609585 0.072971344 0.19752365
0000a0 f4 7f 8c be a7 3a 28 be 01 c1 ba bd 48 25 68 bd
       -0.2744137 -0.16428624 -0.09118844 -0.05667618
0000b0 5c 79 43 be 43 70 27 be e0 44 c9 bd 72 a7 07 be
       -0.19089264 -0.16351418 -0.0982759 -0.13247469
0000c0 d2 57 39 be 01 ae 1c be 4a ba b1 be 0c ea 77 be
       -0.18099907 -0.15300752 -0.3471244 -0.24210376
0000d0 aa 41 ea 3c 59 f7 04 bd 92 d3 fc 3b bb 4c cd 3c
       0.028595764 -0.03246245 0.007715651 0.025061002
0000e0 bb 8c 06 be ab 16 ab bd 73 db fc bd 74 bd e9 be
       -0.13139622 -0.08353933 -0.12346544 -0.45652354
0000f0 02 b1 2a be 35 4f d6 bd 88 22 1b bd af 39 26 be
       -0.16669086 -0.10464326 -0.03787473 -0.16232942
000100 d9 71 c2 be 03 16 0e 3e 1f da bd 3d a1 0e 0b 3c
       -0.37977484 0.13875584 0.09270119 0.0084873745
000110 e5 02 d4 3c b8 1f c0 3b 62 26 8a be 05 7a ef bd
       0.025880286 0.005863156 -0.2698241 -0.11693195
000120 ad 58 65 bc 69 55 f9 bd 86 dd 4a be 81 e6 ca bd
       -0.013998193 -0.12174494 -0.19811067 -0.099072464
000130 21 c2 c8 3c f1 b0 3f 3d 1d 60 01 3d 98 90 91 3e
       0.02450663 0.046799604 0.0315858 0.2843063
000140 8a f0 52 be d2 7f 02 be f7 95 13 be 40 46 bf bd
       -0.20599571 -0.12744072 -0.14412676 -0.09339571
000150 24 fa 5e be 03 bd 2c be c8 c5 16 be 8e 88 a7 bd
       -0.21775109 -0.16868977 -0.14723885 -0.081803426
000160 42 70 fd bd 69 7c e6 bd a2 eb 3f be 99 5d fb bd
       -0.12374927 -0.11254198 -0.1874223 -0.12273712
000170 84 bc f9 bd ce 5d 6a bd ba f1 1b ba 0f a0 ba 3d
       -0.121941596 -0.057218365 -0.0005948801 0.0911256
000180 f6 7d 39 be 98 41 8a bd fb b1 e0 bd 19 2a e3 be
       -0.18114457 -0.06750792 -0.10971447 -0.44368055
000190 7f 4c 90 be 5d 3d 3c be 2e 9d d1 3d 5e a1 ff bd
       -0.28183362 -0.18382783 0.10235058 -0.1248195
0001a0 d1 e6 bc be 7a 0c 06 3e 53 8f e6 3d 39 b0 c1 bc
       -0.3689485 0.13090697 0.11257806 -0.0236436
0001b0 1e 1b d6 bb 58 71 81 3d bd f8 b5 be 81 92 15 bd
       -0.0065339943 0.06320447 -0.35541335 -0.03651667
0001c0 4d 86 bf bc 3d 86 db bd 66 25 3b be c6 4e e9 bd
       -0.02337947 -0.10718963 -0.18275985 -0.11391978
0001d0 61 28 45 bc af a9 df 3d 21 14 82 3d 8d 90 5b 3e
       -0.012033553 0.109210365 0.063514955 0.2144186
0001e0 27 88 2e 3d f0 6e da bd cc cf 82 bd 6a 52 2f bd
       0.042610314 -0.10665691 -0.0638729 -0.042803206
0001f0 92 2d c8 bd e4 3b 86 bc 9b 94 fe bd 23 02 9a bd
       -0.09774317 -0.01638598 -0.12430688 -0.07519939
000200 ae 21 fd bd c7 f7 84 be 9d 18 6e 3d 76 9f a3 be
       -0.123599395 -0.2597029 0.05812894 -0.31957597
000210 b0 86 8f 3d 1f 80 5b bd 84 81 33 be 7f 74 a2 3e
       0.070081115 -0.053588983 -0.17529875 0.31729504
000220 85 2c 00 3b 9f b1 9a bc 80 94 31 be 91 ec af be
       0.0019557786 -0.018883524 -0.17341805 -0.34360173
000230 a2 10 e3 3d 1c f9 a2 be ee c1 9a 3d dc 44 3c be
       0.11087157 -0.3183068 0.075565204 -0.18385643
000240 d9 1b 6e be 88 f1 24 3d 65 39 9e 3d a2 3a da bb
       -0.2325281 0.040269405 0.07725791 -0.0066598216
000250 fb 7e e3 bc 03 cd 56 3b 33 12 7b bc 15 84 c1 be
       -0.02777051 0.0032776005 -0.015324163 -0.37796083
000260 42 3a 02 3e 0a c9 5f be 48 6b 84 be 69 a3 cf bc
       0.12717536 -0.21854034 -0.258631 -0.025346475
000270 a6 a4 87 3c aa f4 ac 3d 0c 10 06 3e d4 b4 ac 3e
       0.016558003 0.084451035 0.13092059 0.3373171
000280 ae cf 1a 3d a6 27 3c bd 91 14 cd bc 67 b0 1e be
       0.037795715 -0.04593625 -0.02503422 -0.1549698
000290 5d 61 26 bd a3 86 ba 3d 67 7b 50 be c3 df bf 3d
       -0.040620197 0.09107711 -0.20359574 0.09368851
0002a0 e6 40 4b be fa c4 e0 3c d6 ac 3c 3e 35 40 66 be
       -0.19848976 0.027437676 0.18425307 -0.2248543
0002b0 e0 bd 90 3e c8 08 28 be 46 91 17 3e 87 e8 d6 3e
       0.28269863 -0.164096 0.14801511 0.4197428
0002c0 e4 65 60 bd f5 3e 55 3d f0 0f d7 be 3d 5d 9a bc
       -0.05478467 0.052061994 -0.42004347 -0.018843288
0002d0 3e b3 2b 3e 3f a3 5f be 98 f0 12 3e cc 59 a1 be
       0.16767594 -0.21839617 0.14349592 -0.31513822
0002e0 7a 60 63 3d 32 65 3d 3d 61 3c 29 3e 27 57 d1 3a
       0.05551193 0.046239085 0.16526939 0.0015971408
0002f0 ff 94 54 3e 75 42 0d 3d 77 7b 55 3c c3 57 ee be
       0.20759962 0.034487206 0.013029925 -0.46551332
000300 d1 27 97 3e 4d a0 83 be 50 b4 5f 3e fa c7 0e be
       0.29522565 -0.25708237 0.21846128 -0.13943473
000310 28 70 3a 3d 1d a9 d4 bd 2a 0e ca 3d dc c9 f5 3c
       0.045517117 -0.10383818 0.09865983 0.03000348
000320 65 0a 86 bc d3 2b 5a bd 91 2c 45 bd dd c2 1e be
       -0.016362378 -0.05326445 -0.048138205 -0.15504022
000330 78 37 72 be 65 27 9c 3d a2 30 37 be 55 ce 4d bd
       -0.23653972 0.076247014 -0.17889646 -0.0502456
000340 fa 26 7b bc 19 5e cc bd 79 4d 47 3e 5a de 8f be
       -0.015329117 -0.09978885 0.19463147 -0.28099328
000350 b4 03 2a 3e a5 3c af bd 54 4b ae 3b 5a d6 d4 3e
       0.16602975 -0.08556489 0.0053190384 0.41569787
000360 9a 48 ba bd ff 37 14 3c 57 70 5b be 94 8f d9 be
       -0.09095879 0.009046554 -0.21429573 -0.42492354
000370 a5 cb d8 3d ec ce 84 be aa 98 fd bb db ea ae bd
       0.10585717 -0.2593912 -0.0077391462 -0.08540889
000380 e7 61 c4 be d8 48 4d 3c da 93 50 3d 62 fa 9a 3d
       -0.38355944 0.012529574 0.050922252 0.07567288
000390 85 0e 87 3d 3f 5f 09 3d ec b0 79 bd 64 81 99 be
       0.06594566 0.0335381 -0.06095974 -0.2998153
0003a0 24 fa d5 3c cb 8a a0 bd 43 12 25 be 41 bb cd bd
       0.026120253 -0.07838973 -0.16120248 -0.100454815
0003b0 9b cd f7 3c 1d 14 5b bd 39 a8 9d 3d 02 3d 93 3e
       0.030249408 -0.05348598 0.076981016 0.28757483
0003c0 be 37 12 3d 12 67 61 3d 9f 60 9a bd 47 cb dc bd
       0.03569769 0.055029936 -0.0753796 -0.107809596
0003d0 b9 cf f7 bd 96 d6 7d 3c 27 7d 41 be b2 44 b9 3c
       -0.12100167 0.015493056 -0.18895398 0.022615764
0003e0 23 e0 43 be e9 ad cf bd 4b 82 5f 3d b1 a5 59 be
       -0.1912847 -0.101405926 0.054567616 -0.21254613
0003f0 9f ed 2f 3c b6 1f 43 be b7 e5 e6 bc 74 1c a5 3e
       0.010737806 -0.19055066 -0.028185708 0.3224827

convs.2.block2.0.bias f4 [16]
000000 b6 33 04 3d 7a c2 4c 3e 29 02 04 bd 85 64 17 be
       0.032275878 0.19996062 -0.032228623 -0.14784439
000010 8c bb 19 3e 9a 49 35 be 90 a4 5d bc c4 38 9f bd
       0.1501295 -0.17703858 -0.013528004 -0.07774499
000020 05 7f 82 3d f2 f2 29 bc 55 bf 41 3d 81 d1 06 be
       0.06371883 -0.010372864 0.04730161 -0.13165857
000030 2f 3d a4 3d 02 1a 07 3e 97 0d 74 3d 3c 06 a6 3d
       0.08019482 0.13193515 0.059583273 0.08106658

convs.2.block2.1.weight f4 [16]
000000 7f 5c ab 40 6c 37 af 40 42 27 af 40 0d ec b1 40
       5.355041 5.4755154 5.473542 5.560065
000010 f5 cc b2 40 16 5b b1 40 3e 53 af 40 68 c4 b1 40
       5.587519 5.542369 5.4789114 5.5552254
000020 d8 f2 b1 40 18 ec ae 40 2c 61 b0 40 4b 4f ac 40
       5.560894 5.46632 5.511862 5.3846793
000030 ce 71 b1 40 50 8f ae 40 a1 d0 b1 40 f1 a9 b1 40
       5.545142 5.454994 5.5567174 5.551995

convs.2.block2.1.bias f4 [16]
000000 88 53 9c 40 a8 25 9a 40 72 76 99 40 0e 33 96 40
       4.8851967 4.8170967 4.7957087 4.6937323
000010 4e e2 98 40 ff 25 9b 40 5b a5 93 40 01 2c 96 40
       4.777625 4.848388 4.613935 4.6928716
000020 c2 9c 98 40 ae 08 95 40 99 f2 97 40 3d 45 9c 40
       4.7691355 4.6573095 4.748364 4.883452
000030 28 2c 95 40 ea 06 99 40 91 cd 98 40 88 05 97 40
       4.66164 4.782094 4.7750936 4.719425

convs.2.block2.1.running_mean f4 [16]
000000 92 99 1c c1 0d 02 af c1 f6 08 a6 c1 11 2e 47 c1
       -9.787493 -21.876001 -20.754375 -12.448747
000010 6e eb de bf 92 cb 29 c1 7c d7 50 c1 1c b5 6f c1
       -1.7415597 -10.6122 -13.0526085 -14.981716
000020 05 81 7f c1 9d dd 77 c1 7a cc a4 c1 0f eb 08 c1
       -15.968999 -15.491605 -20.599842 -8.557387
000030 7d e5 91 c1 6d c8 0b c1 18 ad 2e c1 0d fb b2 c1
       -18.237055 -8.736432 -10.917259 -22.372583

convs.2.block2.1.running_var f4 [16]
000000 e5 2b ab 41 85 8f a2 41 95 91 9f 41 0a 2d b8 41
       21.396433 20.320078 19.946085 23.021992
000010 a1 60 28 42 cf 94 b8 41 e0 3c 4d 41 80 a2 df 41
       42.094364 23.07266 12.827362 27.954346
000020 6b c9 eb 41 32 5c ae 41 48 05 9d 41 a7 3b 00 42
       29.473349 21.795017 19.627579 32.058254
000030 e9 d8 59 41 2b 77 bd 41 0b eb a9 41 e1 d3 a7 41
       13.615457 23.683187 21.239767 20.978456

convs.3.block1.0.weight f4 [8, 1, 3]
000000 3a bc 5f be e1 17 ba 3e 1a c6 82 be f4 3c 7f be
       -0.21849146 0.36346343 -0.25541764 -0.24925596
000010 27 8a cc 3e b0 e9 82 be 9f 75 89 3e e1 09 d9 be
       0.39949152 -0.25568914 0.2684755 -0.4239035
000020 f6 d5 99 3e 93 4c ad be 91 ed 08 3f 5f d5 b1 be
       0.30046052 -0.33847484 0.534875 -0.34733102
000030 64 27 8b 3e 4c a5 e1 be 2b 85 a5 3e 86 be 83 be
       0.2717849 -0.44071424 0.32328162 -0.25731295
000040 8a 1a cd 3e 79 33 83 be c6 ce 7f be eb d5 d4 3e
       0.4005931 -0.25625208 -0.24981222 0.41569456
000050 0a 91 94 be bf e9 98 be 02 32 f6 3e f2 4e 9b be
       -0.29016906 -0.29865834 0.48085028 -0.30333668

convs.3.block1.0.bias f4 [8]
000000 ac 32 41 3e 35 10 a4 bd 15 5b bf be 12 96 f9 bc
       0.18866986 -0.08010904 -0.37374178 -0.030467067
000010 38 9c fb 3e 2c a5 1c 3d cb 1a c2 bd 8f 31 e0 3e
       0.49142623 0.038243458 -0.094777666 0.4378781

convs.3.block1.1.weight f4 [8]
000000 85 a3 b2 40 c0 6e b3 40 bb 58 b4 40 76 c4 b1 40
       5.582461 5.6072693 5.6358314 5.555232
000010 c6 f3 b1 40 b9 bf b2 40 ba a8 b1 40 72 51 b1 40
       5.5610075 5.5859036 5.5518465 5.541192

convs.3.block1.1.bias f4 [8]
000000 4e c3 94 40 3c 86 95 40 b3 6c 97 40 b7 ff 93 40
       4.648841 4.672636 4.732019 4.624965
000010 fb f7 95 40 07 b0 95 40 2e 0c 94 40 df d0 93 40
       4.686521 4.6777377 4.626487 4.619247

convs.3.block1.1.running_mean f4 [8]
000000 e3 28 5f 3e ec d0 4e bd ca 94 d2 be 7a 0a 2e 3c
       0.21792941 -0.050492212 -0.41129142 0.010622615
000010 ea 09 e6 3e e0 01 87 3d 3a 96 80 bd 92 e7 f0 3e
       0.4492944 0.065921545 -0.062786534 0.47051674

convs.3.block1.1.running_var f4 [8]
000000 55 25 40 3e 53 72 60 3e b8 5a 86 3e d4 07 cc 3e
       0.18764241 0.21918611 0.26241088 0.39849722
000010 df 6c 92 3e 8a c8 64 3e a6 52 7a 3e 30 1b a1 3e
       0.28598687 0.22342125 0.2444559 0.31466055

convs.3.block2.0.weight f4 [16, 8, 5]
000000 33 76 36 3e b8 86 08 3e 19 86 e1 bd b8 da 9d 3d
       0.17818527 0.13332641 -0.11011905 0.07707733
000010 29 16 2a 3e fa 00 7f 3e 86 b9 73 bd b9 f0 3b bd
       0.16610016 0.24902716 -0.0595031 -0.045883868
000020 99 76 da bd 54 88 34 3e 9f 0d c1 3e 89 a4 8b 3d
       -0.10667152 0.1763013 0.37705705 0.06818492
000030 b3 4e 2d bc f0 50 d6 bd c6 9a c8 3e 7c e0 e2 3d
       -0.010577845 -0.10464656 0.39180583 0.11077973
000040 a6 42 39 bc 1a 0e 3d 3d 82 47 32 bc fd 37 20 3e
       -0.011307394 0.046156026 -0.010881307 0.15646358
000050 dd c6 76 3e 91 50 c5 bd aa 70 cc bd 62 4c 92 3d
       0.24099298 -0.096345074 -0.099824265 0.07143475
000060 30 a9 a0 3e d2 53 0d 3e 2e 5b 0d 3e e8 b1 46 3d
       0.3137908 0.13801506 0.13804314 0.04850951
000070 0d 09 07 bd d5 f8 fc 3d e1 07 f7 3d ed 59 e8 3d
       -0.032967616 0.123521484 0.1206205 0.11345277
000080 4a 76 9e bd f9 72 ef 3d cb 78 3b 3e ae 06 b3 3d
       -0.077374056 0.11691851 0.18307798 0.087415084
000090 93 d3 12 be 9f 6f d1 3d 03 61 75 3d 24 66 d9 3d
       -0.14338522 0.10226368 0.05990697 0.10615185
0000a0 ac 98 b8 bd 23 5b 19 3e 23 34 2c be bf 8a db bc
       -0.09013495 0.14976172 -0.16816764 -0.026799558
0000b0 35 53 86 3d fc 75 ec bc c7 03 89 3d e4 dc 98 3d
       0.06558839 -0.028864853 0.066901736 0.074640065
0000c0 9e bf dc bc cc c9 2d 3d 39 e1 0d bf 35 3d b7 bd
       -0.026946839 0.042428777 -0.5542179 -0.08947221
0000d0 1b 81 15 3d d9 dd 0f 3e c9 66 ab 3e cc 14 8d bd
       0.036500078 0.14049472 0.33476856 -0.06888732
0000e0 05 06 a0 3c a0 e2 2e bd e4 d2 03 be 65 47 e4 3d
       0.01953412 -0.042696595 -0.12873417 0.1114643
0000f0 f5 f4 ec be c8 cd 85 bd 97 01 c5 bc d3 c3 ea ba
       -0.46280637 -0.0653339 -0.02404861 -0.0017911143
000100 57 d4 17 3e 65 56 69 be 8c a4 92 3d 0a 61 f2 bc
       0.14827095 -0.22786863 0.07160291 -0.029587287
000110 11 c1 10 bd 55 5f 32 3e f9 45 a5 3d 3b c7 cd bb
       -0.035340372 0.17419179 0.08069987 -0.0062798536
000120 a8 76 0b 3d 51 25 23 3e e9 c6 1e 3e 41 02 fe bd
       0.034048706 0.15932204 0.15505566 -0.12402774
000130 9d 29 91 bd 5d 3f 13 3d 86 e3 3d bd 8b 99 69 bd
       -0.07088015 0.0359491 -0.04635956 -0.057031196
000140 10 e1 c5 bc f0 15 96 3c 5b 00 49 bc 27 ec ba bd
       -0.02415517 0.018321007 -0.012268151 -0.09127074
000150 e6 58 9e 3d 3e cb 3d be 2a 75 5b bc 2c 05 67 bc
       0.077318 -0.18534562 -0.013394633 -0.014100354
000160 bb 3e 43 bd 9c aa 2a 3d 27 f8 06 bf 2d 8f ba bd
       -0.047667246 0.041666612 -0.527224 -0.0910934
000170 5a 5a 73 bb 9d cd a5 bc cd 5d 7a 3e 57 51 f1 3d
       -0.003713271 -0.020239646 0.24449845 0.117830925
000180 d5 d4 f0 3d b4 f6 b7 bd ed 56 fe 3d 71 a1 10 bd
       0.117593445 -0.08982602 0.124189235 -0.035310213
000190 35 4e f0 be 8f 2c 79 bd c9 7b d7 3b 55 95 13 3e
       -0.46934667 -0.06083351 0.0065760356 0.14412434
0001a0 6e b8 91 3e b8 56 dd bd be 03 3b 3c bb 44 88 bd
       0.2846102 -0.10807556 0.011414466 -0.06653734
0001b0 c7 e1 11 3e 6d 70 52 3e f1 2a e7 bd 47 54 58 3e
       0.14246283 0.205507 -0.11287487 0.211259
0001c0 b3 92 33 3d 24 32 28 be bd 0f 54 bb d9 81 63 bd
       0.043841075 -0.16425377 -0.0032358014 -0.055543754
0001d0 07 22 b1 bd 08 26 2f 3d 9a 64 a7 bd 3c f6 5b 3e
       -0.08649068 0.04276088 -0.08173485 0.2148065
0001e0 cd f8 bd 3d b7 43 c4 bd 81 98 58 be f9 4d 11 be
       0.092759706 -0.09583228 -0.21151926 -0.141899
0001f0 57 03 78 bc ae e5 79 3e 8b ee 65 bd d6 a0 6e 3d
       -0.015137515 0.24404022 -0.056135695 0.058258854
000200 ba e8 12 bd 8d 7e a8 bd 97 9a a8 3e db 9f 16 bd
       -0.035866477 -0.08227263 0.32930443 -0.036773544
000210 78 00 15 bd 6b c9 46 3e 99 36 c3 be d6 c3 e4 3d
       -0.0363774 0.19412772 -0.38127592 0.11170165
000220 d3 57 f4 bb c8 6c 17 be c9 94 90 3d c7 15 ea bd
       -0.0074567585 -0.1478759 0.070596285 -0.11429935
000230 7a 0d 27 3e c8 cd 33 bd ab b7 86 3d ed 8c 82 3e
       0.16313735 -0.04389742 0.06578001 0.25498143
000240 21 ab d7 be e5 e6 0b 3e b1 79 5d 3d 4c e7 b7 bb
       -0.42122748 0.13662298 0.054071132 -0.0056122895
000250 15 cd d2 bd 64 19 50 be 47 44 a5 3d ca fe be bd
       -0.102930225 -0.20322186 0.080696635 -0.09325941
000260 f0 9f 9f 3c ad f7 2b bd 5f 8a ec bd bd 98 36 3e
       0.019485444 -0.04198425 -0.1154983 0.17831703
000270 87 de 45 3c 47 1b ba bb 84 9a 1e 3d ce 72 d3 3b
       0.01207698 -0.0056795212 0.038721576 0.006452895
000280 89 79 18 bd 7c 80 01 3c 6d 2a 9f bd bd 78 50 bd
       -0.03722528 0.007904168 -0.07771764 -0.050896395
000290 38 86 ad bd 88 81 86 3c 2a 11 9d 3c 25 8c dc 3d
       -0.08472866 0.016419187 0.019173224 0.10768918
0002a0 78 46 e8 3d a5 61 76 be 76 cd 91 be 28 a5 b4 3d
       0.11341566 -0.24060686 -0.28477067 0.088205636
0002b0 95 6a 96 3d 2d 90 ae 3c 1f 05 aa be fe 18 56 3b
       0.07344548 0.021308983 -0.33207032 0.0032668705
0002c0 e5 ad f8 3c f1 f1 a8 bc ca b1 a5 3d 20 56 84 bd
       0.030356357 -0.02062318 0.08090551 -0.064617395
0002d0 45 61 de be 92 35 c5 3c 16 01 d4 3c e2 1e 91 3d
       -0.43433586 0.024073396 0.025879424 0.070859686
0002e0 91 a7 9d be d9 fa a9 bc 2b ee c9 3d 0f 36 f0 bd
       -0.30791906 -0.020749496 0.0985988 -0.11729061
0002f0 09 9f 36 bd 40 0b 11 bd a5 f4 b9 bc c2 11 a9 bd
       -0.04458526 -0.03541112 -0.022699663 -0.0825534
000300 a3 86 de 3d d6 da 06 be fb 86 85 bd 12 ca 64 be
       0.10865524 -0.13169417 -0.06519886 -0.22342709
000310 20 8d 9a bd fa a0 8a 3c d8 34 33 be 09 66 9e 3c
       -0.07546449 0.016922463 -0.17500627 0.019335764
000320 21 ed 01 bd 7f 22 a2 3d 4d 10 3e bd d2 0f 61 bb
       -0.031720284 0.07916736 -0.046402264 -0.0034341705
000330 be 4f 74 bc 58 bb 9f 3e f2 95 c0 bd 03 32 e2 bd
       -0.01491159 0.3119762 -0.094036 -0.11044695
000340 12 31 be bd 35 fa 94 bd 59 ab 9b 3e 3e 73 19 3d
       -0.09286703 -0.07274286 0.30404165 0.03746342
000350 b2 f4 b5 bd 1b d1 52 3e 3e 9f e5 be 1b 0e 8d 3d
       -0.088845626 0.2058758 -0.44848055 0.06887456
000360 64 b7 dd 3d d4 7d 6e 3d cb dd 31 be af e8 7d be
       0.108259946 0.058225468 -0.17369764 -0.24795793
000370 e4 8b 3e 3e ed 32 bd bc 21 10 b6 3d 15 5f 0d 3e
       0.18608052 -0.023095572 0.08889795 0.13805802
000380 e3 b7 f0 be 06 3c 74 3e df 82 d9 bd f1 c0 08 be
       -0.47015294 0.23851022 -0.10620665 -0.13354851
000390 d8 50 0f be 21 c3 dc bd 64 69 04 3e 73 c5 85 bd
       -0.13995683 -0.107794054 0.12930828 -0.06531801
0003a0 1f 22 c4 3d 7e d8 87 3d e2 7b 9e 3d d7 9b 0b 3d
       0.095768206 0.066330895 0.077384725 0.034084167
0003b0 fe 88 8a 3c 06 dc bd 3d 15 98 5e 3d bf fd 88 be
       0.016911026 0.09270482 0.054344255 -0.26756093
0003c0 e6 f9 b4 3d c4 ce bf bd 8b 4b 86 3d b1 14 5a bd
       0.08836727 -0.09365609 0.065573774 -0.05324239
0003d0 11 e7 ce 3d 69 44 1e 3e b4 d3 43 3d b3 e7 b3 bb
       0.10102666 0.15455784 0.047809318 -0.005490267
0003e0 67 5e 5f 3e 0a f3 63 3e 8f ac a4 3e de 22 69 bc
       0.21813355 0.22260681 0.32162902 -0.014229504
0003f0 73 e4 b9 bd 44 fd a8 3d 0b f2 cb 3e 6a 36 49 3e
       -0.09076776 0.082514316 0.39833102 0.19649664

convs.3.block2.0.bias f4 [16]
000000 1e a3 93 3c 36 96 2b 3e 3d 68 ad bd 7a a2 c3 bd
       0.018022116 0.1675652 -0.084671475 -0.09552474
000010 f2 a0 b5 bd 19 1e 75 be f1 07 97 bd d8 57 d6 3d
       -0.088685885 -0.23937263 -0.073745616 0.104659736
000020 7d bb ab bc a3 d5 8a bd 9d ce 85 3d da 0f f1 bd
       -0.020963425 -0.06779029 0.06533549 -0.117706016
000030 84 12 40 3e c3 43 7c bd f9 46 44 be 7a 13 c9 3d
       0.18757063 -0.06158806 -0.19167699 0.09818168

convs.3.block2.1.weight f4 [16]
000000 13 f6 ac 40 61 db af 40 bd 77 af 40 0b 4c ae 40
       5.4050384 5.4955297 5.4833665 5.4467826
000010 c8 13 af 40 34 08 ae 40 c0 0e ae 40 24 ad af 40
       5.4711647 5.4385014 5.4393005 5.4898853
000020 e6 f1 ad 40 7c a2 ad 40 27 51 ae 40 49 7a af 40
       5.4357786 5.4260845 5.4474063 5.4836774
000030 c6 88 ae 40 e7 97 af 40 d1 54 ae 40 de a7 ac 40
       5.454196 5.487293 5.4478536 5.3954916

convs.3.block2.1.bias f4 [16]
000000 a6 51 97 40 ee 04 97 40 f4 23 97 40 7c f6 97 40
       4.728717 4.719352 4.723139 4.7488384
000010 8e ef 97 40 0b 91 96 40 62 ed 97 40 11 22 98 40
       4.7479925 4.7052054 4.7477274 4.7541585
000020 48 f0 96 40 3d c7 96 40 ca 7e 96 40 63 17 98 40
       4.716831 4.711821 4.702977 4.752855
000030 40 b4 96 40 7f f0 96 40 3f 6f 97 40 cb cf 96 40
       4.709503 4.7168574 4.73233 4.7128654

convs.3.block2.1.running_mean f4 [16]
000000 23 36 cf 41 05 15 09 c0 3d 4c 92 bf 86 e2 33 c0
       25.901434 -2.141908 -1.1429516 -2.810701
000010 6e 8b 7d c1 18 85 61 c0 8b dd d7 41 1c 6b 81 c1
       -15.84654 -3.5237484 26.983175 -16.1773
000020 f2 5a ba 41 8e 45 95 c0 16 d7 22 c0 58 04 0e c0
       23.294407 -4.6647406 -2.5443778 -2.2190151
000030 d1 47 75 bf 52 d0 e6 bf 7e 2e 7d c1 12 b9 d7 41
       -0.9581271 -1.8032324 -15.823851 26.965366

convs.3.block2.1.running_var f4 [16]
000000 71 83 96 42 7b ba 87 42 ee f9 80 42 ac b9 a2 42
       75.25672 67.86422 64.488144 81.36264
000010 b1 42 0d 42 65 a9 b8 42 3f 38 a1 42 a3 4d 63 42
       35.31513 92.33085 80.609856 56.825817
000020 08 03 a2 42 28 52 a0 42 b9 17 75 42 60 61 7d 42
       81.00592 80.16046 61.273167 63.345093
000030 35 e4 92 42 ec 12 6a 42 20 ab 73 42 3b e8 a1 42
       73.44572 58.51848 60.917114 80.953575

convs.4.block1.0.weight f4 [8, 1, 3]
000000 09 3e 6f 3e 1e 48 ea be ac 87 44 3e 6c f8 05 3f
       0.23363508 -0.45758146 0.1919238 0.52332187
000010 70 13 c0 be c9 c4 b0 be 7e 06 9b 3e e3 fe 07 bf
       -0.3751483 -0.34525135 0.3027839 -0.531233
000020 a3 17 86 3e 18 78 30 3f 04 ea ee be c5 d6 7a be
       0.26189908 0.6893325 -0.46662915 -0.2449599
000030 91 8f 9e be 3b a9 74 be d0 19 3e 3f af b1 c5 bc
       -0.30968907 -0.23892681 0.74258137 -0.024132578
000040 a5 bc cb 3e d9 12 fa be b4 38 f7 be cd f4 08 3f
       0.39792362 -0.48842505 -0.4828545 0.53498536
000050 30 f5 bd 3c 5d a4 16 bf 9a 80 18 3f c0 fa e5 3d
       0.023188204 -0.5884455 0.5957123 0.112294674

convs.4.block1.0.bias f4 [8]
000000 cc 23 c1 be d8 d5 fd be b1 63 dd 3e 06 ae 34 3e
       -0.37722623 -0.49577212 0.4324012 0.1764451
000010 4c 09 aa 3e 71 81 e8 bd 35 07 e2 be 0a d7 ca be
       0.33210218 -0.11352814 -0.44146124 -0.39617187

convs.4.block1.1.weight f4 [8]
000000 4c 9e ad 40 24 f8 a3 40 e5 f8 b0 40 fb 6e a9 40
       5.4255733 5.1240406 5.5303826 5.2947974
000010 e5 9f 9d 40 11 15 a9 40 cd 69 a8 40 c3 28 aa 40
       4.9257684 5.2838216 5.262915 5.317476

convs.4.block1.1.bias f4 [8]
000000 85 3c 96 40 0d 3b 96 40 65 ee 97 40 d6 4c 96 40
       4.6948876 4.6947083 4.747851 4.6968794
000010 67 9c 95 40 45 97 97 40 d5 88 95 40 d3 85 96 40
       4.675342 4.7372155 4.672953 4.703836

convs.4.block1.1.running_mean f4 [8]
000000 23 ba e9 be a4 48 5a bf 00 64 f0 3e 80 20 df 3d
       -0.45649824 -0.8526709 0.46951294 0.10894871
000010 b8 be 23 3f 96 1f 93 be f9 8f 92 be 42 59 2d be
       0.6396289 -0.28735036 -0.28625467 -0.1692858

convs.4.block1.1.running_var f4 [8]
000000 4a f2 6f 3c 19 6c 6c 3d 32 d1 cc 3c 54 de 9f 3d
       0.014645169 0.057720277 0.025002096 0.078060776
000010 5c 17 bf 3d f4 d6 10 3d 24 18 12 3d 66 55 5e 3d
       0.09330627 0.035361245 0.035667554 0.05428066
