runs/mc2_808.pt (torch, 37787 bytes, 51 tensors)

convs.0.block1.0.weight f4 [8, 1, 5]
000000 cd a7 16 3e f2 9d 26 3e d1 6b a3 be 59 da c6 bd
       0.14712448 0.16271189 -0.31918195 -0.09709615
000010 d1 be 7a 3e cb e4 ea bd 10 38 ed 3d 67 c9 c9 bd
       0.24486853 -0.1146942 0.11582959 -0.098528676
000020 d6 fb 26 be 7f 97 2b 3e 23 01 d1 be d8 b6 1b 3e
       -0.16307005 0.1675701 -0.4082118 0.15206468
000030 ce 5f 1d be c1 bb 46 3e 87 98 40 3e d2 7a 4b 3e
       -0.15368578 0.1940756 0.18808185 0.19871071
000040 f3 17 e7 bd 8d 77 8a 3e 86 7e 26 bd b8 3b fa be
       -0.11283865 0.27044335 -0.040648006 -0.48873687
000050 ab a9 8e be 17 0f 51 bf d3 30 0d be 6a 20 16 3e
       -0.2786382 -0.8166365 -0.13788156 0.14660802
000060 08 33 79 be 4f f9 91 3e d2 9a 71 be a2 02 a5 3d
       -0.24335873 0.2851052 -0.23594216 0.08057143
000070 e7 4b 2a be 63 ea ba 3d 9d b2 43 3e 83 1d 9f be
       -0.16630517 0.09126737 0.19111104 -0.31077203
000080 9a 84 8e bd 3a ab 84 3e a9 59 99 bd e0 b2 4a be
       -0.069588855 0.25911885 -0.074878044 -0.19794798
000090 23 70 49 3e 18 5f d0 3e 4e 5a cd 3e cc 34 ee 3e
       0.19671683 0.4069755 0.4010796 0.46524656

convs.0.block1.1.weight f4 [8]
000000 6d 2c 6d 3f 5a a9 9b 3f ef d0 97 3f 1c 2b 6b 3f
       0.92645913 1.2161057 1.1860636 0.91862655
000010 9e 1a 78 3f ba bb 73 3f 7c b7 87 3f d4 e5 60 3f
       0.96915615 0.95208323 1.060287 0.8785069

convs.0.block1.1.bias f4 [8]
000000 c1 0d 6e bd 78 41 3b be 24 1c 24 bd 55 ce 63 be
       -0.058118585 -0.18286693 -0.0400659 -0.22246678
000010 63 7e a1 bd bf 70 08 3e 4f 08 bd 3b eb ef 18 be
       -0.078854345 0.13324259 0.0057688127 -0.14935271

convs.0.block1.1.running_mean f4 [8]
000000 e3 ab e8 39 3c 38 63 ba 0b 7a a9 3a 39 b1 05 bb
       0.00044378554 -0.00086677424 0.0012930048 -0.0020399822
000010 ea d5 09 bc f7 f6 5a b9 50 91 0d 39 07 f5 29 3c
       -0.0084128175 -0.00020882102 0.00013500941 0.0103733605

convs.0.block1.1.running_var f4 [8]
000000 fb e0 fd 3c 26 f6 7e 3c 5a 94 69 3d 70 e8 9e 3d
       0.030991068 0.015561616 0.057026245 0.07759178
000010 71 a8 d0 3f 77 f2 64 3c 5f 02 48 3c d6 dc d0 3f
       1.6301404 0.013973824 0.012207597 1.6317394

convs.0.block2.0.weight f4 [16, 8, 5]
000000 9a 02 5a be d0 fa 13 bb 99 82 77 3d f9 cb 57 bd
       -0.21290055 -0.0022579916 0.060427282 -0.052684758
000010 7d f4 bb bc 92 07 49 3d 0c ce 9d bd c5 7c 96 be
       -0.02294373 0.049079485 -0.07705316 -0.29392067
000020 d4 88 f1 3c 83 93 40 3d 0a ac ab 3d 5e af 19 be
       0.02948419 0.04701568 0.08382423 -0.15008304
000030 47 9f 06 be 5c 2f ea 3d 0d 6e eb bb 65 5c d0 bc
       -0.13146697 0.11434814 -0.00718475 -0.025434682
000040 3c 6e ea 3d 4c 6c 56 be 29 b2 c9 bd f5 10 9f 3e
       0.11446807 -0.2093975 -0.098484345 0.31067625
000050 bd ef 4c 3e dc 4e 8a bd d6 3c 0e 3e 9d e1 97 3d
       0.20013328 -0.067533225 0.13890395 0.07416079
000060 18 56 c7 bd d2 7c b9 3d d3 02 75 be f8 97 7c 3d
       -0.09733218 0.09057011 -0.23926859 0.061668366
000070 92 77 d9 3d cb 8e 3a 3e f2 71 19 bd 90 c9 32 3e
       0.10618509 0.18218534 -0.037462182 0.17459702
000080 94 8e 52 bb fa 24 94 3d 39 48 39 be a9 de 15 bd
       -0.003212844 0.07233615 -0.18093957 -0.0365893
000090 e7 64 a6 3d 0c e7 ed bd 10 62 2e 3d 74 14 36 be
       0.08124714 -0.11616334 0.04257399 -0.1778124
0000a0 33 b9 11 bd 9f 83 1a be 1b fb cf 3c 07 de 62 3e
       -0.03557701 -0.15089272 0.025388291 0.22155009
0000b0 9e 73 4f be 8c d2 14 bd 8c 1c bd be ec 08 9f bd
       -0.20258948 -0.036333606 -0.36935842 -0.077653736
0000c0 4f 70 32 3e a1 79 04 bd 5c 52 33 bd 04 ad ed bd
       0.17425655 -0.032342557 -0.043779716 -0.11605266
0000d0 6b 86 7c 3d 2b 82 c6 3e e7 ea 0c 3e fb 7b 46 bd
       0.06165163 0.38771185 0.13761483 -0.04845808
0000e0 47 3f 6b 3d 20 1f b6 bc a1 a6 e6 bd 29 7e 0c be
       0.057433393 -0.022231638 -0.11262251 -0.13720001
0000f0 20 cd 32 3c 4a 2d 74 bd d8 26 1e bc ff 5b f5 3c
       0.010913163 -0.059613504 -0.009652816 0.029951094
000100 1c d5 6d 3e 6d 6a 39 3d 70 c3 05 3e 39 5a d1 3c
       0.23225826 0.04526751 0.13062835 0.025555717
000110 28 76 6c 3d f8 21 7c bd 01 cb b6 bc e5 81 0b 3d
       0.05772987 -0.061555833 -0.022313597 0.034059424
000120 72 4d df bd f0 8b cb bd c7 6d 06 3e be e1 2b 3d
       -0.109034434 -0.099388 0.13127814 0.04196333
000130 32 b2 86 3c 95 e2 30 be 71 2f d3 3d 96 15 02 be
       0.016442392 -0.17273934 0.10311783 -0.12703547
000140 65 f1 a5 bd dc 45 9b 3d 81 6a 34 3d 32 41 33 3e
       -0.08102683 0.07581684 0.044046883 0.17505339
000150 40 5c 39 bd cc 04 cc 3b df 7e c2 be 67 97 8b 3d
       -0.045253992 0.006226158 -0.3798742 0.06815987
000160 d6 01 da 3d 21 98 13 bd 1c 2a fc bd 85 ff 8d 3e
       0.106448814 -0.036033753 -0.12312719 0.27734008
000170 7b 1f da bd 85 9b 83 3e d1 74 0d bc ac d3 20 be
       -0.10650536 0.2570459 -0.008633808 -0.15705746
000180 35 4c df 3d 03 ad 42 bc 18 8c d4 bd 96 9d 90 bc
       0.10903207 -0.0118820695 -0.10378283 -0.017653268
000190 fd eb 37 bd 69 ec db bd e0 ac c8 bc 2c 99 a7 3b
       -0.04490279 -0.10738451 -0.024496496 0.005114695
0001a0 33 62 81 3e 34 53 00 bd db 6f 93 bd 2e 6c 1f 3d
       0.25270233 -0.03132935 -0.07199069 0.038921528
0001b0 dd d1 1d bd 7f bb e6 3c d0 a9 24 3e 1c 8a e5 3d
       -0.03853022 0.028165577 0.16080403 0.11207983
0001c0 cb 8b 1a bd 3d 62 cc bd 05 e3 33 3c 85 15 87 3e
       -0.037730973 -0.09979675 0.010979419 0.26383606
0001d0 d6 b4 6a be 5d b9 01 be ca 07 2a 3e 93 6c b7 bd
       -0.22920546 -0.12668367 0.16604534 -0.08956256
0001e0 fb 5e 86 3d 1e 80 86 bd 82 e0 00 be 81 df 1d be
       0.06561085 -0.06567405 -0.12585643 -0.15417291
0001f0 34 f9 9c 3d 2e 04 02 3e 05 fa 7f bd af 0c a5 be
       0.07664719 0.12696907 -0.062494297 -0.3223624
000200 80 c8 24 3e 3a 6c 04 3d a6 b6 2b 3e 02 66 37 3e
       0.1609211 0.032329775 0.16768894 0.17910007
000210 49 0f 9d be 0a 15 9f 3e c6 6c b2 3d 4b a4 a9 bd
       -0.30675724 0.3107074 0.08712153 -0.082832895
000220 fb a5 fc bb cf b6 2f be 0b f6 2d bd a9 fb 83 bd
       -0.007710216 -0.1715958 -0.042470973 -0.06444485
000230 bf df 34 be e2 77 34 3e 85 38 2e 3e e4 47 da bd
       -0.17663477 0.17623857 0.17013748 -0.10658243
000240 77 ea 1a 3c 3f 3d f7 3d 0a a4 ae 3d e7 52 04 3e
       0.009455315 0.12072229 0.08527382 0.1292225
000250 7c 2d 16 be 5c 3b 38 3e 64 93 bd bb 68 57 37 be
       -0.14665788 0.17991394 -0.0057853926 -0.17904437
000260 fc a6 65 3e 11 34 db 3d b1 82 f7 bd b4 6b 49 bd
       0.2242698 0.1070329 -0.12085474 -0.04917498
000270 3b e5 ff bc 00 d8 2f 3d fd 3e 88 3d 3b 3e 8c 3d
       -0.031237235 0.042930603 0.06652639 0.06847807
000280 27 9c 5a be 11 f5 b5 3e 0d 2e 8c bc 36 30 dd 3d
       -0.2134863 0.35538533 -0.017111802 0.10800211
000290 44 73 75 3e e6 89 20 3e 9a 4e 98 be 22 83 14 be
       0.23969752 0.15677604 -0.29747468 -0.14503148
0002a0 b0 8d 86 3e 82 7f fd bc 40 84 b9 3d 44 63 3a 3c
       0.26279974 -0.03094459 0.09058428 0.011376206
0002b0 3d 97 2c 3d 1f ad d9 bd df 85 d6 3c e9 cd 34 3e
       0.04213642 -0.10628723 0.026186882 0.17656673
0002c0 8e a3 54 bd 08 bb fa bd 78 08 a3 bd e4 04 f9 3c
       -0.05191379 -0.12242705 -0.079606 0.03039784
0002d0 b2 85 fb bd a6 60 b3 3b e7 cb ee ba a0 f5 39 3d
       -0.1228136 0.005474168 -0.0018218727 0.045400262
0002e0 de 32 b0 3d df f5 91 3d cd b9 6d 3d e7 17 8c 3e
       0.08603452 0.07126974 0.05803852 0.27361986
0002f0 7a 42 c0 be 35 ac 6f bd a1 87 54 be 80 a1 24 39
       -0.37550718 -0.05851384 -0.20754863 0.00015700422
000300 ce a6 47 3c da 31 14 3e 21 f7 06 be 2d 7f 2e bd
       0.012185765 0.14472142 -0.1318021 -0.042601753
000310 64 3d b7 bd 08 3b ac bd d8 75 b7 3d 88 ab dc bd
       -0.08947256 -0.08409697 0.08958024 -0.107749045
000320 a6 cb 37 3d 70 42 34 3d 3b 1e 4e bd f4 76 e5 3d
       0.04487195 0.044008672 -0.0503218 0.11204329
000330 21 9d 1c be 5c 9a 07 be f1 b8 c4 be a0 7c 83 bd
       -0.15294315 -0.13242477 -0.3842235 -0.06420255
000340 d2 80 33 3e 8a f8 10 3d 28 47 51 3d ac 3a 9d bd
       0.1752961 0.035393275 0.05109325 -0.076772064
000350 4b 30 0c 3e f9 ee a9 3e 42 69 0b 3d f2 36 22 3d
       0.13690297 0.33190134 0.03403593 0.03960318
000360 30 92 c8 bd 22 4e ae 3d 32 8d 01 be 93 4b 60 3d
       -0.09793508 0.085109964 -0.12651518 0.054759573
000370 10 fc c7 3c 65 ec ff 3c 91 40 bb 3d 13 43 9d bc
       0.024412185 0.031240651 0.091431744 -0.019197023
000380 60 93 ec bb 0c 59 02 bd 79 2c 09 3e 2e 35 3c bd
       -0.007219717 -0.031823203 0.13395871 -0.045949154
000390 94 55 fe 3a fe bc 50 bd f7 44 27 3c 15 bf c8 3d
       0.0019404166 -0.050961487 0.010209314 0.09802071
0003a0 2a 1c f1 bd 9b 0e 06 be 22 c0 28 3e 1a fd 9d 3b
       -0.1177295 -0.13091509 0.16479543 0.004821432
0003b0 85 48 0d 3d 20 0c a6 bd 13 e1 b0 bc 43 21 a4 bd
       0.03449299 -0.081077814 -0.021591699 -0.08014157
0003c0 d7 b8 cb bd 1a bc e2 3c 7f 41 86 3c fe 8d ec bb
       -0.09947365 0.027677584 0.016388653 -0.007219075
0003d0 22 0c e6 bd ca 55 40 be de 5c 7f be 94 e0 1f bc
       -0.11232783 -0.18782726 -0.2493777 -0.009758133
0003e0 b0 77 46 3e 87 39 18 3d 7f 59 b7 3d 16 69 33 bd
       0.19381595 0.037164237 0.08952617 -0.04380139
0003f0 1a 23 37 be 49 15 af 3e 42 53 b0 3d 6c 54 ad bd
       -0.17884484 0.34195927 0.0860963 -0.08463368

convs.0.block2.1.weight f4 [16]
000000 02 ce cd 3f 85 55 be 3f 06 d2 13 40 c3 01 e4 3f
       1.6078494 1.4869848 2.3096938 1.7813038
000010 4f 86 0d 40 a9 47 c6 3f ea 65 a9 3f 0b 73 0b 40
       2.2113225 1.5490619 1.3234227 2.1788967
000020 8d d2 f7 3f f7 42 f1 3f 65 b0 04 40 88 da 0d 40
       1.936113 1.8848561 2.0732663 2.216463
000030 2b 37 b2 3f 0b d6 e6 3f 5e a5 f6 3f a4 82 eb 3f
       1.3923086 1.8034071 1.9269216 1.8399243

convs.0.block2.1.bias f4 [16]
000000 63 70 15 3e ff cc 84 3d 39 9e 15 3f 75 70 fb 3d
       0.14593653 0.064844124 0.58444554 0.12277309
000010 5a 8b 0b 3f 81 b5 25 3e 46 dd 79 3d 89 83 37 3f
       0.5450951 0.1618252 0.06100204 0.7168508
000020 c3 fe 05 3f e2 b2 2e 3e 95 82 82 3e 4c 6b 30 3f
       0.5234186 0.17060426 0.2549025 0.6891372
000030 62 dc 20 3e f4 b5 b8 3e a2 41 28 3b 95 e1 8d 3e
       0.1570907 0.3607632 0.0025673886 0.27711168

convs.0.block2.1.running_mean f4 [16]
000000 d0 28 22 bd 03 b0 0f 3d de 55 09 3e 52 2f b0 3e
       -0.039589703 0.035079967 0.13411662 0.34411103
000010 56 37 23 3d 03 ca d8 3d 66 f2 ec bd f2 af b3 3d
       0.039847694 0.10585406 -0.11569671 0.08773793
000020 cc 4a 8d 3c c8 47 e0 3d 9f 80 35 3e f0 ec c6 3d
       0.01724758 0.10951191 0.17724846 0.09713161
000030 20 55 36 bf f7 d6 86 bc c5 c4 16 3e 19 3f 10 3e
       -0.7122364 -0.016459925 0.14723499 0.1408657

convs.0.block2.1.running_var f4 [16]
000000 26 58 08 3e 8e 21 b3 3e d1 4b aa 3d 0b 65 67 3e
       0.13314876 0.34986538 0.08315242 0.22597139
000010 a3 bf 33 3e 91 d5 55 3e 0e 70 24 3e 90 75 1e 3e
       0.17553572 0.2088225 0.1605837 0.15474534
000020 27 ed 40 3e d3 c1 11 3e 35 d1 69 3e 5e 51 10 3e
       0.18840466 0.14234094 0.22833712 0.14093539
000030 73 fd 79 3e 24 cc 7f 3e 8a 7c 68 3e b3 0a 5c 3e
       0.2441309 0.24980217 0.22703758 0.21488456

convs.1.block1.0.weight f4 [8, 1, 5]
000000 4f 8f 80 3e 27 67 e4 bd c5 88 74 3e 8e 68 08 be
       0.25109336 -0.11152487 0.23880298 -0.13321134
000010 77 34 2a be 68 85 74 3e 75 7b 5f 3e a7 dc f3 be
       -0.16621576 0.23879015 0.21824439 -0.47629282
000020 44 70 f9 be 78 5a 54 3e 36 d9 62 bc be 38 99 3e
       -0.48718464 0.20737636 -0.013845732 0.29926103
000030 af 0d 3c be 4a e6 83 bd ba 88 af be fe 5f 42 3d
       -0.18364595 -0.064404085 -0.34284002 0.047454827
000040 4d 51 02 bc f2 35 b7 bd 45 e5 c2 be 87 a1 07 3f
       -0.007953954 -0.08945836 -0.38065544 0.52980846
000050 a0 8f 05 3d 17 6d dd be b2 c0 b9 be 97 2b 01 3f
       0.032607675 -0.4324729 -0.36279827 0.5045714
000060 16 43 bf 3e 98 4a 68 3d 06 45 70 be 5b 3f 3f 3e
       0.3735587 0.056711763 -0.2346383 0.18676512
000070 89 d0 5d 3e df 9c 74 bd c1 f6 8f 3d e0 14 9f 3e
       0.21661581 -0.059719916 0.070294864 0.31070614
000080 62 1c 89 be d0 d7 ab 3e 05 3d 9b be d4 b0 9d 3e
       -0.26779467 0.3356309 -0.30319992 0.30798972
000090 2a ce ce be 28 5e 48 3d 5e 30 31 be 3e a9 42 3e
       -0.40391666 0.04891792 -0.17303607 0.19009873

convs.1.block1.1.weight f4 [8]
000000 53 1b 7c 3f 93 2b 46 3f c1 71 80 3f 01 cc 81 3f
       0.98479193 0.7741024 1.0034715 1.0140382
000010 06 0e 8a 3f 18 70 6c 3f 64 e4 6e 3f 84 60 88 3f
       1.078553 0.9235854 0.93317246 1.0654454

convs.1.block1.1.bias f4 [8]
000000 67 2e 13 3e 74 d8 80 be d1 8b 78 be 02 39 aa bb
       0.1437317 -0.2516514 -0.24272086 -0.005194784
000010 c2 22 18 bf 45 c4 db 3c 8c cd 5a be 27 50 bb bd
       -0.59428036 0.026826987 -0.21367472 -0.09146147

convs.1.block1.1.running_mean f4 [8]
000000 e9 99 60 bb cc c3 91 ba 1e f3 42 bb 96 9b 0f 3b
       -0.0034271425 -0.0011120974 -0.002974696 0.0021912805
000010 85 ad be 3b 36 8f 1e b9 18 f2 1e bb e4 bf 28 39
       0.005819025 -0.00015121404 -0.0024253186 0.00016093213

convs.1.block1.1.running_var f4 [8]
000000 8d fd 64 3c ea 5c fb 3d bd c4 75 3d c8 6f 8c 3c
       0.013976467 0.12273581 0.060002077 0.017143145
000010 12 65 e2 3c 63 f6 03 3d 46 29 9b 3c 5d d7 11 3c
       0.027636085 0.032217395 0.01894058 0.008901444

convs.1.block2.0.weight f4 [16, 8, 5]
000000 60 da 64 be 3d 84 97 3c 22 13 1f be 94 1e a2 3d
       -0.22348928 0.018495673 -0.15534642 0.079159886
000010 62 2b e7 3c 9f 99 da 3b 50 28 96 3d f7 c4 04 3e
       0.028218929 0.006671145 0.07331908 0.12965761
000020 df d9 99 bd 87 78 7e 3b d2 70 23 be 76 5b 80 3d
       -0.07512259 0.0038829164 -0.15961006 0.06267445
000030 c4 21 7c 3d 89 de 99 bd 10 73 01 bd 18 7b 15 3e
       0.06155564 -0.07513148 -0.031603873 0.14597738
000040 59 e1 e1 bd fa 5e 88 3e 57 2f c1 3c 70 74 6a bd
       -0.1102931 0.2663496 0.023582144 -0.05723995
000050 43 b2 24 3e 06 55 24 be df e8 87 3d ff a1 b8 bc
       0.16083626 -0.16048059 0.066362135 -0.022538183
000060 36 d7 31 be 12 8c 57 be 33 8f 5f 3e 8f 2d 82 bc
       -0.17367253 -0.21049526 0.2183197 -0.015890865
000070 a4 98 62 3d e5 ba b3 bd 7e e1 f8 bc f1 7b fb bb
       0.05532135 -0.08775882 -0.03038096 -0.007674687
000080 54 cb 8f 3e e4 3d 23 be a8 0f f6 bc c3 58 92 3e
       0.28084815 -0.15941578 -0.030036762 0.28583345
000090 cc 04 e0 3c c7 b3 41 3e ca 51 57 be 8f 20 3b 3e
       0.027346037 0.18916236 -0.21027294 0.18274139
0000a0 59 c0 52 3d c7 21 16 be 6e f3 14 3d f6 2a e1 bd
       0.05145297 -0.14661323 0.036364965 -0.10994522
0000b0 13 f9 87 be 1f 2f 07 be e6 48 ca 3d d9 f6 33 3c
       -0.26557216 -0.13201569 0.098771855 0.010984146
0000c0 a9 0a 01 3d 68 6b e6 bd 0d e5 77 3d 01 94 97 3d
       0.031504307 -0.11250955 0.060521174 0.074012764
0000d0 1b ab 35 bd c3 47 97 3c 70 76 2c be b6 51 39 be
       -0.044352632 0.018466836 -0.16842055 -0.18097576
0000e0 33 40 f9 bc 73 c8 b4 bd 2a 0c bf 3c 6a 72 b4 bd
       -0.03042612 -0.08827295 0.02332123 -0.08810885
0000f0 8b b7 84 bd d0 f0 0d be f6 f9 2f bd d5 45 68 3c
       -0.064803205 -0.13861394 -0.04296299 0.0141768055
000100 5a fb 4a 3e c3 27 1e bd 87 e1 92 bd 5f db d2 3d
       0.19822446 -0.03861214 -0.07171922 0.10295748
000110 ea d0 8b bd 5c 37 28 3e b2 b6 09 be 05 98 86 3d
       -0.068269566 0.16427368 -0.13448599 0.06571964
000120 e6 cb af 3c a4 5e 2b ba f9 f7 8b 3d 39 15 b0 be
       0.021459531 -0.0006537235 0.068344064 -0.34391192
000130 c7 b9 09 be 14 19 04 be e0 07 c9 3d 55 f1 81 3d
       -0.13449775 -0.12900192 0.09815955 0.063448586
000140 1d 63 27 3e 1e 38 7c be 28 4c 69 3e 19 42 37 3d
       0.16346402 -0.24630782 0.22782958 0.04474077
000150 b9 0e 98 bd b0 15 13 3e 24 82 c0 3c e5 ea 88 bd
       -0.07424683 0.14363742 0.023499556 -0.066854276
000160 d6 2e 3a 3b 39 d7 47 bd 47 64 e4 bd d1 d2 81 bd
       0.0028409264 -0.048789237 -0.11151939 -0.06339038
000170 00 2f 03 3e 29 80 4f 3d a2 cf c3 bc 01 5b 22 3e
       0.12810898 0.050659332 -0.023902718 0.15855028
000180 07 af d5 3d dd ad ae bc bf 7d 0a bd 05 ad 69 bd
       0.104337744 -0.021323139 -0.033811327 -0.05704977
000190 58 19 2a 3e 16 d5 8b 3e f4 d6 c0 3d ff 84 e8 bc
       0.1661123 0.2731101 0.09415999 -0.02838373
0001a0 5e 41 1a be 8c 16 36 ba 9d 02 4a 3e 5f 12 0a bd
       -0.15063998 -0.0006946109 0.1972756 -0.033708926
0001b0 44 ba 95 be d5 ee a3 bd bc 66 37 be 73 cb 4f 3c
       -0.29243672 -0.08004538 -0.17910284 0.012682783
0001c0 83 f3 82 3e 87 ce 08 be 64 5f d3 3b 76 2e c5 3e
       0.2557641 -0.13360034 0.0064505804 0.3851201
0001d0 68 cc 37 3d ef 53 1c be 1c e5 e8 3d 7b 64 39 ba
       0.04487267 -0.15266393 0.11371824 -0.00070721627
0001e0 7f cc 9f bd 7e 24 3e be b0 f3 92 3d 54 65 62 bb
       -0.078026764 -0.18568608 0.07175386 -0.003454526
0001f0 6c 7e c2 3b 92 fe ae 3c 60 d1 8b 3e 5e bc 95 bb
       0.005935481 0.021361623 0.27308178 -0.0045695743
000200 d6 9d 8c bd d6 bb d2 3d 71 ff ec bd 8e a5 80 be
       -0.06866042 0.10289733 -0.11572159 -0.25126308
000210 c3 cd c7 bb 94 07 97 bb 49 08 e1 3d 14 74 d3 3d
       -0.0060975268 -0.0046090577 0.109879084 0.103248745
000220 91 fc b6 bd f3 bf 1a bd 99 7a b8 3d 71 16 9c 3d
       -0.08934892 -0.037780713 0.09007759 0.07621468
000230 44 29 4d be 49 8f 04 3d 8f 6a 1d bd b2 77 a6 bd
       -0.20035273 0.03236321 -0.0384317 -0.08128299
000240 cb 9d c8 3e c7 2a a9 bd 9a 52 93 3d e6 04 4f bd
       0.39182886 -0.08260112 0.071934894 -0.05054178
000250 df 32 02 bd b8 ae 28 3e cc d4 57 be b1 21 97 3e
       -0.031786796 0.164729 -0.2107727 0.29517892
000260 25 6c 89 be be e2 4d bc af 92 25 3e 82 d3 3d be
       -0.2684032 -0.012566267 0.16169237 -0.18537715
000270 ed 6a 22 be b8 91 6a 3e d5 65 7f 3d f2 c4 5c 3d
       -0.15861101 0.2290715 0.062352974 0.05389876
000280 f3 86 70 3d 6f 6a 95 3c 9d 4e 90 3c c0 27 2a bd
       0.058722448 0.018239228 0.01761561 -0.041541815
000290 3d cd 3a be 3f 3a e2 3c 3b 99 d7 bd a0 24 ab bd
       -0.18242355 0.027615665 -0.10527273 -0.08356595
0002a0 fd 30 3b bd d7 3d 0e 3e 91 e2 2c 3e 4b ad e1 bd
       -0.045701016 0.13890778 0.16883303 -0.11019381
0002b0 14 e3 9a bd d1 9d 02 be 67 c4 36 3d 8a bb 7f 3a
       -0.07562843 -0.12755515 0.044620898 0.00097554235
0002c0 d7 82 f9 bd a7 f8 4c be 0e 1d 7a 3e 69 45 80 bd
       -0.12183159 -0.20016728 0.24425146 -0.06263239
0002d0 47 b4 82 ba 23 f4 a8 bd 86 59 1a be d7 01 80 3e
       -0.000997194 -0.082496904 -0.15073213 0.25001404
0002e0 75 3f 56 3d 9f ca 13 be 98 04 c2 bd 94 fd 40 b9
       0.05230661 -0.14432763 -0.094735324 -0.00018405012
0002f0 a8 3f c6 3d b1 88 70 3e 5a 6a 82 bc 8f cc f2 bd
       0.0968011 0.23489644 -0.015919853 -0.11855423
000300 f9 da fb 3d bd 4b 9c 3d 8a c0 d2 bc 62 4c 29 be
       0.12297625 0.076316334 -0.025726575 -0.16533044
000310 b4 57 b3 bd 36 3e 25 3e be 96 98 3d ae 85 f5 bd
       -0.087569624 0.16137013 0.07450627 -0.11988388
000320 5d 97 06 be 76 63 41 be 7d a5 7c 3e ba 76 45 be
       -0.13143678 -0.18885598 0.24672504 -0.19283572
000330 eb ca 9d 3b 05 fd d2 bc 03 72 a6 3c d9 16 2a 3e
       0.0048154495 -0.025755415 0.020318037 0.16610278
000340 50 d9 ed bd 9f 21 37 bd 8c ae 01 be 4b e6 39 3e
       -0.11613715 -0.044709798 -0.1266424 0.18154256
000350 6f 9b af 3d 72 40 2f be 92 41 7e 3d 20 c3 96 be
       0.085745685 -0.17114428 0.06207425 -0.29445744
000360 44 bd 38 3e a9 1c 39 3d f2 cf d5 bc 00 34 1c 3c
       0.18040949 0.045193348 -0.026100133 0.009533882
000370 61 69 98 3e 05 f8 55 3c 84 41 e7 bd 78 23 34 3c
       0.29767898 0.013059621 -0.11291793 0.0109947845
000380 0c 2c d4 bc 88 b7 93 3e 1a 30 15 be 67 b2 6b 3d
       -0.02589991 0.2885096 -0.1456913 0.057543185
000390 a4 3f b8 ba 81 97 30 bd 92 69 ad bd a4 f1 36 3e
       -0.0014057052 -0.043113235 -0.084674016 0.17865616
0003a0 06 84 e5 bb 63 10 95 3c e7 f3 a9 bd 3a 64 c9 bd
       -0.007004264 0.01819629 -0.08298474 -0.0983357
0003b0 bf 61 91 bd 53 cd 4f 3e 40 ef 35 3d 3c ee 15 be
       -0.07098722 0.20293169 0.04441762 -0.1464166
0003c0 cf fa 95 3e f4 e4 57 bd 25 44 08 be 04 ab 06 3d
       0.29292914 -0.05270858 -0.13307245 0.032877937
0003d0 b1 b7 7a 3c 5e db d1 bd db 53 3a 3d 4c 24 7b bc
       0.0153025845 -0.10246919 0.045490127 -0.015328478
0003e0 44 6b 22 ba 7e cc 8b 3d 2b 1b 61 be d7 b3 ed bd
       -0.00061957934 0.06826113 -0.2198302 -0.11606567
0003f0 35 0a 07 3e 41 0d 29 3e e6 4c 41 be 10 21 78 be
       0.13187487 0.16508962 -0.1887699 -0.24231362

convs.1.block2.1.weight f4 [16]
000000 06 11 c3 3f 1d d6 93 3f 41 7d f0 3f 76 81 b5 3f
       1.523957 1.1549717 1.8788224 1.4180133
000010 d0 57 b5 3f 41 91 d3 3f 81 96 06 40 70 27 e5 3f
       1.4167423 1.6528703 2.102936 1.790266
000020 6e 73 c4 3f 0b 68 e0 3f dd 4b 8f 3f 2e 46 8c 3f
       1.5347726 1.7531751 1.1195027 1.0958917
000030 a9 21 bd 3f f3 86 b2 3f e2 c4 92 3f d8 92 e3 3f
       1.4775897 1.3947433 1.1466334 1.7779188

convs.1.block2.1.bias f4 [16]
000000 14 42 98 3e e6 07 a9 3c 95 42 21 3f f0 14 3e 3e
       0.29737914 0.02063365 0.6299222 0.18562675
000010 27 e7 ec 3d d2 e5 9b 3e 00 d6 06 3f 72 52 02 3f
       0.11567526 0.30448776 0.5267029 0.5090705
000020 c2 1b 17 3e 5a b9 04 3f fc 96 e8 3c ea 0e 53 3a
       0.14756683 0.51845324 0.028392307 0.00080512336
000030 5d 7f 01 3d 60 67 46 3d 27 59 8d 3c ea 18 96 3e
       0.031615604 0.04843843 0.017254425 0.29315883

convs.1.block2.1.running_mean f4 [16]
000000 da d8 da 3c 79 de cc be a3 bd 2d 3e cd ba c7 3c
       0.026714731 -0.40013483 0.16966872 0.024381066
000010 a9 51 a3 bd 17 54 2e bd 51 c0 12 3e fb 5a 6f 3e
       -0.0797456 -0.042560663 0.14331175 0.2337455
000020 5a 5d 9d 3d 47 4a 1f 3c 09 8f 50 bd 5e c4 64 bf
       0.07683821 0.009722299 -0.05091766 -0.8936213
000030 22 db 11 be 6d 59 49 3e 29 ae 1a bf 1b 52 dc 3b
       -0.14243749 0.1966302 -0.60422 0.006723655

convs.1.block2.1.running_var f4 [16]
000000 c0 eb 3b 3e 04 eb 8c 3e 12 a1 ac 3e 91 77 5f 3e
       0.1835165 0.27523053 0.33716637 0.21822955
000010 f2 20 4e 3e 9f b3 ba 3d a1 4d 63 3e 1b d6 af 3e
       0.20129755 0.09116291 0.22197582 0.34343037
000020 07 de 58 3e 3c 12 d2 3d 08 37 83 3e 17 ae 98 3f
       0.21178447 0.10257384 0.25627923 1.1928128
000030 a8 fc 2d 3e 54 e6 8d 3e 12 dc c4 3e 91 40 0a 3e
       0.16990912 0.2771479 0.3844915 0.13501193

convs.2.block1.0.weight f4 [8, 1, 5]
000000 61 bb 17 3e d6 77 37 3e 70 ec f3 be 28 56 95 be
       0.14817573 0.17916808 -0.47641325 -0.29167295
000010 8e a8 e4 3e 0c fb 1b 3e d8 fe f5 3d 66 07 66 be
       0.44659847 0.15232486 0.12011498 -0.2246376
000020 55 e1 07 be 88 f0 e8 be f5 45 60 3e 7f dc cb be
       -0.13269551 -0.4549601 0.21901686 -0.39816663
000030 06 24 14 3c 95 31 30 3e 92 51 d7 be ca 00 d0 be
       0.009041792 0.17206414 -0.4205442 -0.40625602
000040 9c b9 b9 3e 5a 03 a5 3d fe 24 dc 3d 2a 2a bf be
       0.3627442 0.0805728 0.10749243 -0.37336856
000050 a4 75 b4 bd 81 d5 33 be 81 c1 fc 3e 72 23 cf bc
       -0.08811501 -0.17561914 0.49366382 -0.025285456
000060 0b fa db 3e 90 c6 68 bd 94 84 d0 3e 9b 07 e0 be
       0.42964205 -0.05682999 0.4072615 -0.43755803
000070 a0 5a 81 3e d6 0e d9 3d 91 57 4b be 74 b0 ea 3e
       0.25264454 0.10598533 -0.19857623 0.45837748
000080 a0 53 2d 3d b2 9d 5b 3e 95 81 2d 3d 03 af ec 3d
       0.04231608 0.21446875 0.042359907 0.11556818
000090 07 0d 47 bd 7c f9 88 3e 10 ce 68 bd a6 82 6f 3e
       -0.04859641 0.2675284 -0.05683714 0.23389682

convs.2.block1.1.weight f4 [8]
000000 19 5c 5a 3f f1 46 89 3f 3f 68 87 3f ce a2 8c 3f
       0.8529678 1.0724775 1.0578688 1.0987184
000010 16 c1 77 3f 31 ef 5b 3f 7b a9 86 3f 5a aa 61 3f
       0.96779 0.8591185 1.0520471 0.8815056

convs.2.block1.1.bias f4 [8]
000000 e1 ad 07 3c d4 6f 0c 3e 4a f9 18 3e da eb 2c 3e
       0.008281202 0.13714534 0.14938846 0.16886845
000010 b2 f7 73 be 3f 9a 78 be fc e5 e2 3d 07 52 80 be
       -0.23824957 -0.2427759 0.11079022 -0.25062582

convs.2.block1.1.running_mean f4 [8]
000000 91 e5 fd ba 27 29 9c 3c 74 4d 8b 3c 2b 4f f1 3b
       -0.0019370784 0.019062592 0.017004706 0.007364174
000010 e6 8f d8 bc 8c 26 50 bc b7 ce d6 bc ca 95 bb bc
       -0.026435804 -0.012704503 -0.026221616 -0.022898573

convs.2.block1.1.running_var f4 [8]
000000 21 db 6f 3c 4c ce 80 3e 64 91 18 3e 15 f3 2d 3d
       0.014639647 0.25157392 0.14899212 0.04246815
000010 d8 53 be 3e a6 82 87 3d 53 54 8e 3e 67 5d 5d 3e
       0.37173343 0.06616716 0.2779871 0.21617661

convs.2.block2.0.weight f4 [16, 8, 5]
000000 38 87 77 bd 1c 8c 89 bd 65 82 07 be 79 d4 c8 3d
       -0.06043169 -0.06716177 -0.13233335 0.09806151
000010 b5 21 1f bd 4a 81 f4 bd 17 61 13 be 27 16 dd bd
       -0.038850505 -0.119387224 -0.14392506 -0.10795241
000020 b0 2d f7 bd cd d3 3e be 59 f5 f8 3c 2f c1 9a bd
       -0.12069261 -0.18635483 0.030390428 -0.07556378
000030 df c7 37 bb 8b 17 7e be 82 5d 41 be 43 79 91 3d
       -0.0028042716 -0.24813668 -0.18883327 0.07103207
000040 21 e7 80 be 4f 20 07 be 75 71 1d be 12 ab 07 be
       -0.25176337 -0.13195919 -0.15375312 -0.13248852
000050 12 9d 0b 3d 9a a3 48 bc e4 29 a5 bd f5 4e 32 be
       0.03408534 -0.012246037 -0.08064631 -0.17412932
000060 ee 15 d1 bd 30 b0 9e 3c 0a e5 6e bd 43 47 20 be
       -0.10209261 0.019371122 -0.058323897 -0.15652184
000070 e3 b9 a2 bd da cd ac bd ad 88 1d be de 82 6e bd
       -0.07945611 -0.084377006 -0.15384169 -0.058230273
000080 ba 1b 7a be ea 14 bf bc 48 ae 91 be 4f 6f fd 3d
       -0.2442464 -0.023325402 -0.2845328 0.12374746
000090 b4 dc 4b bd 71 ee 78 3d f8 46 89 bd a9 82 ab bd
       -0.049771026 0.06077427 -0.06702989 -0.08374531
0000a0 03 23 33 be ef dc 44 be 2e 9c 36 3e 5a c7 66 3e
       -0.17493825 -0.19224904 0.17833015 0.22536984
0000b0 fe 0f ca bd c5 bc 9b bc cb cb 17 3e e5 81 0e bd
       -0.098663315 -0.01901091 0.14823835 -0.034791846
0000c0 68 b9 27 3e be 28 a1 3d e7 22 e1 bd 40 c8 e3 3d
       0.1637932 0.07869099 -0.10992985 0.11122179
0000d0 78 62 2f 3e 08 ec 04 bd 40 87 ea 3c 08 a0 49 3e
       0.17127407 -0.03245166 0.028628945 0.19689953
0000e0 58 ff 62 3d 90 9f 8a bd e7 6e f2 3d cd df 33 3d
       0.055419296 -0.067687154 0.11837559 0.043914605
0000f0 07 79 2c 3e 41 84 15 3e a0 cf d5 bd c8 05 ed bd
       0.16843043 0.14601232 -0.10439992 -0.11573368
000100 ad b0 0c bb 87 40 d2 bc 86 c6 b5 bd 4b ed ee 3d
       -0.0021467612 -0.025665535 -0.08875756 0.11666354
000110 e0 57 c5 3d ae a6 a7 3d e5 09 2f 3e e6 33 b8 bd
       0.096359015 0.081860885 0.17093618 -0.08994274
000120 2a 7f 5e bd ab 5e 47 3e 04 28 28 3e d5 1f 86 bd
       -0.05432049 0.19469707 0.16421515 -0.0654904
000130 47 9a e5 bd e4 a2 0e 3e 3f 3f 1b be 47 da 99 3d
       -0.11211067 0.13929325 -0.15160845 0.07512336
000140 0d db 91 bc b2 dd d0 bd 5c 04 1d be b4 7e 90 3d
       -0.017804647 -0.10198535 -0.15333694 0.07055417
000150 9d de 3f be 76 27 1f be a6 55 df bd 1c 33 95 bb
       -0.18737264 -0.15542397 -0.10905008 -0.004553212
000160 ed e9 5e be 14 d6 21 be ff d6 37 bc dd d2 27 be
       -0.21768923 -0.1580432 -0.011220693 -0.16389032
000170 4a 19 2b be 17 8d 64 bd f0 3a 8e be ac 7d 31 3d
       -0.16708866 -0.055798616 -0.2777934 0.04333274
000180 02 e7 3f be 66 12 66 bd 64 d6 85 be 3f 15 b1 bd
       -0.18740466 -0.05616989 -0.2614013 -0.086466305
000190 c2 7b 02 3e 72 4a a9 bd 73 da e2 bd 2a ca 58 3d
       0.12742522 -0.082661524 -0.11076822 0.052927174
0001a0 72 77 16 be 27 f4 d2 bc 30 29 a7 bd c5 f3 fc bd
       -0.14694002 -0.025751187 -0.08162153 -0.12351183
0001b0 75 30 96 3d 6e aa af bd 78 85 7b bd b6 02 6b 3b
       0.07333461 -0.08577429 -0.061406583 0.003585977
0001c0 02 fd b5 3d 9d c9 dc bd 64 77 8b bd 9d e4 ac bd
       0.08886148 -0.10780642 -0.06809881 -0.08442042
0001d0 86 15 93 bd b0 4f 35 3d b2 78 e4 bc 2c e0 1c be
       -0.0718184 0.04426545 -0.027889583 -0.1531989
0001e0 7e 49 9d 3c e9 0d 5f be c6 b2 b1 3b 41 1f 65 be
       0.019200083 -0.2178265 0.005422923 -0.22375204
0001f0 86 91 7a bb 97 73 e9 bc 9b 43 28 be 9c a9 8d bd
       -0.0038233711 -0.0284975 -0.1643204 -0.06917116
000200 96 bb 3d be 9c 24 aa bd 41 8b f9 bc 9b fa df bd
       -0.1852859 -0.08307764 -0.03046191 -0.10936471
000210 79 8c 64 be 23 ab 36 be 3b e6 f1 bd cd 18 59 be
       -0.22319211 -0.17838721 -0.11811491 -0.21200867
000220 2f 97 2c be d4 e2 94 bd f3 d4 90 be d0 97 23 bd
       -0.16854547 -0.072698265 -0.28287467 -0.0399397
000230 ae 6e e3 3d ed f9 8a bd 3b 80 58 bd 86 bc 2c be
       0.11105095 -0.06785951 -0.052856665 -0.16868791
000240 89 8a 19 3d e1 b7 d0 3d 14 23 df bd 51 3c bb bd
       0.037485633 0.10191322 -0.108953625 -0.09142364
000250 a4 ee 78 bd 93 eb 53 bd 49 d5 1e be 24 6e fc bd
       -0.06077446 -0.051738333 -0.1551105 -0.12325695
000260 cd a7 1e be 38 b2 49 be 39 3a 50 bd 87 0f 40 bc
       -0.15493698 -0.19696891 -0.050836775 -0.011722452
000270 cf b0 18 3e 17 25 49 bd ed dc ad bd 49 d6 34 bd
       0.14911197 -0.049107637 -0.08489404 -0.04414967
000280 66 f1 11 bc 30 10 48 be 4b 02 69 bd 63 e6 08 3e
       -0.0089076515 -0.19537425 -0.056886952 0.13369136
000290 31 d7 84 3c 01 53 9f bc b5 97 0c be ca bd cc 3b
       0.016215893 -0.019448759 -0.13729747 0.0062482106
0002a0 ee be 28 be 83 c6 29 be 74 69 86 bc 6c 42 4a be
       -0.16479084 -0.16579632 -0.016407706 -0.197519
0002b0 17 8d b3 bd b5 5a 43 be ba f6 1e be e9 19 85 be
       -0.08767145 -0.1907757 -0.15523806 -0.2599633
0002c0 2c 45 9b bd 16 56 10 be 52 c8 2a be 14 a9 e3 bd
       -0.07581553 -0.14095339 -0.16677979 -0.111162335
0002d0 37 05 e1 3d b7 e9 07 3d ae 6b 0d be 12 08 3b 3c
       0.10987323 0.033181872 -0.13810608 0.011415498
0002e0 54 ff e2 bd dd bc 03 3e 75 9a a0 bd f8 7f 88 be
       -0.11083856 0.12865014 -0.0784196 -0.26660132
0002f0 68 38 8c 3b 04 a7 a8 bd fe 92 5c bd 2b 1d d5 bd
       0.004279185 -0.08234981 -0.05385112 -0.10405954
000300 bb c4 81 bd 9a c0 6b be e7 03 1e 3c 36 34 3a 3d
       -0.063363515 -0.2302269 0.009644485 0.04545995
000310 f6 2e 4a 3d 78 60 f2 3c 62 65 25 bd 86 7f 04 be
       0.04936119 0.029587016 -0.04037989 -0.12939271
000320 2f 0f db bd f5 4e 1f be 50 98 13 bd a0 57 dc bc
       -0.106962554 -0.15557463 -0.03603393 -0.026897252
000330 b8 0a 02 3e a7 6f 9d bb 60 3e 3b be 09 cd 12 be
       0.12699401 -0.0048045698 -0.18285513 -0.14336027
000340 2c 28 3c be d5 dd 69 bd 94 7e 1c be db 5c 22 3d
       -0.183747 -0.05709632 -0.1528266 0.039639335
000350 57 2d 06 3a 7d 17 82 bd b8 50 d0 bd 06 a9 3a be
       0.00051184505 -0.06352136 -0.10171646 -0.1822854
000360 4c 31 cb bc 91 f5 70 be 95 d8 2a bc 43 0a a9 bd
       -0.02480378 -0.23531176 -0.010427614 -0.082539104
000370 a6 de 2a bd 36 e0 b6 3d c3 4a 1e be 0b 66 2f bc
       -0.04171624 0.089294836 -0.15458207 -0.010705481
000380 99 15 08 be e1 ca 7b bd 0b c9 06 bc 9a 00 0f 3d
       -0.13289489 -0.061472777 -0.008226643 0.034912683
000390 8e d7 da bd a1 46 b5 3d e9 b3 1a 3e 86 70 06 be
       -0.10685645 0.08851362 0.15107693 -0.13128862
0003a0 14 59 f0 3c 06 47 e9 3c e5 e9 a0 bd 40 0c d8 bd
       0.02933935 0.02847625 -0.07857112 -0.105492115
0003b0 67 d1 24 3d b7 6f 45 be ca 50 8a bd f8 64 90 bd
       0.040238764 -0.19280897 -0.067536905 -0.07050508
0003c0 af cf 68 3d 3f f2 b9 3d f4 78 bb bd eb 2a 34 be
       0.056838688 0.09079408 -0.09153929 -0.17594497
0003d0 ee 67 0d be f9 04 ed 3a c4 77 f3 3d 1c 14 c5 3d
       -0.13809177 0.0018083147 0.11888078 0.09622976
0003e0 32 23 2e bc d3 6b 2d 3e e7 26 32 3e e4 9b b6 3d
       -0.010628508 0.16935663 0.17397653 0.089164525
0003f0 f8 12 0d 3e a5 0a c1 3d c9 ff 96 bd 91 12 a5 bd
       0.13776767 0.094258584 -0.07373006 -0.08060182

convs.2.block2.1.weight f4 [16]
000000 63 7c 98 3f af 80 84 3f 22 60 96 3f d1 74 8c 3f
       1.191296 1.0351771 1.1748087 1.097315
000010 46 bd 83 3f 03 bb 8d 3f af 62 7c 3f 98 41 95 3f
       1.0292137 1.1072696 0.9858808 1.1660643
000020 bb 9d 98 3f 1d 90 96 3f 3c c3 a1 3f c4 12 82 3f
       1.1923136 1.176273 1.2637706 1.0161977
000030 08 ed 9c 3f f8 2b 90 3f da 75 8c 3f 85 d8 98 3f
       1.2259836 1.1263418 1.0973465 1.1941077

convs.2.block2.1.bias f4 [16]
000000 74 e6 da bd ff 27 aa bd 78 70 93 bc 65 df 02 bc
       -0.10688487 -0.0830841 -0.017997965 -0.007987832
000010 84 4e da bc b3 15 c5 bd ed 0a db bd 46 07 c2 bd
       -0.026648767 -0.096232794 -0.10695443 -0.094740435
000020 cc 39 52 bd 82 ea 19 be 58 0a b7 bc dc bb a1 bd
       -0.05132465 -0.15030864 -0.0223438 -0.078971595
000030 ae 99 15 bd 17 a8 69 bc 6f 78 14 bd 08 d9 0b bd
       -0.036523513 -0.014261267 -0.036247667 -0.034142524

convs.2.block2.1.running_mean f4 [16]
000000 77 c8 d0 bf 7e 55 47 3f 9b 26 be bf 56 a5 dc bf
       -1.6311177 0.77864826 -1.4855531 -1.7237957
000010 a0 08 b5 bf c6 19 88 bf 34 fd 63 3f d7 05 85 bf
       -1.4143257 -1.0632865 0.8905823 -1.0392407
000020 f4 59 98 bf 88 3b ce bf 6e a9 9b bf fb dd 96 3f
       -1.1902452 -1.6111917 -1.2161081 1.1786493
000030 d4 75 d3 bf 17 a2 c0 bf dc 16 bb bf 85 d9 d0 bf
       -1.6520333 -1.5049466 -1.4616351 -1.6316382

convs.2.block2.1.running_var f4 [16]
000000 4a b4 0f 3f 5b 0b 06 3e c0 f7 c3 3e 82 d5 f0 3e
       0.56134474 0.1309027 0.38274956 0.47037894
000010 e5 dc ad 3e f1 52 57 3e 8f ff 33 3e 45 ca 69 3e
       0.33957592 0.21027733 0.17577957 0.22831066
000020 11 9d 82 3e 89 73 18 3f 5d 6c 85 3e a0 fa 7f 3e
       0.25510457 0.5955129 0.26059237 0.2499795
000030 4e b8 fc 3e 46 f3 cc 3e f6 f4 cb 3e fb fb cf 3e
       0.49359363 0.40029353 0.39835328 0.40621933

convs.3.block1.0.weight f4 [8, 1, 5]
000000 a0 1c ec be 74 00 00 3f 58 07 91 be ec 84 3f 3e
       -0.4611559 0.5000069 -0.28325915 0.1870305
000010 55 a5 34 bb a6 0c d4 bd b0 85 49 3e ee 56 f1 3e
       -0.0027564366 -0.10353975 0.19679904 0.47136635
000020 96 03 9f bd 0b fe 9d 3c f4 bb 97 3e f3 60 a2 be
       -0.07764356 0.019286176 0.29635584 -0.3171459
000030 97 95 c8 3d 43 ea 0b bd d2 f7 0a bf f5 a4 26 be
       0.09794157 -0.034158956 -0.54284394 -0.16273864
000040 97 f1 8d be a2 cd 26 bd a1 a9 f0 bd ef 9b 9d 3e
       -0.2772338 -0.04072345 -0.11751104 0.3078303
000050 02 7d 05 bb e6 37 69 3d 70 42 a7 3e 3c f7 d4 3e
       -0.00203687 0.056938075 0.32667875 0.41594875
000060 20 fc 62 3e c4 9d c9 be d9 32 79 3e 4d 8b b5 bd
       0.2216649 -0.39378178 0.24335803 -0.0886446
000070 4c 36 c7 3e d8 de 5f 3e bd 3a 80 3d 4c cc 12 be
       0.38908613 0.21862352 0.062612034 -0.14335746
000080 4f dd db 3d 2d 00 70 be 04 88 87 3e cb 0d 1c 3f
       0.10735571 -0.23437567 0.2647096 0.60958546
000090 9e 3f 42 3e e0 7a 51 be a3 36 81 be 81 24 0d bd
       0.1896958 -0.2045703 -0.25236997 -0.03445864

convs.3.block1.1.weight f4 [8]
000000 d1 df 82 3f 52 a5 81 3f 85 96 57 3f 25 7b 89 3f
       1.0224553 1.0128577 0.8421405 1.0740706
000010 4e f3 80 3f d3 08 92 3f 77 76 62 3f 1b c0 79 3f
       1.0074251 1.1408943 0.88462013 0.97558755

convs.3.block1.1.bias f4 [8]
000000 b4 d2 74 be 67 58 09 be ab 86 ab bd a6 78 d4 bc
       -0.23908502 -0.13412629 -0.08375295 -0.025936436
000010 58 8b 06 bd 62 e7 95 be 59 55 a5 bd 42 15 67 be
       -0.032847732 -0.29278094 -0.080729194 -0.22566703

convs.3.block1.1.running_mean f4 [8]
000000 22 8e 0c ba b5 9b e3 3b 88 bc e6 bb 96 3c 89 bb
       -0.00053617556 0.006946052 -0.0070415176 -0.0041881306
000010 21 bd 57 3c d9 1e 9e 3b 65 26 4a 3a 66 a4 9e 3b
       0.01316765 0.0048254547 0.00077114097 0.004841375

convs.3.block1.1.running_var f4 [8]
000000 89 bb 8d 3e 3b e3 8e 3e c8 07 d9 3e e6 fd 52 3e
       0.2768214 0.27907738 0.4238875 0.20604667
000010 a7 e3 20 3f 2d a5 b2 3e cc 81 9e 3d 08 98 da 3e
       0.6284737 0.34891644 0.077396005 0.42694116

convs.3.block2.0.weight f4 [16, 8, 5]
000000 c5 9a 40 3e de b2 0c be c7 bf 0e bd 96 36 3b 3e
       0.1880904 -0.13740107 -0.034850862 0.18282542
000010 f3 bf 67 be 0d 79 1c be 1c 46 1f be e7 29 80 3c
       -0.22631817 -0.15280552 -0.15554088 0.01564498
000020 f0 56 3c be f4 e5 ee 39 5d 94 e4 bd 2f f7 32 be
       -0.18392539 0.00045566226 -0.111611106 -0.17477106
000030 49 8f c4 bd 74 2d 98 bc 29 7e 79 3e 56 b4 c2 3d
       -0.09597642 -0.018576361 0.24364533 0.095070526
000040 9c eb 4b be e1 b3 39 bd ef d2 16 3e 9c 95 1d 3e
       -0.19914097 -0.04533756 0.14728902 0.15389103
000050 3d 10 df 3d 3c 89 ea 3d 3a a7 57 be 62 8f f4 bd
       0.10891769 0.11451957 -0.21059886 -0.119414106
000060 1c 62 9a bd 41 57 5c 3e 2f 9a 18 3e 35 32 b0 3d
       -0.07538244 0.2151766 0.14902566 0.08603326
000070 5a 74 64 3e 47 29 9e 3d 1d a8 76 3d 60 30 3d 3e
       0.2231001 0.07722717 0.06021892 0.18475485
000080 66 e1 65 be 49 62 92 3d f9 96 7f 3e a2 a3 86 3d
       -0.22449264 0.07147653 0.24959935 0.06574179
000090 37 12 33 be b0 fc 29 3d 7a 43 10 be 01 c1 34 3e
       -0.17487417 0.041500747 -0.1408824 0.1765175
0000a0 88 fe 0a bd bb e6 28 3e 5f b3 be bd b1 b3 12 3e
       -0.033934146 0.16494267 -0.09311556 0.1432636
0000b0 52 fd 58 3e 38 b4 01 3d da 9b 85 be 8b 86 1e 3c
       0.21190384 0.03166601 -0.26095468 0.009675632
0000c0 ad 2c 63 3e eb d2 8e be 3a 5a 96 3d 09 af 9c bd
       0.22185011 -0.27895293 0.07341428 -0.07650573
0000d0 e5 c7 d0 bd e9 fb 05 be 78 a1 ab bd 64 4a cc be
       -0.10194377 -0.13084377 -0.08380407 -0.39900506
0000e0 c4 d6 91 bd 41 dd 24 be 77 96 67 bd cc aa ca 3d
       -0.071210414 -0.16100027 -0.05653998 0.09895858
0000f0 01 c7 f0 3c fe fc 48 be 28 45 39 bd 1c 5f 1b be
       0.029391767 -0.19627759 -0.04523197 -0.15173
000100 ba 48 a7 bd ac 36 0f 3e f1 a2 83 3c 5a 28 46 3d
       -0.08168168 0.139857 0.016068907 0.048378326
000110 06 63 9e bc f8 ca c3 3e 2b 8c 68 3d 1c a5 4c 3d
       -0.019334327 0.3824079 0.0567743 0.049962148
000120 8c db 3b be 38 41 a4 bd 25 69 d6 3c 95 15 64 be
       -0.18345469 -0.08020252 0.026173184 -0.22273858
000130 30 fd 99 bd cb c5 7f 3d 38 73 21 3e 86 76 1f 3d
       -0.07518995 0.06244449 0.15766609 0.038931392
000140 06 d2 b5 3c ef 0d ba bb 93 fc 7f 3d cc 17 78 3d
       0.022194874 -0.0056779305 0.062496733 0.06056957
000150 35 9a 3e be c7 31 07 3e c8 a0 92 3c ae 35 ae 3c
       -0.18613513 0.13202582 0.017898932 0.02126583
000160 b9 54 d9 bd 9b 80 af 3e 03 ae 04 be de 76 b4 bd
       -0.10611863 0.34277806 -0.12957005 -0.088117346
000170 e5 e6 b1 3d 02 f4 1a be df f3 f7 3d ad 86 66 3e
       0.08686618 -0.15132144 0.121070616 0.22512312
000180 4f 6a e5 bd 72 88 1a be 5e 34 71 bd 0c 5d 31 3e
       -0.112019174 -0.15091112 -0.058887832 0.17320651
000190 81 af 28 be 99 d2 09 be 02 90 65 3b b9 de 90 bd
       -0.164732 -0.13459243 0.0035028462 -0.07073731
0001a0 a6 b5 3a be b1 90 9b 3e c9 c7 34 be ed 45 a1 3d
       -0.18233356 0.30383828 -0.17654337 0.078746654
0001b0 d8 60 44 3e c3 2a 33 be 7a eb 1d 3d 48 60 1e 3b
       0.19177568 -0.17496781 0.038554646 0.0024166275
0001c0 4d 2f 90 bd d1 78 0f 3e 4f 40 60 3c cf 62 01 ba
       -0.07040272 0.14010932 0.013687207 -0.0004935683
0001d0 bb 21 10 be 15 24 ae bd 37 88 3c 3c a0 ec 07 3a
       -0.14075367 -0.08502976 0.0115070855 0.0005185101
0001e0 81 82 91 bd e8 1e 48 bb e4 dc 9d bd 21 55 5b 3e
       -0.0710497 -0.0030536 -0.07708147 0.21419193
0001f0 16 c5 91 3d 17 6e cd 3d ff 73 1d be 5e d9 3e 3c
       0.07117669 0.100307636 -0.1537628 0.011648504
000200 01 72 02 3d a7 10 6c be 40 8b 06 3c 3e e1 56 3c
       0.031847004 -0.23053227 0.008211911 0.013115225
000210 c5 09 a7 3d 78 bf 99 bd 93 fe 19 be 65 74 aa be
       0.0815616 -0.07507223 -0.15038519 -0.33291927
000220 f1 c7 28 3c 81 de 3d be d6 b4 7e be b8 15 20 3d
       0.010301576 -0.1854191 -0.24873671 0.039083213
000230 0f 52 d8 bc c9 b9 92 be a3 f1 89 bd 35 4d da bd
       -0.026406316 -0.28657368 -0.06735542 -0.10659257
000240 18 a4 a1 3a bb 2f 14 3e 97 a1 08 3c df a2 5d 3e
       0.0012332229 0.14471333 0.008339307 0.21644162
000250 ea 3a a9 bd 1c a5 c6 3e 99 a0 61 bc af c5 83 3d
       -0.0826319 0.38797843 -0.0137712 0.064341895
000260 5e ca 80 be 02 83 19 3e 03 04 30 bd de 6a 36 be
       -0.25154394 0.14991382 -0.042972576 -0.17814204
000270 be 19 43 be 69 42 9d 3d b6 85 f4 3d bc 25 3c 3e
       -0.19052789 0.07678682 0.11939566 0.1837377
000280 c9 d4 82 bd cf 7c 11 3c a4 a1 d4 bd 14 f1 7b 3e
       -0.06388242 0.008879854 -0.10382393 0.24603683
000290 e4 cc bf 3b 28 05 2c bd 1c a3 48 3e 9a f4 20 be
       0.0058532823 -0.041997105 0.19593471 -0.15718308
0002a0 e1 c1 e2 bd 26 37 67 bc 2d 47 50 bd 95 f9 6b 3d
       -0.11072136 -0.0141122695 -0.05084913 0.057611067
0002b0 e8 51 b3 3d 1a b0 d5 bd 1c c4 25 bd f0 ea b1 bd
       0.08755857 -0.10433979 -0.040470228 -0.08687389
0002c0 42 56 22 bd e2 6a 86 be e9 9a 58 be 82 65 5c bb
       -0.039633043 -0.2625342 -0.21152844 -0.003362984
0002d0 2d a5 a5 bd 87 25 63 be a1 de e2 bd c0 f7 13 3e
       -0.080881454 -0.22182284 -0.11077619 0.14449978
0002e0 55 8a ee 3d 2f cf fb 3d 93 dc 74 be fd 0c e4 3e
       0.116474785 0.122953765 -0.23912267 0.4454116
0002f0 84 70 fc bd 6f 98 5a 3d 1c 2e 1a be 62 8c 43 3e
       -0.12326148 0.05336803 -0.15056652 0.1909652
000300 ac 28 f3 bd a9 9b 08 3d ad 4a 8d bd c8 d4 44 bc
       -0.11872992 0.033351574 -0.06899009 -0.012013622
000310 7c 7d 35 be b4 b6 7d 3b 8f 91 b8 3d d6 ba 16 bd
       -0.1772365 0.0038713636 0.09012138 -0.036799274
000320 8b b2 79 3e 9b e2 06 be bd 22 16 3b ea 65 35 3e
       0.24384515 -0.1317238 0.002290889 0.17714658
000330 fc 73 38 be 2e 14 7f be 5c 48 1c be c3 2d f5 3d
       -0.18012995 -0.24910042 -0.15261978 0.11971619
000340 cb ea 59 be bd 66 ee 3d ed 31 61 be 83 f0 12 be
       -0.21280973 0.116406895 -0.21991701 -0.1434956
000350 a1 74 54 bd 36 74 9f bd c1 1d ec 3d 83 ef 40 3d
       -0.05186904 -0.07785837 0.115291126 0.047103416
000360 2e 65 56 be af fd 22 3e c2 6c 2c 3e 68 1e af 3d
       -0.20937034 0.15917085 0.16838363 0.085507214
000370 3f 10 49 3d bf 6e 82 3d 40 d4 08 be e8 73 c4 3c
       0.04908776 0.063687794 -0.13362217 0.02398105
000380 08 c9 43 be f6 04 9b 3e f9 7c 08 3e b1 f5 3b 3d
       -0.19119656 0.30277222 0.13328923 0.045888606
000390 94 71 fa 3c 4e 56 13 bd 58 5a 52 3d ac e5 c1 3d
       0.030571736 -0.03597098 0.05135569 0.094676346
0003a0 13 f8 15 be 3a 8c 7e bc bc 6e 62 3e a0 8a 37 3e
       -0.14645414 -0.015536362 0.22112554 0.17923975
0003b0 c9 df 19 be 8a c4 1c 3c 40 4e 7a 3d 93 a4 3a 3d
       -0.15026774 0.009568343 0.06110978 0.045567106
0003c0 58 fd 1b 3e 00 7c 2c 3e 30 b4 86 bb e1 b5 dc bc
       0.15233362 0.16844177 -0.0041108355 -0.026942195
0003d0 7b 12 f8 3d 36 55 7d be af 08 0c bd 12 b7 14 bd
       0.121129 -0.24739537 -0.03418797 -0.036307402
0003e0 2f b4 2d bd c4 0c 84 3c 4b 61 1e be 9b 72 fc bd
       -0.042408165 0.016119368 -0.15466802 -0.12326547
0003f0 26 c6 d8 bd f4 42 49 3c fd 72 0f 3e 02 0a 26 be
       -0.10584669 0.012284029 0.14008708 -0.16214755

convs.3.block2.1.weight f4 [16]
000000 d7 e8 02 40 25 a4 02 40 a5 55 10 40 3b 19 01 40
       2.0454614 2.0412686 2.2552273 2.017165
000010 68 a9 fc 3f ba 34 10 40 ce 68 07 40 1f f7 0b 40
       1.9739199 2.2532182 2.1157718 2.186958
000020 2e eb 00 40 12 48 ec 3f e8 f3 fe 3f 5a 61 ed 3f
       2.0143542 1.8459494 1.9918184 1.8545334
000030 4c 0c f7 3f ef 96 19 40 41 ae 13 40 56 7f 0a 40
       1.9300628 2.3998373 2.3075106 2.164022

convs.3.block2.1.bias f4 [16]
000000 62 06 cc 3e e7 ba be 3e 9b 59 22 3f 87 2c c9 3e
       0.3984862 0.3725197 0.6341798 0.39291784
000010 bb a6 d1 3e 22 65 be 3e 61 22 ba 3e b3 e8 2b 3f
       0.40947518 0.37186533 0.36354354 0.67151946
000020 fa 7f b2 3e c7 a7 a7 3e b2 29 9f 3e 96 7b 9d 3e
       0.34863263 0.3274519 0.31086498 0.3075835
000030 1d 9a 88 3e 70 3f 95 3f dc c0 31 3f 2f 15 b5 3e
       0.2668008 1.1659985 0.69434905 0.35367724

convs.3.block2.1.running_mean f4 [16]
000000 ef db 39 3e 69 15 da be 7a 84 8d bc 2a 4e ed be
       0.18150304 -0.4259446 -0.017275084 -0.46348697
000010 7f 72 de be b0 44 29 3e 13 9a 8d 3d 23 df 5d 3b
       -0.4344673 0.16530108 0.06914153 0.0033854924
000020 29 f7 c2 bd 82 55 ce be fb 19 be be 1b a4 04 bf
       -0.09519798 -0.40299612 -0.37129197 -0.51812905
000030 4e ae f3 be 8b b5 28 3e 55 11 8c 3e 8f b5 89 3e
       -0.4759392 0.16475503 0.27356973 0.2689633

convs.3.block2.1.running_var f4 [16]
000000 88 f4 5b 3e 4c 41 67 3e 1b ec 37 3e 97 60 52 3e
       0.2148 0.22583503 0.17961161 0.20544659
000010 7e 28 20 3e fb 16 3a 3e 77 1f 09 3e d7 6f a3 3e
       0.15640447 0.18172829 0.13390909 0.31921265
000020 f4 54 80 3e 44 8b 0d 3e 92 c7 2f 3e 40 35 49 3e
       0.25064814 0.13822657 0.17165974 0.1964922
000030 4e 9f 1e 3e 13 bd 2e 3e 6e 16 46 3e 57 41 40 3e
       0.15490457 0.17064314 0.19344494 0.18774925

convs.4.block1.0.weight f4 [8, 1, 5]
000000 4a c4 9f be cf 67 b6 3e 97 b2 98 be 9f 49 bf 3d
       -0.31204444 0.35626075 -0.29823753 0.09340214
000010 ea 8a 83 39 da ae 7b be 70 63 9b be b0 af 2e be
       0.00025089766 -0.2457842 -0.30349302 -0.17059207
000020 c9 3c 7d 3e 43 33 a7 3e 46 ee 8a 3e 9f a6 40 be
       0.24730219 0.32656297 0.27134913 -0.18813561
000030 ac 24 0a 3e b7 42 0d bf e3 71 ed 3e 69 01 77 3c
       0.13490552 -0.55179924 0.4637595 0.01507602
000040 16 18 14 3f f6 53 3f bd 61 36 d0 3e 06 57 d5 3e
       0.5784925 -0.04671093 0.40666488 0.41667956
000050 16 6a 17 3d 24 69 1d be 2b 40 e1 3e 15 ae 20 be
       0.036966406 -0.15372139 0.4399427 -0.15691407
000060 a2 e4 d4 3c 58 c7 f6 3e 5e 28 6f be 9d e5 41 3e
       0.025987927 0.48198962 -0.23355243 0.18935247
000070 a9 a6 4f be 6a 09 1f bd 9a bb 86 be 95 b6 21 be
       -0.2027842 -0.038827337 -0.26315004 -0.15792306
000080 6b 09 a6 be d7 07 01 3f 38 56 ea 3d c0 24 13 bf
       -0.3242906 0.5040259 0.11442226 -0.5747795
000090 fb 31 46 be 9d 9a 1f be 6f da 0f be 0b 89 95 3e
       -0.19355004 -0.15586324 -0.1404817 0.29206118

convs.4.block1.1.weight f4 [8]
000000 2a 90 8e 3f b0 03 98 3f 06 15 74 3f 8f b1 6b 3f
       1.1137745 1.1876125 0.9534458 0.9206781
000010 02 a5 69 3f 35 d3 3f 3f 9b 92 9a 3f 6e 36 81 3f
       0.91267407 0.7493165 1.207599 1.0094736

convs.4.block1.1.bias f4 [8]
000000 29 49 e9 3d 4e 8e 6a 3e 72 7b 0d be bf b7 87 be
       0.11390907 0.22905847 -0.13816622 -0.26507375
000010 81 75 43 bd d4 fd 8a be 91 97 43 3e 36 05 76 3e
       -0.047719482 -0.2714678 0.19100787 0.24025425

convs.4.block1.1.running_mean f4 [8]
000000 c2 a8 0b 3c 29 77 74 3c 61 0a d6 bb 19 8b 86 bd
       0.008524122 0.014920988 -0.006531999 -0.065694995
000010 48 e6 30 bc d9 52 40 bc 94 b5 50 3c 6b 43 28 3d
       -0.010797091 -0.011738502 0.012738604 0.04107992

convs.4.block1.1.running_var f4 [8]
000000 8b 75 d1 3c d3 5a 14 3d ef 99 d5 3c 3a 55 d9 3f
       0.025568744 0.03621943 0.026074378 1.6979134
000010 ce f9 26 3d 56 76 17 3d 93 46 ca 3c b3 63 f5 3e
       0.040765576 0.03697809 0.024691856 0.47927627
