runs/mc2_804.pt (torch, 13729 bytes, 31 tensors)

convs.0.block1.0.weight f4 [2, 1, 2]
000000 9f e0 44 3e 6a 55 28 bf 90 32 d1 3e 4e 2c 2a bf
       0.19226311 -0.6575533 0.4085889 -0.66473854

convs.0.block1.0.bias f4 [2]
000000 92 b9 d7 3e 65 b8 4d be
       0.42133766 -0.20089872

convs.0.block1.1.weight f4 [2]
000000 eb 9b 57 41 d3 42 57 41
       13.475566 13.4538145

convs.0.block1.1.bias f4 [2]
000000 e6 ce 58 41 01 44 59 41
       13.550512 13.5791025

convs.0.block1.1.running_mean f4 [2]
000000 fa 89 37 3f 95 7c 1c bd
       0.7169491 -0.03820475

convs.0.block1.1.running_var f4 [2]
000000 c9 92 1d 3d e0 03 0a 3d
       0.038470063 0.0336951

convs.1.block1.0.weight f4 [2, 1, 2]
000000 59 73 f7 3e 4a 4f ea 3e 69 5b 01 3f b1 77 22 be
       0.4833019 0.45763618 0.50530106 -0.15865971

convs.1.block1.0.bias f4 [2]
000000 ad 4c 5d 3e 44 54 93 3d
       0.2161128 0.07193807

convs.1.block1.1.weight f4 [2]
000000 17 62 46 41 ee 66 41 41
       12.398948 12.087629

convs.1.block1.1.bias f4 [2]
000000 8c 58 59 41 cf 89 59 41
       13.584118 13.596145

convs.1.block1.1.running_mean f4 [2]
000000 5a 0f 9d 3e fe 47 d8 3d
       0.30675775 0.105606064

convs.1.block1.1.running_var f4 [2]
000000 1f b2 87 3c 39 7e 47 3b
       0.016564427 0.0030440225

convs.2.block1.0.weight f4 [2, 1, 2]
000000 04 f0 82 3d 57 02 19 3f 84 d2 4f 3d 4f a8 0d 3f
       0.063934356 0.59769195 0.050737873 0.55334944

convs.2.block1.0.bias f4 [2]
000000 25 78 04 3f 66 71 eb 3c
       0.51745826 0.028740596

convs.2.block1.1.weight f4 [2]
000000 5d f2 2c 41 e7 39 33 41
       10.809171 11.201636

convs.2.block1.1.bias f4 [2]
000000 f6 28 58 41 ef 19 59 41
       13.51 13.568831

convs.2.block1.1.running_mean f4 [2]
000000 ea 74 80 3f fd c0 f2 3e
       1.0035679 0.47412863

convs.2.block1.1.running_var f4 [2]
000000 76 e8 37 3c a2 2f 1d 3c
       0.011224857 0.009593876

convs.3.block1.0.weight f4 [2, 1, 2]
000000 1f f7 74 be 49 da bc be 20 ec b5 be 2e 6e 02 bf
       -0.23922394 -0.36885288 -0.35531712 -0.5094937

convs.3.block1.0.bias f4 [2]
000000 c8 ef ee be 3a 3d 38 3f
       -0.46667314 0.71968424

convs.3.block1.1.weight f4 [2]
000000 5a 9d 5f 41 13 05 5f 41
       13.975916 13.938739

convs.3.block1.1.bias f4 [2]
000000 95 84 59 41 a3 18 59 41
       13.594869 13.568515

convs.3.block1.1.running_mean f4 [2]
000000 80 be 01 bf 44 5b 29 3f
       -0.50681305 0.66154885

convs.3.block1.1.running_var f4 [2]
000000 82 cd 43 3e b9 85 c4 3e
       0.19121364 0.38383272

convs.4.block1.0.weight f4 [2, 1, 2]
000000 a7 17 2f 3f 3f 6a 10 3f b2 21 23 3d da ef 06 3f
       0.68395466 0.5641212 0.039827056 0.52709734

convs.4.block1.0.bias f4 [2]
000000 c6 01 9b 39 f5 3a 19 bf
       0.00029565225 -0.59855586

convs.4.block1.1.weight f4 [2]
000000 09 48 45 41 28 5d 36 41
       12.330087 11.397743

convs.4.block1.1.bias f4 [2]
000000 bd 36 58 41 70 f1 58 41
       13.513364 13.558945

convs.4.block1.1.running_mean f4 [2]
000000 e7 f6 6b 3f 94 b9 37 be
       0.9217362 -0.17941886

convs.4.block1.1.running_var f4 [2]
000000 4b fe ce 3c 4a 12 10 3c
       0.02526774 0.008793423

lin1.0.weight f4 [1, 250]
000000 df ea 0e 41 79 f8 13 41 c7 7f 16 41 12 e9 19 41
       8.932342 9.248162 9.406196 9.619402
000010 92 db 1c 41 fb 94 1a 41 fb 36 1e 41 9e d5 20 41
       9.803606 9.661372 9.888423 10.052153
000020 99 26 22 41 6b 28 22 41 f6 62 24 41 9f 4d 22 41
       10.134423 10.134868 10.27416 10.14395
000030 f9 8a 24 41 05 df 21 41 10 b2 20 41 f6 8c 21 41
       10.283929 10.116948 10.043472 10.096914
000040 90 23 21 41 fb 74 1d 41 e4 eb 1c 41 b2 9f 1c 41
       10.071182 9.84106 9.8075905 9.788988
000050 c5 6a 1a 41 f7 d5 19 41 ac 6e 16 41 74 32 13 41
       9.651067 9.6147375 9.4020195 9.199818
000060 27 d3 10 41 9e a4 0e 41 8c 54 14 41 85 ab 14 41
       9.051551 8.91519 9.270641 9.291875
000070 73 35 16 41 ff 24 18 41 29 61 1c 41 3e 04 1c 41
       9.388049 9.509032 9.773721 9.751036
000080 86 9e 20 41 3f 2e 1f 41 c6 4c 21 41 d9 14 23 41
       10.038702 9.948791 10.0812435 10.19259
000090 59 59 21 41 8e 95 23 41 86 8f 22 41 32 cc 21 41
       10.084313 10.224012 10.16004 10.112352
0000a0 4f ed 1f 41 3f 7d 1f 41 39 0c 20 41 8f 72 1e 41
       9.995437 9.968078 10.002984 9.902968
0000b0 6c a1 19 41 5a d9 1c 41 4b c8 16 41 62 27 19 41
       9.60191 9.803064 9.4239 9.572115
0000c0 e2 8e 16 41 03 72 14 41 e0 20 00 41 01 b3 12 41
       9.4098835 9.277835 8.008026 9.168702
0000d0 71 82 14 41 93 c2 19 41 03 1e 1a 41 13 cd 1c 41
       9.281846 9.610003 9.632327 9.800067
0000e0 b5 d8 20 41 8c 9b 23 41 35 e9 25 41 86 a5 24 41
       10.052907 10.225475 10.369435 10.290411
0000f0 b9 8e 25 41 5b 16 28 41 47 0b 27 41 29 ae 28 41
       10.347344 10.505458 10.440253 10.54252
000100 f2 6c 25 41 27 bb 23 41 58 95 23 41 09 48 21 41
       10.339098 10.2331915 10.223961 10.080087
000110 1d 65 1a 41 48 8a 1b 41 ce 22 14 41 54 a9 11 41
       9.649686 9.72126 9.258497 9.10384
000120 be c5 0e 41 81 8d 0c 41 ab d2 00 41 24 6e f1 40
       8.923277 8.784547 8.051433 7.544695
000130 d7 d9 14 41 58 e6 17 41 e7 7c 1b 41 bf 03 1b 41
       9.303184 9.493736 9.717994 9.688415
000140 49 fd 1c 41 f5 ee 20 41 77 00 24 41 e1 b5 26 41
       9.811837 10.058339 10.2501135 10.419404
000150 9b 10 27 41 0f b4 2b 41 e8 94 2a 41 f8 f8 29 41
       10.441554 10.73146 10.661354 10.623283
000160 82 09 29 41 5e 68 26 41 92 b3 27 41 0c 3a 25 41
       10.564821 10.40048 10.48134 10.326672
000170 06 b8 20 41 8a d8 1f 41 79 60 18 41 e9 3f 15 41
       10.044928 9.990366 9.523553 9.328103
000180 5c ff 14 41 e4 0c 12 41 e6 64 0b 41 ed e7 0b 41
       9.312344 9.128147 8.712133 8.7441225
000190 a6 ac 08 41 79 90 27 41 33 30 28 41 19 88 2d 41
       8.5421505 10.472772 10.511767 10.845727
0001a0 49 56 2d 41 99 9a 33 41 65 f1 33 41 ea 7e 38 41
       10.833566 11.225244 11.246434 11.530985
0001b0 2e d9 37 41 7a a9 3b 41 c8 09 3e 41 ba 89 3c 41
       11.490522 11.728876 11.877388 11.783625
0001c0 7d ae 3f 41 a6 bd 3b 41 e3 d8 3d 41 3b 41 3c 41
       11.9801 11.733801 11.865451 11.765925
0001d0 b6 fb 3d 41 e0 c1 39 41 be 95 38 41 76 c4 35 41
       11.873953 11.609833 11.536558 11.360464
0001e0 1a 9f 36 41 55 b4 33 41 42 8e 31 41 0f 49 2c 41
       11.413843 11.231526 11.097231 10.767837
0001f0 15 ea d6 40 7b f0 08 41 62 15 21 41 19 e6 27 41
       6.7160745 8.558711 10.06772 10.493676
000200 54 28 2b 41 22 d4 2e 41 34 c8 30 41 b0 53 33 41
       10.697346 10.92679 11.048878 11.2079315
000210 5a d6 34 41 4f 54 37 41 0a 7e 37 41 63 b6 39 41
       11.302332 11.458083 11.468271 11.607028
000220 6b 5b 3c 41 99 e3 3b 41 6a 6a 3b 41 d3 3d 39 41
       11.772319 11.743066 11.71348 11.577594
000230 9e a3 3a 41 71 41 3b 41 2b f3 35 41 63 eb 34 41
       11.664946 11.703477 11.371867 11.307467
000240 bd 6a 35 41 fa ba 31 41 da 92 2e 41 aa 9d 2c 41
       11.338559 11.108149 10.910852 10.788492
000250 74 b5 2b 41 68 60 d5 40 0c 4a 1f 41 c8 d7 17 41
       10.7318 6.6680183 9.955578 9.490181
000260 22 27 17 41 34 d2 15 41 33 bd 17 41 d9 1b 16 41
       9.447054 9.363819 9.483691 9.381799
000270 54 9d 19 41 af 90 1a 41 63 04 18 41 d3 2b 19 41
       9.60091 9.660323 9.501071 9.573199
000280 d3 e9 1a 41 79 13 17 41 fc 7a 18 41 39 5b 1a 41
       9.682086 9.442254 9.5300255 9.647271
000290 bf f2 1b 41 52 5b 18 41 ad c3 19 41 61 49 1a 41
       9.746764 9.522295 9.610272 9.642915
0002a0 98 06 18 41 9b 93 18 41 f2 8f 18 41 06 51 16 41
       9.50161 9.5360365 9.535143 9.394781
0002b0 d5 5e 14 41 49 e6 15 41 26 91 1f 41 13 2d 19 41
       9.273152 9.368722 9.972937 9.573504
0002c0 90 3a 18 41 39 08 18 41 fe 8a 16 41 9e c2 14 41
       9.5142975 9.5020075 9.408934 9.297514
0002d0 35 7d 16 41 69 d0 18 41 c2 0f 17 41 ed 8a 16 41
       9.405568 9.550881 9.441347 9.408917
0002e0 25 01 19 41 77 54 17 41 36 0c 18 41 8a 66 1a 41
       9.562779 9.458121 9.502981 9.650034
0002f0 17 86 19 41 7b 80 17 41 59 79 1b 41 9a 12 19 41
       9.595237 9.468867 9.717126 9.567041
000300 9f 5b 19 41 b7 25 16 41 2b 1a 17 41 04 10 15 41
       9.584868 9.384208 9.443889 9.31641
000310 93 0a 16 41 4d da 14 41 c8 81 13 41 8d 99 2e 41
       9.377582 9.303296 9.219185 10.912488
000320 6c 28 d1 40 89 57 20 41 92 eb 21 41 e4 98 26 41
       6.5361843 10.021371 10.120012 10.412327
000330 09 78 28 41 3d f7 2a 41 55 dd 29 41 2d ec 2c 41
       10.529305 10.685361 10.616536 10.80766
000340 eb ee 32 41 9f b3 31 41 85 43 34 41 3a be 35 41
       11.18333 11.106353 11.266484 11.358942
000350 7f fc 34 41 e6 ae 35 41 58 6b 36 41 0a c8 36 41
       11.311645 11.3552 11.401207 11.423838
000360 b2 3b 32 41 bd 78 31 41 d9 b4 32 41 4f 5b 2d 41
       11.139574 11.091977 11.169152 10.834792
000370 f8 36 2f 41 6c 26 2a 41 cc 1a 2a 41 62 da 27 41
       10.95092 10.63438 10.631542 10.490816
000380 29 90 ea 40 e9 b1 08 41 5a 76 25 41 9e ae 24 41
       7.3300977 8.543435 10.341394 10.292631
000390 43 6b 2b 41 06 8f 2d 41 6a 00 32 41 7c 69 31 41
       10.713687 10.847418 11.125101 11.088253
0003a0 7c e5 36 41 1a c3 35 41 21 0f 39 41 6d 19 39 41
       11.431026 11.360132 11.566194 11.568707
0003b0 e7 a1 38 41 ff fa 3c 41 e3 78 39 41 25 b4 3b 41
       11.539527 11.811278 11.592013 11.731481
0003c0 bd f6 37 41 ec f2 39 41 0d 39 37 41 a3 1b 35 41
       11.497739 11.621807 11.451428 11.319247
0003d0 b0 ed 33 41 14 e5 31 41 6c 8a 30 41 62 a4 2d 41
       11.245529 11.118427 11.033794 10.8526325
0003e0 01 3c 2d 41 19 eb d7 40
       10.827149 6.7474484
