runs/mc_804.pt (torch, 13729 bytes, 31 tensors)

convs.0.block1.0.weight f4 [2, 1, 2]
0.3834471 -0.37293187 0.3361322 -0.95270497
00000000: 2e53 c43e edf0 bebe 8519 ac3e 79e4 73bf

convs.0.block1.0.bias f4 [2]
-0.6594786 -0.6201886
00000000: 97d3 28bf aec4 1ebf

convs.0.block1.1.weight f4 [2]
12.561274 14.653809
00000000: fafa 4841 0076 6a41

convs.0.block1.1.bias f4 [2]
13.285774 12.850916
00000000: 8892 5441 5a9d 4d41

convs.0.block1.1.running_mean f4 [2]
-0.66225624 -0.22149633
00000000: a089 29bf efcf 62be

convs.0.block1.1.running_var f4 [2]
0.013499055 0.07775441
00000000: 242b 5d3c b43d 9f3d

convs.1.block1.0.weight f4 [2, 1, 2]
-1.0440004 -0.055020947 -0.84108186 -0.03892106
00000000: cea1 85bf a55d 61bd 2451 57bf b06b 1fbd

convs.1.block1.0.bias f4 [2]
-0.26978377 -0.27857754
00000000: 1921 8abe b7a1 8ebe

convs.1.block1.1.weight f4 [2]
13.909403 13.878755
00000000: ea8c 5e41 610f 5e41

convs.1.block1.1.bias f4 [2]
12.73091 12.706912
00000000: cfb1 4b41 834f 4b41

convs.1.block1.1.running_mean f4 [2]
-0.37506044 -0.36355767
00000000: ec07 c0be 3b24 babe

convs.1.block1.1.running_var f4 [2]
0.024237555 0.015570192
00000000: d68d c63c 1e1a 7f3c

convs.2.block1.0.weight f4 [2, 1, 2]
-0.31482944 0.68205404 0.22240631 0.9393585
00000000: 5331 a1be 189b 2e3f 7bbe 633e cc79 703f

convs.2.block1.0.bias f4 [2]
-0.058640882 0.5307597
00000000: 6c31 70bd dedf 073f

convs.2.block1.1.weight f4 [2]
17.19285 16.600077
00000000: f58a 8941 f5cc 8441

convs.2.block1.1.bias f4 [2]
13.462944 13.477082
00000000: 3868 5741 21a2 5741

convs.2.block1.1.running_mean f4 [2]
0.21394834 1.3853126
00000000: 4615 5b3e ec51 b13f

convs.2.block1.1.running_var f4 [2]
0.017665746 0.028730532
00000000: c1b7 903c 4b5c eb3c

convs.3.block1.0.weight f4 [2, 1, 2]
-0.38410473 0.6162226 -0.248407 0.74878
00000000: 60a9 c4be c4c0 1d3f 685e 7ebe 0cb0 3f3f

convs.3.block1.0.bias f4 [2]
0.6870669 0.29171568
00000000: 9ee3 2f3f c25b 953e

convs.3.block1.1.weight f4 [2]
13.873749 13.773295
00000000: e0fa 5d41 6b5f 5c41

convs.3.block1.1.bias f4 [2]
13.123975 13.146258
00000000: cdfb 5141 1357 5241

convs.3.block1.1.running_mean f4 [2]
0.7023436 0.32533747
00000000: cacc 333f a292 a63e

convs.3.block1.1.running_var f4 [2]
0.29623985 0.39449134
00000000: c0ac 973e c5fa c93e

convs.4.block1.0.weight f4 [2, 1, 2]
0.37437645 0.5782671 -0.31367305 0.64169776
00000000: 45ae bf3e 5009 143f c199 a0be 4e46 243f

convs.4.block1.0.bias f4 [2]
0.4703586 0.16340433
00000000: d8d2 f03e 7753 273e

convs.4.block1.1.weight f4 [2]
16.05951 17.299377
00000000: e079 8041 2065 8a41

convs.4.block1.1.bias f4 [2]
13.539315 13.522418
00000000: 09a1 5841 d35b 5841

convs.4.block1.1.running_mean f4 [2]
1.1746593 0.40776765
00000000: 3c5b 963f ecc6 d03e

convs.4.block1.1.running_var f4 [2]
0.015178442 0.015690574
00000000: 00af 783c 8589 803c

lin1.0.weight f4 [1, 250]
7.2478538 10.1988325 10.1776705 9.936336 9.698085 10.105809 9.900915 9.798526
10.185571 10.213788 10.087464 10.023407 10.172081 10.017501 9.751918 9.814644
9.320456 9.109342 8.708523 8.619666 8.902794 8.520303 8.2056465 7.9490466
10.162268 6.8426433 7.9885187 8.025337 8.493206 8.601903 8.740848 9.168837
9.174937 9.586507 9.966598 10.125074 10.666983 10.60388 10.858477 11.323048
11.417317 11.428985 11.44201 10.919112 10.251822 9.940105 9.204645 8.685042
7.913973 10.920944 14.872614 7.792331 8.290009 8.564023 8.564322 8.748692
8.976484 9.0374155 9.249861 9.408327 9.437142 9.602597 9.481506 9.110225
8.786422 8.824801 8.864781 8.787024 8.91047 9.330398 9.7585 9.765981
9.816464 9.706449 12.977796 14.921965 7.9313264 8.235966 8.4339075 8.780979
8.91801 8.963085 9.150561 9.248439 9.351531 9.569667 9.551669 9.276424
9.071396 8.740871 8.699217 8.710844 8.933465 9.081255 9.16899 9.5060005
9.915152 9.846282 9.886341 13.172916 12.856861 10.461034 10.773703 10.757305
10.79418 11.250663 11.18017 11.552088 11.394426 11.242641 11.472388 11.378314
11.336404 11.454276 11.398017 11.789404 12.000097 12.039411 12.601709 12.674227
12.914105 13.639108 13.912671 14.322006 -1.4154063 -0.8905042 10.81664 10.924191
11.088913 11.064918 11.542936 11.686315 11.863951 11.630452 11.65598 11.402052
11.386733 11.337902 11.342316 11.474608 11.394745 11.770757 12.137651 12.498971
12.854241 13.088192 13.636399 14.275839 14.627909 -0.46894675 9.31232 9.520726
9.632842 9.875426 9.850881 9.943416 9.936201 10.066683 10.213611 10.449191
10.14377 9.942089 10.018965 9.954977 9.665795 9.263893 8.672141 8.582521
8.5878525 8.708525 8.703811 8.842195 8.531865 8.8739805 11.371972 9.344053
9.488283 9.754662 9.806587 9.904277 9.820184 10.013915 10.370693 10.323481
10.577201 10.155896 10.116693 10.172989 9.9069605 9.464073 9.331422 8.635332
8.704133 8.588595 8.588903 8.376255 8.659781 8.453316 8.491839 10.827031
-0.97177726 10.6635685 10.937509 11.161562 11.171853 11.323158 11.611144 11.714542
12.016006 11.904918 11.769764 11.520048 11.547445 11.424474 11.2574215 11.484925
11.525502 11.800886 12.186331 12.531782 12.782215 13.318463 13.713051 13.966276
-0.13801184 13.25503 10.697848 11.006727 10.7960825 10.882273 11.127086 11.41898
11.467029 11.726853 11.602137 11.283019 11.486839 11.458193 11.455828 11.657903
11.508178 11.828874 12.399494 12.576285 12.746362 13.0520315 13.409356 13.833963
14.034265 -1.4684912
00000000: 6bee e740 6b2e 2341 bdd7 2241 3bfb 1e41
00000010: 5b2b 1b41 65b1 2141 266a 1e41 c3c6 1c41
00000020: 19f8 2241 ad6b 2341 4166 2141 e05f 2041
00000030: d8c0 2241 af47 2041 db07 1c41 c808 1d41
00000040: 9620 1541 ddbf 1141 1c56 0b41 27ea 0941
00000050: d871 0e41 2953 0841 544a 0341 975e fe40
00000060: a698 2241 eff6 da40 f2a1 ff40 c867 0041
00000070: 2ce4 0741 65a1 0941 83da 0b41 8eb3 1241
00000080: 8bcc 1241 5562 1941 2f77 1f41 4e00 2241
00000090: f6ab 2a41 7ea9 2941 52bc 2d41 342b 3541
000000a0: 55ad 3641 1fdd 3641 7912 3741 afb4 2e41
000000b0: 7707 2441 ac0a 1f41 3a46 1341 eff5 0a41
000000c0: 443f fd40 30bc 2e41 3af6 6d41 c75a f940
000000d0: e0a3 0441 3d06 0941 7707 0941 a4fa 0b41
000000e0: ae9f 0f41 4199 1041 6eff 1341 8288 1641
000000f0: 89fe 1641 3da4 1941 40b4 1741 7bc3 1141
00000100: 2f95 0c41 6332 0d41 25d6 0d41 a697 0c41
00000110: 4991 0e41 4f49 1541 d122 1c41 7541 1c41
00000120: 3d10 1d41 9d4d 1b41 0da5 4f41 5ec0 6e41
00000130: 6dcd fd40 84c6 0341 49f1 0641 e47e 0c41
00000140: 2bb0 0e41 cc68 0f41 b368 1241 9bf9 1341
00000150: df9f 1541 5b1d 1941 a3d3 1841 3c6c 1441
00000160: 7024 1141 9cda 0b41 fe2f 0b41 9e5f 0b41
00000170: 79ef 0e41 d24c 1141 2fb4 1241 9418 1841
00000180: 76a4 1e41 5f8a 1d41 742e 1e41 44c4 5241
00000190: b4b5 4d41 6560 2741 1661 2c41 ec1d 2c41
000001a0: f6b4 2c41 b702 3441 fae1 3241 5ad5 3841
000001b0: 924f 3641 dce1 3341 e78e 3741 930d 3641
000001c0: e961 3541 b744 3741 475e 3641 66a1 3c41
000001d0: 6600 4041 6da1 4041 9aa0 4941 a2c9 4a41
000001e0: 2da0 4e41 c939 5a41 4d9a 5e41 f026 6541
000001f0: 092c b5bf 15f8 63bf f510 2d41 7dc9 2e41
00000200: 306c 3141 e709 3141 deaf 3841 25fb 3a41
00000210: bed2 3d41 5516 3a41 e57e 3a41 ce6e 3641
00000220: 0f30 3641 0c68 3541 207a 3541 ff97 3741
00000230: e050 3641 0555 3c41 d233 4241 c9fb 4741
00000240: f9aa 4d41 3c69 5141 b12e 5a41 d669 6441
00000250: ea0b 6a41 ca19 f0be 43ff 1441 e554 1841
00000260: 1f20 1a41 bf01 1e41 359d 1d41 3b18 1f41
00000270: aefa 1e41 2211 2141 f36a 2341 e32f 2741
00000280: e24c 2241 cc12 1f41 ae4d 2041 9647 1f41
00000290: 19a7 1a41 e838 1441 17c1 0a41 0252 0941
000002a0: d867 0941 1e56 0b41 cf42 0b41 a179 0d41
000002b0: 8582 0841 d3fb 0d41 99f3 3541 3e81 1541
000002c0: 02d0 1741 1813 1c41 c8e7 1c41 eb77 1e41
000002d0: 791f 1d41 ff38 2041 5cee 2541 fa2c 2541
000002e0: 373c 2941 8d7e 2241 f9dd 2141 90c4 2241
000002f0: e982 1e41 d86c 1741 814d 1541 522a 0a41
00000300: 2144 0b41 e36a 0941 266c 0941 2405 0641
00000310: 778e 0a41 c840 0741 93de 0741 853b 2d41
00000320: 65c6 78bf fa9d 2a41 0900 2f41 c295 3241
00000330: e9bf 3241 a82b 3541 3fc7 3941 c46e 3b41
00000340: 9041 4041 8b7a 3e41 f450 3c41 1e52 3841
00000350: 56c2 3841 a5ca 3641 661e 3441 41c2 3741
00000360: 7568 3841 6ed0 3c41 36fb 4241 2e82 4841
00000370: f483 4c41 6d18 5541 a868 5b41 de75 5f41
00000380: fa52 0dbe 9a14 5441 632a 2b41 8e1b 3041
00000390: c1bc 2c41 ca1d 2e41 8b08 3241 24b4 3641
000003a0: f378 3741 31a1 3b41 5aa2 3941 3f87 3441
000003b0: 18ca 3741 c254 3741 124b 3741 c586 3a41
000003c0: 7f21 3841 1143 3d41 5464 4641 7738 4941
000003d0: 19f1 4b41 1fd5 5041 b98c 5641 ea57 5d41
000003e0: 598c 6041 85f7 bbbf
