runs/sc_804.pt (torch, 8271 bytes, 13 tensors)

conv.block1.0.weight f4 [10, 5, 2]
00000000: f3e5 213e 1b55 443e 01df b0be 2262 5ebf
00000010: a107 cbbe 1520 44be ef37 afbc 19d1 40be
00000020: 80a9 c23b 70f3 33be 5553 4dbe c8e0 3ebe
00000030: d643 1a3d 615f db3d 2538 43bf bd4b 21bf
00000040: 833e bf3e d07a 9e3d 39ee 183f 6d7e 183e
00000050: d3e3 14be 65ff 81be e810 263d 83b5 b3bd
00000060: 9dd3 a3be df57 243f e890 9cbc ae31 69bd
00000070: 9b0f cabb 1d39 5c3f 6ed9 1fbe b065 81bc
00000080: c0b8 043f 31b1 34bf 0afd 9d3d 2b3c 42be
00000090: 2a6b 5a3d 1ac2 c63d 637a 013f 7756 d63e
000000a0: 698e 83be d21e 14be 5b80 9bbc 95f8 cebc
000000b0: 32d3 b3be 249b 5c3f eb50 0b3e 2595 d93d
000000c0: e316 70bd dfb2 8e3f be78 5abe 4f52 5abe
000000d0: e6a6 89be 8655 f6b9 5f02 9fbe 06e1 923f
000000e0: a93f b5bc 17aa 9ebd 15b2 053e 5854 223f
000000f0: 6b52 11be b37a 5bbe b41d 8d3e af0d a13e
00000100: e5a4 e43e c47a a83f 7b45 bbbc f0f2 27be
00000110: cb0d d23e 7c3e 033f 8984 e4be c7bc 5d3e
00000120: b77e 6f3e e7de 033e f678 503f 4ca2 643f
00000130: 3ffd bd3d 68e6 f4bc ce17 303f 7d57 303f
00000140: 2d1e 80be 67b3 04be 00fc 4abd 0441 d03c
00000150: 4f22 86be d9b4 353f 958c 173e c84a d13d
00000160: 3c82 eebd ea05 873f b10e 68be b2e0 2b3d
00000170: afe1 293e fa7a 933d 97d0 2d3f 0fba ae3f
00000180: 6c82 d03d ba1a 843d 9f69 583e 08e9 ea3e
0.15810375 0.1917309 -0.34545138 -0.8686849 -0.39654258 -0.19152863 -0.021388976 -0.18829764
0.005940616 -0.17573333 -0.2005132 -0.18640435 0.03766235 0.107115515 -0.76257545 -0.6300619
0.3735238 0.077382684 0.597385 0.14891978 -0.14540033 -0.25390163 0.040543467 -0.08774855
-0.31997386 0.6419658 -0.019112065 -0.056932144 -0.006166411 0.8602465 -0.15610287 -0.015795559
0.51844406 -0.7058287 0.07714279 -0.18968265 0.053324856 0.09704991 0.5057737 0.41862842
-0.25694588 -0.14464882 -0.018982103 -0.025265018 -0.35122067 0.86174226 0.13605087 0.1062415
-0.058615576 1.1148337 -0.21335122 -0.2132046 -0.26885146 -0.00046984496 -0.31056497 1.1474922
-0.022125082 -0.07747286 0.13056214 0.6340995 -0.14191596 -0.21433525 0.27561724 0.31455752
0.44657055 1.3162465 -0.02286028 -0.16401267 0.41026148 0.5126722 -0.44632366 0.21654044
0.23388182 0.12877999 0.8143457 0.89310145 0.092768185 -0.029895023 0.68786323 0.68883497
-0.25023022 -0.12959062 -0.049556732 0.025421627 -0.2619805 0.70979077 0.14799722 0.102193415
-0.11645934 1.054868 -0.22661854 0.041962333 0.16589998 0.0720119 0.6789641 1.365053
0.10181126 0.0645041 0.21134041 0.45880914

conv.block1.0.bias f4 [10]
00000000: 4ebd 4abd 68ed 0c3e 002b aabe 902f ebbd
00000010: 7176 9d3d 6321 073e 6882 c8bb e269 83be
00000020: b798 1f3e f7bb c1be
-0.04949694 0.13762438 -0.3323593 -0.11483681 0.076886065 0.1319633 -0.0061190613 -0.2566672
0.155856 -0.37838718

conv.block1.1.weight f4 [10]
00000000: b63d 6641 0019 6341 91a5 7041 0c2b 7341
00000010: 0e86 6f41 604b 7241 c60e 7241 8162 6d41
00000020: 6b83 6d41 6eab 6e41
14.390066 14.1936035 15.0404215 15.1980095 14.970228 15.143402 15.128607 14.836549
14.844584 14.916853

conv.block1.1.bias f4 [10]
00000000: 259d 5541 e7b9 5741 e29a 5941 f57f 5841
00000010: 362e 5a41 7308 5a41 9379 5841 0e94 5941
00000020: 71c3 5941 65a7 5841
13.350865 13.482886 13.600313 13.5312395 13.636282 13.627063 13.529681 13.598646
13.610215 13.540868

conv.block1.1.running_mean f4 [10]
00000000: 918f 75bf 972e 3abd 3572 473f 6098 163f
00000010: 405b c03f 6a98 c63f b6ef 0f40 8d0f 0d40
00000020: 4a7b b73f ede7 e23f
-0.9592219 -0.045454588 0.7790864 0.58826256 1.5027847 1.5515263 2.2490058 2.2040741
1.43345 1.7727028

conv.block1.1.running_var f4 [10]
00000000: 518e e03d a7a8 023e 5167 c73d b58a 213d
00000010: 953f 3f3e c7de f43d dcdc 323e e342 5c3e
00000020: c17e 243e ecd8 363e
0.10964645 0.12759648 0.09736503 0.039438922 0.18676598 0.11956554 0.17467064 0.2150989
0.16063978 0.17856187

conv.block2.0.weight f4 [16, 8, 2]
00000000: 10b0 e43d 4c4c 123e 8adc 423e dc43 cc3d
00000010: caa8 383e 1037 42bd e417 18be faab 523e
00000020: 1052 50be 8014 fbbd d8ae 4abd c09e 64be
00000030: f8e0 16bd 4cbe c43d 48a3 c33d a462 e5bd
00000040: 002b 503c de8a 3d3e 62d6 5bbe 960f 5cbe
00000050: 180f 6e3d f844 4e3e cc4d 6e3e d462 17be
00000060: f819 03be beaf 383e c203 3cbe 7877 2dbd
00000070: 5866 38be 7054 85bd baaf 413e 587e 12be
00000080: 909e 1f3d c46d 4f3e c027 5c3e 94cc e2bd
00000090: dc00 b93d 4a0f 0fbe dc3f cf3d c08a 89bb
000000a0: c61e 28be aefd 0dbe 9448 f2bd 4816 fdbd
000000b0: acf2 c33d 0825 91bd c08a 34bd b8e4 913d
000000c0: 1031 42bd d8f8 dd3d 2818 16be 8cb8 ffbd
000000d0: 98b3 293e 48f3 6e3e c063 f1bb e8c8 a8bd
000000e0: f491 183e 6843 6cbd 7e25 3e3e 98c3 58bd
000000f0: 260f 30be 5414 e6bd 20a4 513e 30c5 d6bc
00000100: f6cc 603e 6a0c 6abe e08d 6ebd ecbc 5fbe
00000110: a00d 133e 5ead 2dbe 92db 5fbe 5006 ec3c
00000120: e069 0d3d a471 70be c0da f4bc 7cd9 a2bd
00000130: c278 5a3e 0004 ed3a 260d 0cbe b654 7e3e
00000140: 5414 da3d a069 4ebd 686f 643d 30d3 943c
00000150: 18af 0ebd 40a7 603e 2037 8fbc 50fc cfbd
00000160: d252 123e 04bb ecbd c85c 513e b413 40be
00000170: e807 67be a09d 513c ceee 2d3e 4aea 693e
00000180: d604 62be 30d3 693d 6442 03be 38a6 2abe
00000190: 48c0 37bd 180b cd3d fc9c 953d c084 123d
000001a0: 0008 1c3c 5c1e 513e daa5 593e 4e3e 5a3e
000001b0: 803f 0d3b c083 0bbc d0fa 523e 0e30 223e
000001c0: 3041 38bd 2098 453e 38ae 0bbe 1808 fbbd
000001d0: f8dc 283d 2822 1fbe aeee 653e 220c 363e
000001e0: 58ce 2d3e a88b 9a3d c673 26be 0c0e f3bd
000001f0: bcfd 8cbd 703f f1bc 7806 2abe 40b1 383d
00000200: b866 033d 8a06 473e 5c0d 3fbe cc02 bbbd
00000210: 5ed1 6d3e 687f 64bd ea53 15be 947c a53d
00000220: 30a2 34be 00a0 fd3a f8d8 b73d dcd7 73be
00000230: d252 3f3e 1ccd 13be d840 1ebe 60a7 71bd
00000240: 6ceb aa3d e885 7c3e 444a 353e 320a 383e
00000250: f05d c03c e4cb b13d 00fa 843a 44ba d73d
00000260: 1449 af3d 2893 2abe f823 43be f6e5 313e
00000270: e086 303c f0e0 b33c b054 ff3c 50a9 b6bd
00000280: 5c14 67be 603b 32be d602 613e 0005 85bc
00000290: f2c1 0bbe c42f c0bd 44d0 4cbe e031 12be
000002a0: 387d 6fbe 7076 783d 48c4 1f3e 0075 62bb
000002b0: 80bb 5b3e 807a 833c e09c 85bd da54 72be
000002c0: 7cfa 633e e8c1 c5bd 0aa4 65be 6ae1 4f3e
000002d0: 908c 65bd e0e1 3a3e 40b1 a9bd 1ac2 3bbe
000002e0: 6046 33bc fa01 3d3e 80ca f8bb 000b f4bb
000002f0: baee 703e f02a 143e 4ccf b2bd c0fc fdbd
00000300: d2f4 713e 5c34 1a3e c4ad c6bd 185f 40bd
00000310: c65f 6f3e 98d1 e63d 0098 9dbd 9636 2e3e
00000320: 0031 0abc 74cc 9ebd 2cc8 8f3d 3e9f 593e
00000330: ced2 3cbe 9a20 46be b289 703e d84e 5b3e
00000340: 808e e6bd ecf4 eebd 8672 493e b0fa 2dbd
00000350: f46e 073e 20b5 7f3e 00ba 133b 52eb 3a3e
00000360: a02c f6bc 360c 443e 887c 31bd 4020 61bd
00000370: 50f7 adbc 8088 c9bc 20cf 4abd b06f d4bc
00000380: a84c 2b3d 7ef7 49be 5a33 2ebe 40de 00bd
00000390: 78bf 05be 24a1 ef3d b043 743d 7264 6f3e
000003a0: b43b a3bd 286e 5a3e 44a3 ebbd 2621 1b3e
000003b0: e0f5 ee3c b050 c83d f44a 01be a4ac 613e
000003c0: b0b2 4e3e 4029 593c e6ec 3d3e 083d 51be
000003d0: ce6a 343e 6c3f 84bd b049 9f3c 00e0 ca3b
000003e0: a0d6 29bc 107f d53c 5ed7 06be 5066 12be
000003f0: c0b8 25be d825 6ebe 5cc1 723e e4f3 f93d
0.11166394 0.14286917 0.19029441 0.09973881 0.18033138 -0.047415793 -0.14852864 0.20573416
-0.20343804 -0.122597694 -0.04948315 -0.22326183 -0.03683564 0.09606609 0.09552628 -0.11200455
0.0127055645 0.18510005 -0.214685 -0.2149032 0.058119863 0.20143497 0.23271865 -0.14783794
-0.12802875 0.1803579 -0.18360808 -0.042350262 -0.18007791 -0.06510246 0.1891469 -0.14306009
0.038969576 0.20256716 0.21499538 -0.110741764 0.09033367 -0.13970676 0.10119602 -0.0041974485
-0.16417989 -0.13866302 -0.118302494 -0.123577654 0.0956777 -0.07087141 -0.044077635 0.07123703
-0.04741007 0.10838479 -0.14657652 -0.124863714 0.16572416 0.23334992 -0.0073666275 -0.08241445
0.14899427 -0.05768147 0.1856899 -0.052920908 -0.17193279 -0.11234346 0.20472765 -0.026217073
0.21953186 -0.22856298 -0.05824077 -0.21849412 0.14360666 -0.16960666 -0.21861103 0.028811604
0.0345248 -0.2348085 -0.029889464 -0.07951638 0.21335128 0.0018082857 -0.1367689 0.24837002
0.106484085 -0.0503937 0.055770308 0.018167108 -0.03483495 0.21938801 -0.01748234 -0.10155547
0.14289406 -0.11559108 0.2044555 -0.18757516 -0.2256161 0.012793928 0.16985628 0.2284328
-0.22072157 0.05708617 -0.12818295 -0.1666497 -0.044861108 0.100118816 0.07305333 0.03577113
0.009523392 0.20421737 0.21254674 0.2131283 0.0021552742 -0.008515298 0.2060349 0.15838644
-0.044984043 0.19296312 -0.13640678 -0.12257403 0.041226357 -0.15540373 0.2245433 0.17778066
0.16973245 0.075461686 -0.16255102 -0.118679136 -0.068843335 -0.029449195 -0.1660403 0.045090914
0.032080382 0.19436088 -0.1865744 -0.09131393 0.23224398 -0.055785567 -0.14582792 0.08080402
-0.17639995 0.0019350052 0.089769304 -0.23812813 0.18683937 -0.14433712 -0.15454423 -0.058997512
0.083456844 0.24660456 0.17704111 0.17972639 0.023482293 0.08681467 0.0010145307 0.10533574
0.085588604 -0.16657698 -0.1905669 0.1737288 0.010774344 0.021957844 0.031168312 -0.089190125
-0.2256636 -0.17405462 0.21973738 -0.016237736 -0.13648203 -0.093841106 -0.20001322 -0.14276838
-0.23387611 0.060659826 0.15602219 -0.00345546 0.21458244 0.016049623 -0.06524062 -0.23665181
0.22263521 -0.09656125 -0.22425857 0.20300832 -0.056042254 0.18250227 -0.08285761 -0.18335763
-0.010942072 0.18457785 -0.0075924993 -0.0074476004 0.23528567 0.14469504 -0.08730945 -0.12401724
0.23628548 0.15059036 -0.09701112 -0.04696569 0.23376378 0.112704456 -0.07695007 0.1701301
-0.008434534 -0.0775384 0.07020602 0.21252152 -0.1843979 -0.19348374 0.23490027 0.21416795
-0.112576485 -0.11667809 0.19672593 -0.042475402 0.13225919 0.24971437 0.0022541285 0.1825383
-0.030050576 0.19145283 -0.043331653 -0.054962397 -0.021236092 -0.024601221 -0.049513936 -0.025932163
0.041821152 -0.19723317 -0.17011777 -0.031461954 -0.13061321 0.11700657 0.059634864 0.2337816
-0.07970372 0.21331084 -0.1150575 0.15149364 0.029169977 0.09781015 -0.12626249 0.22038513
0.20185351 0.013254464 0.18547401 -0.20433438 0.17618868 -0.06457409 0.019444317 0.0061912537
-0.010366112 0.026061565 -0.13168094 -0.14296842 -0.16183758 -0.23256624 0.23706573 0.122047216

conv.block2.0.bias f4 [16]
00000000: 8043 7c3c 6023 2abc 4e13 3bbe 185d 5e3e
00000010: cced d53d a0f1 1b3e c459 5a3e 2030 cfbd
00000020: 4000 833c c03c 263d c8dd 6abd 4ce2 7cbe
00000030: 0c4d 853d a068 6c3e 06ec 2a3e 501a 15be
0.015396953 -0.010384411 -0.18269083 0.217152 0.10445747 0.15228891 0.21323305 -0.10116601
0.01599133 0.04058528 -0.057340413 -0.246957 0.06508836 0.23086786 0.16691598 -0.14560819

conv.block2.1.weight f4 [16]
00000000: 0000 803f 0000 803f 0000 803f 0000 803f
00000010: 0000 803f 0000 803f 0000 803f 0000 803f
00000020: 0000 803f 0000 803f 0000 803f 0000 803f
00000030: 0000 803f 0000 803f 0000 803f 0000 803f
1.0 1.0 1.0 1.0 1.0 1.0 1.0 1.0
1.0 1.0 1.0 1.0 1.0 1.0 1.0 1.0

conv.block2.1.bias f4 [16]
00000000: 0000 0000 0000 0000 0000 0000 0000 0000
00000010: 0000 0000 0000 0000 0000 0000 0000 0000
00000020: 0000 0000 0000 0000 0000 0000 0000 0000
00000030: 0000 0000 0000 0000 0000 0000 0000 0000
0.0 0.0 0.0 0.0 0.0 0.0 0.0 0.0
0.0 0.0 0.0 0.0 0.0 0.0 0.0 0.0

conv.block2.1.running_mean f4 [16]
00000000: 0000 0000 0000 0000 0000 0000 0000 0000
00000010: 0000 0000 0000 0000 0000 0000 0000 0000
00000020: 0000 0000 0000 0000 0000 0000 0000 0000
00000030: 0000 0000 0000 0000 0000 0000 0000 0000
0.0 0.0 0.0 0.0 0.0 0.0 0.0 0.0
0.0 0.0 0.0 0.0 0.0 0.0 0.0 0.0

conv.block2.1.running_var f4 [16]
00000000: 0000 803f 0000 803f 0000 803f 0000 803f
00000010: 0000 803f 0000 803f 0000 803f 0000 803f
00000020: 0000 803f 0000 803f 0000 803f 0000 803f
00000030: 0000 803f 0000 803f 0000 803f 0000 803f
1.0 1.0 1.0 1.0 1.0 1.0 1.0 1.0
1.0 1.0 1.0 1.0 1.0 1.0 1.0 1.0

lin1.0.weight f4 [1, 250]
00000000: 0b03 3541 7d22 1541 020f 1841 0b59 1741
00000010: e730 1c41 7e41 1a41 2461 1c41 51bd 1a41
00000020: 6eff 1941 424e 1841 9602 1b41 dafc 1941
00000030: e672 1b41 7fbe 1541 58fc 1541 fa26 1341
00000040: 98ac 1441 f4a8 1541 aa90 1b41 5cb3 1741
00000050: 7eb1 1941 e0ec 1341 801d 1441 1c27 0d41
00000060: fbaa 3341 3522 3941 d301 1f41 c378 2241
00000070: 77b8 2141 66be 2441 cfa9 2041 6e2d 2341
00000080: 0618 1f41 f047 1e41 78f6 2041 266c 2441
00000090: 02f9 2141 36d4 2041 c7d7 2041 7e9f 2241
000000a0: d0ff 1c41 0f89 1e41 d72f 1841 214f 1441
000000b0: e176 0c41 7969 0841 b47c 0641 3d2a 0341
000000c0: 50c4 0041 b8e1 3141 461a 3b41 3e1f 1241
000000d0: d2c4 1641 ba4b 1641 2829 1841 c2c1 1841
000000e0: e112 1741 dc97 1641 282f 1541 140a 1741
000000f0: 6bbe 1741 37e2 1641 7e57 1a41 cba8 1b41
00000100: 7fe1 1e41 9700 2141 9a32 2541 e1fb 2841
00000110: b511 2c41 21c9 2f41 2959 3041 5c58 3541
00000120: 4471 3641 206b 3641 991f a040 25a3 aa40
00000130: f431 1b41 381a 1f41 4254 1e41 efc9 2241
00000140: d98d 2041 4a4f 2241 802f 1f41 e232 2241
00000150: 79e7 2041 6f07 2341 f023 2341 b54d 2141
00000160: 963f 2441 988d 2641 e0ff 2841 5819 2741
00000170: 089f 2641 fc23 2b41 d219 2a41 5543 2d41
00000180: 8f63 2b41 e91b 2d41 4b63 2d41 5cd7 1f41
00000190: 2512 3841 b2d0 1941 a510 1c41 c086 1d41
000001a0: 6e20 1c41 1eb1 1f41 9c0b 1c41 525f 1e41
000001b0: 5ee7 1d41 d4ee 2041 3a5e 2041 93f5 2041
000001c0: 872b 2341 1c11 2441 371d 2741 040e 2941
000001d0: 25ae 2841 d145 2b41 bd7d 2941 2726 2c41
000001e0: 40c6 2a41 199b 2f41 87b4 3241 66a5 3441
000001f0: 3129 9340 02a4 2641 8e2a 0f41 452d 1241
00000200: 8e1d 1241 7bc9 1441 aa97 1a41 7b0c 1c41
00000210: 8cf5 1941 c423 1d41 0f41 1a41 e31a 1d41
00000220: 3017 1d41 4e45 2141 382f 2241 6c58 2641
00000230: 9505 2941 5733 2f41 68b2 3141 e4d9 3541
00000240: 973a 3741 be9a 3741 89cc 3a41 845d 3e41
00000250: bd40 4141 5bb5 7540 e27b b440 830f 1a41
00000260: 2296 1a41 ac7a 1b41 e0b4 1d41 a689 1d41
00000270: edc4 1d41 a9dd 1d41 412b 1e41 e086 1f41
00000280: 3a89 1c41 207b 1c41 bf88 2141 d319 2141
00000290: 87d0 2241 b194 2541 e151 2b41 b8a2 2b41
000002a0: 7fc5 3141 6d20 3441 79d5 3541 1dad 3a41
000002b0: 09c5 3b41 0dca 4241 ebd3 b840 6284 aa40
000002c0: 836f 1241 a3dd 1541 ebf3 1b41 bd1c 1c41
000002d0: 29fb 2241 9225 2041 5847 2541 f5a2 2541
000002e0: 2062 2241 94c8 2541 634b 2541 f05c 2441
000002f0: efea 2341 b19a 2641 3253 2b41 dda7 2941
00000300: 2917 2e41 4543 2d41 d9e8 3141 9426 3241
00000310: e0e4 3441 e31a 3c41 db1f 3f41 46a2 a540
00000320: d0f3 4041 fee3 1841 b807 1c41 a76a 1d41
00000330: ac66 1c41 7627 1d41 d0e5 1e41 cb93 1d41
00000340: e291 1d41 cb76 2041 0efc 1f41 bf44 2241
00000350: 937c 2141 3c43 2541 9282 2741 609f 2641
00000360: 30ae 2941 9652 2841 a158 2741 8fbb 2a41
00000370: 107e 2d41 0fa2 2e41 5c62 3141 f6ba 3141
00000380: c711 9c40 14b2 bd40 ac0a 1141 61a8 1741
00000390: a18e 1a41 011b 1c41 3ed5 1f41 197c 2241
000003a0: 27d2 2341 fdf1 2641 b1fd 2841 bf00 2941
000003b0: 1b83 2541 2766 2841 d21c 2841 aca8 2b41
000003c0: f1fe 2b41 9dd8 2c41 8002 2e41 e5fe 2e41
000003d0: 402d 3141 e820 3341 71a4 3541 c2d2 3941
000003e0: 7242 3c41 a5a0 8840
11.313243 9.32092 9.503664 9.459239 9.761939 9.640989 9.773716 9.67122
9.624861 9.519106 9.688131 9.624231 9.715551 9.359008 9.374107 9.197016
9.292137 9.353748 9.722818 9.481289 9.605833 9.245331 9.257202 8.822048
11.229243 11.570851 9.937945 10.154483 10.107535 10.296484 10.041457 10.198591
9.943365 9.892563 10.060173 10.276403 10.123293 10.051809 10.05268 10.1639385
9.812454 9.908462 9.51168 9.269319 8.779023 8.52575 8.405445 8.197812
8.047928 11.117607 11.693914 9.1326275 9.423052 9.393488 9.510048 9.547304
9.442109 9.412075 9.324013 9.4399605 9.483989 9.430228 9.64636 9.728709
9.930053 10.062644 10.324854 10.561494 10.754323 10.986604 11.021768 11.334072
11.402653 11.401154 5.003857 5.332415 9.699696 9.943901 9.895571 10.1743
10.034631 10.144358 9.949097 10.137423 10.056512 10.189315 10.196274 10.081471
10.265524 10.409569 10.5624695 10.443687 10.413826 10.696285 10.631304 10.8289385
10.711806 10.819314 10.836741 9.990078 11.50443 9.613451 9.754064 9.845398
9.757917 9.9807415 9.752834 9.898272 9.868986 10.058308 10.023005 10.059955
10.198127 10.254177 10.444633 10.565922 10.542516 10.704545 10.593198 10.759315
10.673401 10.975366 11.169074 11.2903805 4.5987782 10.415041 8.947889 9.136052
9.1322155 9.29919 9.662027 9.753047 9.622448 9.821232 9.640883 9.819064
9.818161 10.07942 10.136528 10.396587 10.563863 10.950034 11.106056 11.365696
11.451804 11.475279 11.674935 11.897831 12.078305 3.839194 5.6401224 9.628787
9.6616535 9.717449 9.856659 9.846106 9.860578 9.866616 9.88556 9.970428
9.783503 9.78006 10.095885 10.068805 10.17591 10.348802 10.70749 10.727226
11.110717 11.257916 11.364617 11.667264 11.735604 12.174329 5.775869 5.32866
9.152225 9.366611 9.74705 9.757016 10.186318 10.009172 10.329918 10.352284
10.148956 10.361469 10.330905 10.27269 10.244857 10.412766 10.707811 10.603482
10.880654 10.828923 11.119348 11.1344185 11.305878 11.756564 11.945277 5.176059
12.059525 9.555662 9.751884 9.838538 9.775066 9.822134 9.931107 9.848582
9.848116 10.029002 9.999037 10.141784 10.092914 10.328915 10.4693775 10.41391
10.605026 10.520163 10.459138 10.670791 10.843277 10.914565 11.0865135 11.108145
4.87717 5.927988 9.065105 9.478608 9.6598215 9.756593 9.989561 10.155297
10.238807 10.434079 10.561936 10.562682 10.344508 10.52494 10.507036 10.72868
10.749742 10.802884 10.87561 10.93723 11.073547 11.195534 11.352647 11.613955
11.766222 4.26961
